data/ppo_2023_03_23_11_29_08.pth (torch, 93525 bytes, 14 tensors)

actor.0.weight f4 [128, 4]
0	0xbdeab0b5	-0.114594854
1	0xbe82c7a3	-0.25542936
2	0xbebc83fe	-0.36819452
3	0x3ee96c45	0.45590416
4	0xbeb71176	-0.3575551
5	0xbe0d122b	-0.13776462
6	0x3ef31d33	0.47483215
7	0x3e233b58	0.15940607
8	0xbe104bdf	-0.14091443
9	0x3e69fd1b	0.22850458
10	0x3ed51e3b	0.41624627
11	0xbd8b70d9	-0.06808633
12	0xbeacf132	-0.33777767
13	0xbd994078	-0.074829996
14	0xbef1511e	-0.471322
15	0xbdc54730	-0.096327186
16	0xbe359af4	-0.17734891
17	0x3defb018	0.11703509
18	0xbe5247e8	-0.20535243
19	0xbd147e70	-0.036253393
20	0xbeeeb1e7	-0.46620104
21	0xbeb790a0	-0.35852528
22	0xbe8f24ea	-0.2795785
23	0xbcb270eb	-0.02178236
24	0x3e4039f9	0.18772115
25	0xbee93940	-0.4555149
26	0xbea68360	-0.32522106
27	0x3e874566	0.26420134
28	0x3ed5c69f	0.41753098
29	0xbdb1dae0	-0.08684325
30	0x3d50aee0	0.050948024
31	0xbd62be3d	-0.055357207
32	0x3e27af45	0.16375454
33	0x3ef47891	0.47748235
34	0x3e876d6d	0.26450673
35	0x3ec53168	0.38514256
36	0xbe681808	-0.22665417
37	0xbddb6b88	-0.10713869
38	0xbef409a6	-0.4766361
39	0xbe93ba0e	-0.28852886
40	0x3e43cb6e	0.19120571
41	0x3ed12b08	0.40853143
42	0x3c2f1eba	0.010688478
43	0x3d838a2c	0.064228386
44	0xbdcef1e2	-0.10104729
45	0x3e2f04bb	0.17091648
46	0xbe623413	-0.22090177
47	0xbd1448f1	-0.036202375
48	0xbe988df5	-0.29795805
49	0xbe0e45e1	-0.13893844
50	0xbdc1fd48	-0.09472138
51	0xbe665a62	-0.22495416
52	0xbd88812a	-0.06665261
53	0x3e99414f	0.2993264
54	0xbe87c3d6	-0.26516598
55	0xbe4a3f11	-0.1975062
56	0xbe6461df	-0.2230296
57	0x3e80bb30	0.25142813
58	0xbed8efb0	-0.42370367
59	0xbde881c9	-0.113528796
60	0xbd7c95c0	-0.06166625
61	0x3e9a341e	0.30117887
62	0x3e46f678	0.19429958
63	0xbedd15b6	-0.43180627
64	0x3e31c1a5	0.17359026
65	0x3b13023b	0.002243175
66	0xbc32781f	-0.010892897
67	0x3ef45e9c	0.4772843
68	0xbe0340f5	-0.12817748
69	0x3eeac063	0.45849904
70	0x3e64716e	0.22308895
71	0x3e8aa45a	0.27078515
72	0x3e683a87	0.22678576
73	0x3d81383c	0.06309554
74	0xbdc714fa	-0.09720798
75	0x3e534ca7	0.2063471
76	0x3e1201ac	0.1425845
77	0x3e95c107	0.2924883
78	0x3e032bba	0.12809649
79	0x3d89d882	0.06730749
80	0x3e9c40cd	0.3051819
81	0xbef1fe4e	-0.47264332
82	0x3d5f6760	0.054541945
83	0xbee6c1aa	-0.4506963
84	0x3d8d9c72	0.06914605
85	0x3ebf92c4	0.3741666
86	0x3e1c5246	0.1526576
87	0x3e648412	0.22316006
88	0xbed07be6	-0.40719527
89	0xbe89e66e	-0.26933616
90	0x3eca0e42	0.39464003
91	0xbeaa4326	-0.33254355
92	0x3c352681	0.011056543
93	0xbea16d31	-0.3152862
94	0x3e010658	0.12600076
95	0xbe6dcf6b	-0.23223655
96	0x3ef783ce	0.48342746
97	0x3eb25e84	0.34837735
98	0x3e64e63e	0.22353455
99	0xbe64c2bc	-0.2233991
100	0x3ce31443	0.027719622
101	0x3ebc7412	0.36807305
102	0xbdce56f7	-0.10075181
103	0xbe974c3d	-0.29550353
104	0x3d52e250	0.05148536
105	0xbea8c538	-0.32962966
106	0x3ce80580	0.028322935
107	0x3e820da0	0.2540102
108	0xbe7d4234	-0.24732286
109	0x3eb2c61c	0.3491677
110	0xbe793ebc	-0.24340338
111	0xbd13ccc0	-0.036083937
112	0xbeb099d4	-0.34492362
113	0x3eac050a	0.33597594
114	0x3ef7d93a	0.48407918
115	0x3e461c15	0.1934665
116	0x3efc3bd9	0.4926441
117	0x3ec6b1ad	0.3880743
118	0x3e0bf8a9	0.13669075
119	0x3d9987f0	0.07496631
120	0x3e0011c8	0.12506783
121	0x3da5c1d8	0.080936134
122	0x3e6a8ff8	0.22906482
123	0xbd90b1c0	-0.07065153
124	0x3e79bc8f	0.24388336
125	0xbe1700e3	-0.14746432
126	0xbe75beac	-0.23998517
127	0x3ec9bc63	0.3940154
128	0xbed49e3c	-0.41526973
129	0xbdc288dc	-0.0949876
130	0x3ea41b2c	0.3205198
131	0x3e9dee60	0.30845928
132	0xbe66e8ff	-0.22549818
133	0x3ec37bcc	0.38180387
134	0x3dfb4d65	0.12270621
135	0xbedb1d49	-0.4279578
136	0x3eb95bd9	0.36202887
137	0x3ec3e2ad	0.38258877
138	0x3eec45ab	0.46146902
139	0xbb3d33a7	-0.0028869899
140	0x3ec6ba59	0.38814047
141	0x3e2c37d3	0.1681817
142	0x3ea23472	0.31680638
143	0x3edf1472	0.43570286
144	0x3e8394c4	0.25699437
145	0xbe69f13b	-0.22845928
146	0xbe91447c	-0.28372562
147	0x3e1af9f2	0.15134409
148	0x3e8f26bb	0.27959237
149	0x3edfa9ce	0.43684238
150	0xbe1fc3be	-0.15602013
151	0xbdceefbc	-0.101043195
152	0x3ec9c391	0.39407018
153	0x3c4c32c1	0.012463273
154	0xbed8da12	-0.42353874
155	0xbdf644d1	-0.120248444
156	0x3eb621bb	0.3557261
157	0x3e703d28	0.2346083
158	0x3eeede5b	0.4665402
159	0x3ebfcc4c	0.37460554
160	0xbe9ff261	-0.31239608
161	0x3eb4c339	0.35305193
162	0xbe4075da	-0.18794957
163	0x3eb55d82	0.35422903
164	0x3dd74868	0.10511857
165	0x3e1e4886	0.15457353
166	0x3d552f13	0.052046847
167	0x3efa9e98	0.48949122
168	0xbe1d9421	-0.15388538
169	0xbd30ae52	-0.043134995
170	0x3dd00e7f	0.10159015
171	0x3eaf3338	0.34218764
172	0x3e1bd1df	0.15216778
173	0x3ee48667	0.4463379
174	0xbefeb0bb	-0.4974421
175	0xbedf3cc5	-0.4360105
176	0x3c1e9cdc	0.009680953
177	0x3dc6e421	0.09711481
178	0xbd874c2f	-0.06606328
179	0x3ed51abb	0.41621956
180	0x3df53d16	0.11974542
181	0x3e8e2226	0.27760428
182	0x3e20ae37	0.15691458
183	0xbc038972	-0.008028375
184	0x3d8d5ac0	0.06902075
185	0x3d509500	0.050923347
186	0xbd7652d0	-0.06013757
187	0xbef6237e	-0.48073953
188	0xbec96b08	-0.3933947
189	0xbed198f6	-0.40937012
190	0x3c647e80	0.013946176
191	0xbe95d516	-0.29264134
192	0x3d8a0488	0.067391455
193	0xbee7bf70	-0.45263243
194	0x3ce9f140	0.02855742
195	0x3eb61b48	0.3556769
196	0xbefc497c	-0.49274814
197	0x3ef6cb17	0.4820182
198	0xbe9529e4	-0.29133523
199	0xbdb1747b	-0.08664795
200	0xbeae2fd6	-0.3402087
201	0x3ed5bb33	0.41744384
202	0xbdda0cb2	-0.10646953
203	0x3e9ed0e6	0.31018752
204	0xbea1a9d6	-0.31574887
205	0x3d3a54c0	0.04549098
206	0x3cb8d340	0.02256167
207	0x3d061fa0	0.032745004
208	0xbe717eac	-0.23583478
209	0xbedff340	-0.43740273
210	0x3e9a96f4	0.30193293
211	0xbe330538	-0.1748246
212	0xbec59d65	-0.38596645
213	0x3e576e81	0.21038248
214	0x3eb37fdc	0.35058486
215	0x3ec84dad	0.39121762
216	0x3e179887	0.14804278
217	0x3e923375	0.28554884
218	0x3ed81bd2	0.42208725
219	0x3d90ea41	0.070759304
220	0x3ea32f83	0.31872186
221	0xbed1cc05	-0.40975967
222	0x3d2d8470	0.04236263
223	0x3d2e9e11	0.042631213
224	0x3ecf97f3	0.40545616
225	0xbe692964	-0.22769696
226	0x3efea5cb	0.49735865
227	0xbe569f73	-0.20959263
228	0xbded775e	-0.11595033
229	0x3e397ca6	0.18113956
230	0xbef5b66c	-0.4799074
231	0xbe36372c	-0.17794484
232	0x3e864ef5	0.26232114
233	0xbb8ef41e	-0.004362597
234	0xbea71e44	-0.32640278
235	0x3d6ebde2	0.058286555
236	0xbe0d188d	-0.13778897
237	0xbeb8498b	-0.3599361
238	0xbd9df5b9	-0.077128835
239	0x3e852ffb	0.2601317
240	0x3d1072d0	0.035265744
241	0xbeeb4ece	-0.4595856
242	0x3ebebf4c	0.37255323
243	0xbd201df0	-0.03909105
244	0x3e26e1d0	0.16297078
245	0xbeacf6ca	-0.33782035
246	0x3d8a6da0	0.067591906
247	0xbec400c0	-0.38281822
248	0xbebb1c40	-0.3654499
249	0xbdc64d70	-0.09682739
250	0xbe155998	-0.14584959
251	0xbe3ebb54	-0.18626148
252	0x3ef63c30	0.48092794
253	0xbefe7a3a	-0.49702626
254	0x3d37747f	0.044788834
255	0x3eeb5098	0.45959926

actor.0.bias f4 [128]
0	0xbe24331b	-0.1603512
1	0x3e9434c5	0.2894651
2	0x3dc05866	0.09391861
3	0xbeec2fe6	-0.46130294
4	0xbe679c5c	-0.2261824
5	0x3eeee4bf	0.46658894
6	0x3e88dc87	0.2673075
7	0xbe2f02ab	-0.17090861
8	0x3e56a6ee	0.20962116
9	0xbe70dff0	-0.23522925
10	0xbeaae826	-0.3338024
11	0x3d812b59	0.06307096
12	0x3e8bf2f0	0.27333784
13	0x3e7a6240	0.24451542
14	0x3ddecec1	0.10879279
15	0xbef68e5e	-0.48155493
16	0x3e8fb711	0.28069356
17	0x3eb77add	0.35835925
18	0x3e9b1d23	0.30295667
19	0x3e58563a	0.21126643
20	0x3e6a808e	0.22900602
21	0xbef24107	-0.47315237
22	0x3e0ac812	0.13552883
23	0x3e486044	0.19567972
24	0xbe58e69e	-0.21181723
25	0x3c299012	0.01034929
26	0xbe5808b8	-0.21097076
27	0xbed7e366	-0.4216568
28	0xbe29c68d	-0.16579647
29	0x3edb7c7a	0.42868406
30	0xbee8c048	-0.454592
31	0x3da0c8bb	0.07850786
32	0x3e94d247	0.2906668
33	0x3ee6d7b4	0.45086443
34	0xbeb00e6a	-0.34385997
35	0xbe11d751	-0.14242293
36	0x3d327f07	0.043578174
37	0xbda6478e	-0.08119117
38	0x3e51c100	0.2048378
39	0x3df46c5a	0.11934729
40	0x3df5dc83	0.1200495
41	0x3e1b5aee	0.15171406
42	0xbe292626	-0.16518459
43	0xbe055de0	-0.13024092
44	0xbe158fc3	-0.14605622
45	0x3ee13871	0.43988374
46	0xbdb0de88	-0.086361945
47	0x3dfb41c0	0.122684
48	0xbeec4888	-0.46149087
49	0x3e215fd1	0.15759207
50	0xbed7f5bc	-0.42179668
51	0x3d568d3c	0.052380785
52	0xbc4dc6c0	-0.012559593
53	0xbe3bc6f6	-0.18337616
54	0x3ddd5e64	0.10809019
55	0xbd22ee7a	-0.03977821
56	0x3c09f7d8	0.008420907
57	0xbc37c04b	-0.01121528
58	0xbe1d55fe	-0.15364835
59	0x3e94e034	0.29077303
60	0xbe710ca0	-0.23539972
61	0x3dbcb21e	0.09213661
62	0xbea497f4	-0.3214718
63	0x3e9acdf9	0.3023527
64	0xbdb22714	-0.0869886
65	0x3ee5cf43	0.4488469
66	0xbcb6f340	-0.022332788
67	0x3e9c9e0d	0.30589333
68	0x3d94c808	0.072647154
69	0x3e9bf653	0.30461368
70	0xbed45f5e	-0.4147901
71	0x3ef54c21	0.47909644
72	0x3e867530	0.26261282
73	0xbee09300	-0.43862152
74	0xbeeb7d2a	-0.4599393
75	0xbdf5762b	-0.119854294
76	0x3e949c6f	0.290256
77	0xbef21828	-0.47284055
78	0xbea189c6	-0.31550425
79	0x3eb47b35	0.3525025
80	0xbebb8a88	-0.36629128
81	0xbc46e255	-0.012138923
82	0xbe2fcfa2	-0.1716905
83	0xbebb9d14	-0.3664328
84	0x3ef48d21	0.47763923
85	0xbeddf148	-0.43348145
86	0xbe4050e0	-0.18780851
87	0xbef3ab76	-0.47591752
88	0x3d1dad74	0.038495496
89	0xbe55a37c	-0.20863146
90	0x3efa24b7	0.48856136
91	0x3ed38da5	0.41319004
92	0xbd7527b4	-0.059852317
93	0xbe0d70ec	-0.13812608
94	0xbe4ec29d	-0.20191427
95	0x3efba7bd	0.49151412
96	0xbe126a6f	-0.14298414
97	0xbec60448	-0.3867514
98	0xbe8c11ee	-0.2735743
99	0xbedadc04	-0.42745984
100	0x3d670c13	0.056408
101	0xbef17648	-0.47160554
102	0x3ebf44cf	0.37357184
103	0xbede1fae	-0.43383545
104	0x3e907faf	0.28222415
105	0xbdd39077	-0.10330289
106	0x3dde9b9e	0.108695254
107	0xbe12bdd8	-0.14330232
108	0xbd6e8844	-0.05823542
109	0x3e8dd743	0.27703294
110	0xbdec9136	-0.11551134
111	0x3d4d4101	0.05011082
112	0x3e9b9175	0.30384412
113	0xbe72393b	-0.23654644
114	0xbef7bbc7	-0.4838545
115	0x3e2be858	0.16787851
116	0x3b368fd5	0.0027856727
117	0xbe84d23e	-0.25941652
118	0xbe35d5c0	-0.1775732
119	0xbe8428da	-0.25812417
120	0x3e8234d1	0.2543092
121	0xbedafd70	-0.42771482
122	0x3d1fdefe	0.03903102
123	0xbeb8b450	-0.36075068
124	0xbdd29075	-0.10281459
125	0x3e8aafd5	0.27087274
126	0x3ee10475	0.43948713
127	0xbd662974	-0.056191877

actor.2.weight f4 [64, 128]
0	0xbda7d47e	-0.081948265
1	0xbab062c9	-0.0013457175
2	0x3d57c65e	0.052679412
3	0xbd266aaa	-0.040629067
4	0xbb8bb3c8	-0.004263375
5	0x3d75169e	0.059836023
6	0xbd016943	-0.031594526
7	0x3c823c48	0.015897885
8	0x3d2ce6be	0.04221224
9	0xbda93e1b	-0.08263799
10	0xbd680c7a	-0.056652524
11	0x3d3d9254	0.046282127
12	0xbdb16e04	-0.08663562
13	0x3bc3e1d2	0.0059778476
14	0xbcd2f489	-0.02575137
15	0xbd0f689e	-0.03501188
16	0x3d8ab26f	0.06772315
17	0xbd26ffad	-0.040771175
18	0x3d1afc22	0.03783811
19	0x3cacdf47	0.02110256
20	0x3da56a73	0.08076944
21	0xbc837576	-0.01604722
22	0x3d5767f6	0.05258938
23	0xbd4a4612	-0.04938323
24	0xbbae72e1	-0.005323753
25	0x3c22664c	0.009912085
26	0xbcc61449	-0.024179595
27	0x3cc83450	0.024439007
28	0xbc7b1a2d	-0.015326065
29	0x3d86f291	0.065892346
30	0x3d9da82f	0.07698094
31	0x3db7edac	0.08980879
32	0x3d83c119	0.06433315
33	0xbc9519ec	-0.018200837
34	0xbdac0c6e	-0.08400808
35	0xbd9b45da	-0.075816825
36	0xbd6dcc38	-0.058056086
37	0xbd944c25	-0.07241086
38	0xbd5589a2	-0.05213321
39	0xbd7b4870	-0.06134838
40	0xbcb75bd8	-0.022382662
41	0x3d438351	0.047732655
42	0xbd421fec	-0.047393724
43	0xbacfd228	-0.0015855478
44	0x3ce4af74	0.027915694
45	0xbd9912ab	-0.07474264
46	0x3d604eac	0.054762527
47	0xbca80d5e	-0.020514186
48	0x3bc5f5e6	0.0060412763
49	0x3d39c048	0.04534939
50	0x3dac3aa1	0.0840962
51	0x3ca7d0bc	0.020485274
52	0xbd090dd8	-0.033460468
53	0x3d27e8fb	0.040993672
54	0x3d25c207	0.040468242
55	0x3d7dd787	0.06197312
56	0xbd2464fa	-0.04013536
57	0x3db23cc0	0.087029934
58	0x3a87407f	0.0010318904
59	0xbd8a1881	-0.06742955
60	0xbc37bd7e	-0.011214612
61	0x3db305d2	0.087413445
62	0x3b7f4181	0.0038948955
63	0x3c8102cd	0.015748406
64	0x3da4766a	0.08030398
65	0xbd965ca5	-0.07341889
66	0x3d139243	0.036028158
67	0xba5e7b7a	-0.00084870274
68	0x3c8fea0e	0.01756766
69	0x3d286913	0.04111583
70	0x3d843f47	0.06457382
71	0xbcdf26c8	-0.027240172
72	0x3c1755e3	0.009236786
73	0x3cedb848	0.029018536
74	0xbc81bbe0	-0.015836656
75	0x3cd34fe4	0.02579493
76	0xbd72a134	-0.059235767
77	0xbc938271	-0.018006535
78	0x3dac6760	0.08418155
79	0xbd3dd63c	-0.046346888
80	0x3d776fbe	0.0604093
81	0xbd4a6a6c	-0.049417898
82	0xbd817712	-0.06321539
83	0xbd725e6e	-0.059172086
84	0x3d6f9198	0.05848846
85	0xbd104e52	-0.035230942
86	0xbdb26de2	-0.08712365
87	0xba18f6de	-0.0005835126
88	0xbcee3064	-0.029075809
89	0xbd6e5778	-0.058188885
90	0xbcaa841d	-0.02081495
91	0x3d7057f5	0.058677632
92	0xbd0a3797	-0.03374442
93	0xbc1fee52	-0.00976141
94	0xbd507338	-0.05089113
95	0x3db45166	0.08804588
96	0xbd982787	-0.07429414
97	0xbd04dcf1	-0.03243727
98	0xbdb28937	-0.08717578
99	0xbc1e4d4e	-0.009661986
100	0x3c810e65	0.015753934
101	0xbd407859	-0.046989772
102	0xbda16cf8	-0.07882112
103	0x3d423a7f	0.047419067
104	0x3dab525e	0.0836532
105	0xbd642d04	-0.055706993
106	0x3c915e2b	0.017745098
107	0xbd9ee302	-0.07758142
108	0xbdad4ab7	-0.08461516
109	0xbdae9561	-0.085245855
110	0x3d810738	0.06300205
111	0x3cfe242c	0.031023107
112	0x3d8a6940	0.06758356
113	0x3d04c410	0.032413542
114	0xbd336977	-0.04380175
115	0x3d430f93	0.047622275
116	0xbd940bed	-0.07228837
117	0xbd89572d	-0.067060806
118	0xbdb3b3dd	-0.087745406
119	0x3d9dee6a	0.077114895
120	0xbb99a8d2	-0.0046893144
121	0x3d0fc3a3	0.035098683
122	0x3d9f2390	0.07770455
123	0x3d866ea6	0.06564073
124	0xbd2908af	-0.041268047
125	0xbd268804	-0.04065706
126	0x3d893403	0.066993736
127	0x3d132756	0.035926186
128	0x3d43cc84	0.047802463
129	0xbcf9f84a	-0.030513901
130	0xbd290b87	-0.04127076
131	0xbd153f6c	-0.036437437
132	0x3db16f0f	0.08663761
133	0xbd9d4e27	-0.07680922
134	0x3d4a0390	0.049319804
135	0x3d947f65	0.07250861
136	0x3d460c2d	0.048351455
137	0xbd8ec7a0	-0.06971669
138	0x3da6f320	0.08151841
139	0x3d87f872	0.06639184
140	0x3d9f6bae	0.0778421
141	0x3daa2b03	0.08308985
142	0xbc225b3a	-0.009909445
143	0xbd876c94	-0.066125065
144	0x3d287c38	0.04113409
145	0x3da8192a	0.08207925
146	0xbd1cafd3	-0.038253617
147	0xbd758b15	-0.059947092
148	0x3cce9d98	0.02522163
149	0xbc121a58	-0.008917414
150	0x3d4ec651	0.050482098
151	0xba6f7272	-0.000913418
152	0x3c4ff736	0.012693217
153	0x3c93c789	0.018039482
154	0xbc8f7529	-0.017511921
155	0x3d941371	0.07230271
156	0xbd44972a	-0.047995724
157	0x3dac011d	0.0839865
158	0xbb0f7178	-0.00218877
159	0xbd8a36b4	-0.06748715
160	0xbbe910b8	-0.0071125887
161	0xbd0c6503	-0.03427602
162	0x3d7a72ad	0.06114452
163	0xbb633c70	-0.0034673475
164	0x3d677e83	0.056517135
165	0x3d30a01e	0.04312145
166	0x3ca3648a	0.019945402
167	0x3d767531	0.060170356
168	0x3d47ff59	0.048827503
169	0xbd37a3a0	-0.04483378
170	0x3d488abf	0.048960444
171	0xbd7bea6f	-0.06150287
172	0xbd9f25b0	-0.0777086
173	0xbd67cb72	-0.056590505
174	0xbcdcd27e	-0.02695584
175	0x3c66c741	0.014085592
176	0xbd0a1b7e	-0.033717625
177	0x3d025a2f	0.031824287
178	0xbcac72fa	-0.021050919
179	0xbcb934ed	-0.022608245
180	0x3d4cd23b	0.05000518
181	0x3d980858	0.074234664
182	0xbd809502	-0.06278421
183	0x3d5eeb83	0.05442382
184	0x3d2ec00b	0.042663615
185	0x3d3b8617	0.045782175
186	0xbd5367ec	-0.05161278
187	0xbd2c4056	-0.042053543
188	0x3d8281aa	0.06372388
189	0x3d590ca1	0.05299056
190	0x3ce070bc	0.027397506
191	0xbb4a5d3e	-0.003087833
192	0xbbac7916	-0.005263458
193	0x3bfd8bed	0.0077376277
194	0xbd65760b	-0.056020778
195	0x3d2c09b4	0.04200144
196	0xbd963181	-0.07333661
197	0xbdb133c3	-0.08652451
198	0xbc07b6a1	-0.008283288
199	0x3d9fa9f9	0.077960916
200	0xbd673222	-0.056444295
201	0xb8e3cc82	-0.00010862296
202	0xbd5f134d	-0.054461766
203	0x3d75f23f	0.060045477
204	0x3cc44677	0.023959382
205	0x3d933500	0.07187843
206	0xbbd60fe9	-0.0065326584
207	0xbd64e90f	-0.055886324
208	0xbda9d8c2	-0.082932964
209	0xbd2b3604	-0.04179956
210	0x3d78827c	0.060671315
211	0x3d1bc363	0.038028132
212	0xbd36d09f	-0.04463255
213	0xbd09d7a2	-0.03365291
214	0x3da07a1c	0.078357905
215	0xbd16b918	-0.036797613
216	0x3d10268b	0.035193007
217	0x3da137a0	0.07871938
218	0x3d729ddb	0.059232574
219	0x3ab45d6b	0.0013760751
220	0x3d056fbf	0.032577273
221	0xbd815cce	-0.06316529
222	0x3b9a3ca3	0.0047069355
223	0xbd22cf19	-0.039748285
224	0x3d14b286	0.036303066
225	0x3b979bda	0.0046267333
226	0xbcabffd6	-0.020996016
227	0xbdacf583	-0.08445265
228	0xbc690b64	-0.014223907
229	0xbdaaffee	-0.08349596
230	0x3d16f3df	0.036853667
231	0xbc6f4e33	-0.0146060465
232	0xbd79107a	-0.06080673
233	0x3d989e9c	0.07452127
234	0x3d70544e	0.05867415
235	0xbd17b2a3	-0.037035596
236	0xba8b1161	-0.0010610038
237	0xbcd89412	-0.026437793
238	0x3d826c96	0.063683674
239	0xbd2f6461	-0.04282034
240	0x3d1041a4	0.03521885
241	0xbd2e7598	-0.042592615
242	0xbcdc7a46	-0.026913773
243	0xbd74d46e	-0.0597729
244	0x3da6cc33	0.08144417
245	0xbd4bc155	-0.049744923
246	0xbd815b4a	-0.0631624
247	0x3d9b2894	0.07576099
248	0x3d008efb	0.031386357
249	0x3bec0873	0.0072031557
250	0xbd0ae365	-0.033908267
251	0x3a866119	0.0010252326
252	0x3c8de401	0.017320635
253	0x3d39df5b	0.045379024
254	0x3d629ee8	0.055327326
255	0x3d2f0df6	0.042737924

actor.2.bias f4 [64]
0	0xbd65241d	-0.055942643
1	0xbd21b8f9	-0.039483044
2	0xba1544cc	-0.00056941505
3	0x3d905655	0.070477165
4	0xbd0aa129	-0.0338451
5	0xbd092da4	-0.033490792
6	0xbd2c992c	-0.042138264
7	0x3b86cc4d	0.00411371
8	0xbd74e712	-0.05979068
9	0xbd26647b	-0.04062317
10	0xbd9526e3	-0.07282808
11	0x3d5f9551	0.05458576
12	0x3d3f49c1	0.046701197
13	0xbcdd3c8e	-0.027006414
14	0xbb423a74	-0.0029636892
15	0xbd1fcf18	-0.03901586
16	0xbc10ba3b	-0.008833463
17	0x3d70ddd6	0.05880531
18	0xbd0806a8	-0.033209473
19	0x3d85ce6a	0.06533511
20	0xbdb22769	-0.08698923
21	0xbd4fcfe7	-0.05073538
22	0xbd7a25f8	-0.061071366
23	0xbd4ed13d	-0.050492514
24	0x3da11d3a	0.07866903
25	0xbd858413	-0.06519332
26	0xbd18623e	-0.037203066
27	0x3da799f6	0.081836626
28	0x3c0f848e	0.008759631
29	0x3db0515a	0.086092666
30	0xbd9f264b	-0.07770976
31	0x3d838efa	0.06423755
32	0x3d7f0d34	0.06226845
33	0x3bd2343d	0.0064149187
34	0x3d04fa8a	0.032465495
35	0x3cab4f61	0.020911874
36	0x3bd640d0	0.006538488
37	0x3d649ff1	0.055816595
38	0xbd257d1b	-0.040402513
39	0x3d806ed6	0.0627114
40	0xbd722f17	-0.05912694
41	0x3d83d535	0.064371504
42	0x3d8b9322	0.06815173
43	0x3d5ac820	0.05341351
44	0x3d5b3d11	0.053525034
45	0x3ce6e84b	0.028186938
46	0xbd9638bf	-0.07335042
47	0xbd166829	-0.03672043
48	0xbd1f7678	-0.03893134
49	0x3d85c59a	0.0653183
50	0xbd78c855	-0.060737927
51	0x3c1ea5af	0.009683057
52	0xbc8fdbba	-0.017560828
53	0xbd5f8262	-0.054567702
54	0x3d3bdda1	0.04586566
55	0x3c84e800	0.016223907
56	0x3b7ec17a	0.0038872645
57	0x3da59e90	0.08086884
58	0x3cca7f50	0.02471891
59	0x3cc1071e	0.023562964
60	0x3d78cfea	0.060745157
61	0xbd81e8ea	-0.06343253
62	0xbc5e2c98	-0.013560437
63	0xbcecba21	-0.028897347

actor.4.weight f4 [32, 64]
0	0x3ca052b9	0.019570695
1	0xbdddeabf	-0.1083579
2	0x3df20d1d	0.118189074
3	0xbc1cd9c1	-0.009573401
4	0x3d33d1f8	0.043901414
5	0xbc60c800	-0.013719559
6	0xbde0245a	-0.109444335
7	0xbdc6ae4c	-0.09701213
8	0xbd9f10ec	-0.077668995
9	0x3dc6dcfe	0.0971012
10	0xbc707aa0	-0.014677674
11	0x3d7a0bce	0.061046414
12	0x3d7e648f	0.06210762
13	0x3d866dcc	0.06563911
14	0xbd46728a	-0.048449077
15	0x3c6cd970	0.014456138
16	0x3ce21840	0.027599454
17	0x3d708b21	0.058726434
18	0x3cb3c628	0.021945074
19	0x3c0e5c1e	0.008688955
20	0x3d8f4e94	0.069974095
21	0x3dfbeda4	0.12301186
22	0x39e3ecad	0.0004347315
23	0x3dfdae9e	0.12386821
24	0x3d434fba	0.047683455
25	0xbda82b5a	-0.08211394
26	0xbc0f19e0	-0.008734196
27	0x3c5fedb9	0.013667517
28	0x3de593ae	0.11209808
29	0xbce57e38	-0.028014287
30	0x3dc4fa79	0.09618086
31	0x3cf836fc	0.030299656
32	0xbce1238c	-0.02748277
33	0x3cf8b880	0.030361414
34	0xbd47c350	-0.04877025
35	0x3db34e10	0.087551236
36	0xbdd7f786	-0.10545258
37	0xbd804b13	-0.06264319
38	0x3cfedcf0	0.03111121
39	0xbdebb186	-0.11508469
40	0x3d8a82f9	0.06763262
41	0x3dcb1c62	0.09917523
42	0xbd28368d	-0.04106765
43	0xbd171d2c	-0.036893055
44	0xbd310beb	-0.043224256
45	0xbdecf0cb	-0.11569365
46	0x3d8bdfa0	0.068297625
47	0xb99bf500	-0.00029746443
48	0x3c4b7dc0	0.012420118
49	0xbd62054a	-0.055180825
50	0xbdef1a7c	-0.11674973
51	0x3ca12744	0.019672044
52	0xbddd96be	-0.108197674
53	0x3d883a36	0.06651728
54	0xbd284262	-0.041078933
55	0xbcaa8365	-0.020814607
56	0x3da40d54	0.08010355
57	0xbd9726b4	-0.07380429
58	0x3df2e71d	0.118604876
59	0x3db773e8	0.08957654
60	0xbde26199	-0.110537715
61	0xbd031486	-0.032001995
62	0xbd5dccd2	-0.05415041
63	0x3de34d2d	0.110987045
64	0xbdf8fc31	-0.12157477
65	0xbd3abb9e	-0.045589082
66	0x3d2095a7	0.03920522
67	0x3d83ed31	0.06441725
68	0xbd939124	-0.07205418
69	0x3d80f846	0.062973544
70	0x3dbae09e	0.091248736
71	0xbd98224e	-0.07428418
72	0x3c3b07a7	0.011415399
73	0xbdb88120	-0.09009004
74	0xbda2bb7e	-0.079459175
75	0xbd5a0af1	-0.05323309
76	0xbdeb9f3c	-0.11504981
77	0x3d9567a2	0.07295157
78	0xbd23fa30	-0.04003352
79	0xbc609297	-0.013706825
80	0x3d9b18d6	0.075730965
81	0x3dc31b7c	0.095267266
82	0x3dd1d86e	0.10246359
83	0x3d933978	0.07188696
84	0x3db2f03e	0.08737229
85	0xbbbf10a7	-0.0058308425
86	0x3ddfd665	0.109295644
87	0x3d897274	0.06711283
88	0x3da389bc	0.07985255
89	0xbdc0501d	-0.093902804
90	0x3d3eff44	0.04663016
91	0xbc7f511b	-0.015583302
92	0x3dd8ba20	0.105823755
93	0x3d5cec50	0.053936303
94	0xbdd3850c	-0.10328111
95	0x3cea32bc	0.028588645
96	0x3dc16d0d	0.09444628
97	0x3cba15e0	0.022715509
98	0x3d9c01da	0.07617541
99	0xbda3f0e6	-0.08004932
100	0xbd1dc7cb	-0.038520616
101	0x3d108d54	0.03529103
102	0x3dc91754	0.098189026
103	0x3d8a8cc9	0.06765134
104	0xbd513231	-0.051073257
105	0x3be26a54	0.006909648
106	0x3d62fef8	0.05541894
107	0xbd6f84b4	-0.058476165
108	0xbde4b6f2	-0.111677065
109	0x3bd536c6	0.0065067736
110	0xbde86034	-0.11346474
111	0xbd4a91ed	-0.049455572
112	0x3dae7338	0.0851807
113	0x3df4a1de	0.11944936
114	0xbdf39c20	-0.11895013
115	0x3dcce30f	0.100042455
116	0x3db3566f	0.0875672
117	0x3d9cefb4	0.07662907
118	0xbbb21ff4	-0.005435938
119	0xbdbbb700	-0.09165764
120	0x3dcee042	0.101013675
121	0xbd8d3c3e	-0.06896256
122	0x3bd26656	0.006420891
123	0xbd1edc0c	-0.03878407
124	0x3cc6e9c3	0.024281388
125	0xbdf6e9f9	-0.120563455
126	0x3dcc073d	0.09962318
127	0xbc804faa	-0.015662987
128	0x3d90865f	0.07056879
129	0xbddb1c8a	-0.10698803
130	0xbdc11447	-0.09427696
131	0x3dc35477	0.09537595
132	0xbd6720fc	-0.05642794
133	0xbdd7c06c	-0.105347484
134	0xbce79f97	-0.02827434
135	0xbd167159	-0.03672919
136	0x3daedecd	0.085385896
137	0xbde933de	-0.11386846
138	0x3d6a91f4	0.057268098
139	0xbdc06846	-0.093948886
140	0xbdde2a7a	-0.108479455
141	0xbbea1020	-0.0071430355
142	0xbd9cd866	-0.07658462
143	0xbde6a95a	-0.1126277
144	0xbdbef81a	-0.09324665
145	0xbdbfa040	-0.09356737
146	0xbdbbe362	-0.09174229
147	0xbd098d47	-0.033582
148	0x3d76dc38	0.06026861
149	0x3df8bd94	0.12145534
150	0x3d38f183	0.0451522
151	0x3c5172b0	0.012783691
152	0xbcca7b0d	-0.024716878
153	0xbdd01e73	-0.10162058
154	0xbd9bd90a	-0.07609756
155	0xbd96e917	-0.07368677
156	0xbdcffaea	-0.1015528
157	0x3dbff4ef	0.09372889
158	0xbd1d936a	-0.038470663
159	0xbd34438a	-0.044009723
160	0xbd83189c	-0.06401178
161	0xbd6e3bec	-0.058162615
162	0x3d965024	0.07339504
163	0x3da089b4	0.07838765
164	0x3da6220d	0.081119634
165	0xbcda7b71	-0.02667019
166	0xbd0f0b7e	-0.03492307
167	0x3ddad2f0	0.106847644
168	0x3cd9d2f0	0.02658984
169	0x3dcf8cb0	0.10134256
170	0x3ce96054	0.028488316
171	0xbdda543a	-0.10660596
172	0x3d6c0f4e	0.057631783
173	0xbdc2b98a	-0.09508045
174	0xbdf32d92	-0.11873926
175	0x3d981710	0.07426274
176	0x3ce99a50	0.028515965
177	0x3d83bf7d	0.06433008
178	0xbdae7bb6	-0.0851969
179	0x3cc8c944	0.024510033
180	0xbb0fc416	-0.0021936945
181	0x3dc272fc	0.09494588
182	0xbdd609f9	-0.10451121
183	0xbd15d340	-0.036578417
184	0x3db08b59	0.086203285
185	0x3d56d661	0.05245054
186	0xbd82d909	-0.063890524
187	0xbdba3c3c	-0.0909352
188	0x3dce23a0	0.10065389
189	0x3dc8ec9d	0.098107554
190	0x3df4bafa	0.119497254
191	0xbdad9c13	-0.084770344
192	0xbded96cb	-0.11601027
193	0x3de47a1b	0.11156102
194	0x3d3c04c0	0.045902967
195	0x3d87f676	0.066388056
196	0xbdbb1bb0	-0.0913614
197	0x3cafc5f0	0.021456689
198	0xbd948c03	-0.072532676
199	0xbddb3caa	-0.1070493
200	0x3ccf4e98	0.025306031
201	0xbc9ebfad	-0.019378508
202	0x3d837700	0.06419182
203	0x3b1679a2	0.0022960682
204	0x3d6cd5cc	0.05782108
205	0xbc8e5ba8	-0.01737769
206	0x3bd6f8f1	0.006560438
207	0xbde26505	-0.11054424
208	0xbc9abe90	-0.018889695
209	0x3bf18ac5	0.007371279
210	0x3cc04280	0.02346921
211	0xbd8c066c	-0.068371624
212	0x3cbab358	0.022790596
213	0xbcca6072	-0.024704192
214	0x3d4c7627	0.049917366
215	0x3d712090	0.058868945
216	0xbdf67816	-0.12034623
217	0x3c8520f8	0.016251072
218	0x3de0a242	0.10968448
219	0x3de0e306	0.10980801
220	0xbcb36197	-0.02189712
221	0x3da77a7c	0.08177659
222	0xbdc37cda	-0.09545298
223	0xbdb115e1	-0.08646751
224	0x3c5e2306	0.013558155
225	0x3dbd2894	0.09236255
226	0x3cc18f38	0.023627862
227	0xbd3a5ca8	-0.04549852
228	0x3dd2ebc4	0.10298875
229	0xbc802ed0	-0.015647322
230	0x3df89fa6	0.121398255
231	0x3c59744e	0.013272358
232	0xbde11e10	-0.10992062
233	0x3d8bc92d	0.068254806
234	0x3df2d0e3	0.11856248
235	0xbd91a4e6	-0.0711153
236	0xbdc681ec	-0.096927494
237	0x3df21b51	0.118216164
238	0xbd9c6648	-0.07636696
239	0x3d1ef2e6	0.038805865
240	0x3dfcc570	0.12342346
241	0x3d44a6eb	0.048010748
242	0xbdaf588a	-0.08561809
243	0xbdf16123	-0.117861055
244	0xbb85408c	-0.0040665325
245	0x3d079268	0.03309861
246	0x3dad64d4	0.08466497
247	0x3dba9951	0.09111274
248	0x3dc8de62	0.09808041
249	0xbd02ed30	-0.03196448
250	0x3dc487bb	0.09596201
251	0x3c8615d0	0.016367823
252	0xbd702cd3	-0.058636498
253	0xbdcc9738	-0.0998978
254	0x3bde7362	0.006788657
255	0xbc5032df	-0.012707441

actor.4.bias f4 [32]
0	0x3dcbdac2	0.09953834
1	0xbd5f68b3	-0.05454321
2	0x3ddb8f57	0.10720699
3	0xbc21ae0a	-0.009868154
4	0xbd39c66a	-0.045355238
5	0xbddc4bee	-0.1075667
6	0x3d852589	0.065013
7	0xbd4bf864	-0.04979743
8	0xbd62c140	-0.05536008
9	0xbd906bc6	-0.07051806
10	0x3dddcccd	0.10830078
11	0xbda2f414	-0.079567105
12	0x3d28866c	0.04114382
13	0x3ded14b7	0.11576217
14	0x3dd4ddce	0.103938684
15	0x3d3493d5	0.044086296
16	0x3b3e52f6	0.0029041148
17	0xbdba9eb0	-0.091122985
18	0x3c36e4aa	0.011162916
19	0xbd82c200	-0.06384659
20	0x3d97b70f	0.074079625
21	0x3dba2060	0.09088206
22	0x3db53b04	0.08849147
23	0x3b70bf00	0.0036734939
24	0xbddab178	-0.10678381
25	0xbdab5f48	-0.08367783
26	0x3d40addc	0.047040805
27	0xbd8e8daa	-0.06960614
28	0x3d2619a6	0.040551804
29	0x3d57eb7c	0.05271481
30	0xbd6310bb	-0.055435877
31	0x3c09e066	0.008415317

actor.6.weight f4 [1, 32]
0	0xbdd136b1	-0.1021551
1	0x3d9fe990	0.078082204
2	0xbb856cb5	-0.004071797
3	0x3db97964	0.090563565
4	0x3d19b68a	0.0375276
5	0xbcec0725	-0.028812
6	0x3e25048d	0.16115017
7	0x3d39fe51	0.04540855
8	0x3e1ccfcd	0.15313645
9	0x3d81b1d8	0.06332749
10	0xbe128aeb	-0.14310805
11	0xbde5dcff	-0.11223792
12	0xbcbf90dc	-0.023384504
13	0x3e0c9de3	0.13732104
14	0xbdef980f	-0.11698925
15	0xbb37d311	-0.002804939
16	0x3dcc2490	0.09967911
17	0xbcb2d250	-0.0218288
18	0x3e0a61c2	0.13513854
19	0xbde8a64d	-0.11359844
20	0xbe07dd36	-0.13267979
21	0x3e0ffb0e	0.14060614
22	0xbd6fde71	-0.058561746
23	0x3e197829	0.14987244
24	0x3e0906f3	0.13381557
25	0x3d506c44	0.0508845
26	0xbdf26c13	-0.1183702
27	0xbdd967b6	-0.106154844
28	0x3dc9ad33	0.09847488
29	0x3dcd8cb9	0.10036606
30	0x3cd954cb	0.02652969
31	0x3e1c69b9	0.15274705

critic.0.weight f4 [128, 4]
0	0x3e2ab251	0.16669585
1	0xbde8bd43	-0.11364224
2	0xbd6e40e7	-0.058167364
3	0xbe3a498b	-0.18192117
4	0xbea9589c	-0.33075416
5	0x3e855390	0.26040316
6	0x3e2a9304	0.16657645
7	0x3d3ac7f0	0.04560083
8	0xbe67693b	-0.22598736
9	0x3e68e522	0.22743657
10	0x3ef76b7c	0.48324192
11	0xbeecee60	-0.46275616
12	0x3d9ce805	0.07661442
13	0xbe20dd69	-0.15709461
14	0xbd405124	-0.04695238
15	0x3ed4d87b	0.41571411
16	0xbe81d1e8	-0.25355458
17	0xbd13c8d0	-0.03608018
18	0x3c800240	0.015626073
19	0x3e202ff4	0.15643293
20	0xbe9b4c76	-0.30331773
21	0xbe289380	-0.16462517
22	0x3efb9226	0.4913494
23	0xbeb50427	-0.3535473
24	0x3e8ca249	0.27467564
25	0x3eb57326	0.35439414
26	0xbed8a9c2	-0.42317015
27	0xbe9f5ff8	-0.31127906
28	0xbc3c36ac	-0.011487644
29	0xbe4ef5aa	-0.20210901
30	0x3eaf47fc	0.34234607
31	0x3e92d790	0.28680086
32	0x3e7d3f50	0.24731183
33	0xbebced9a	-0.36900026
34	0x3e86b1fa	0.2630766
35	0xbd9fe458	-0.07807225
36	0x3de08d87	0.10964494
37	0xbed8460a	-0.42240936
38	0x3e356ca1	0.1771722
39	0xbe03bb76	-0.1286448
40	0x3d0ac27f	0.033876892
41	0x3dfa187f	0.122117035
42	0x3ebd0b8c	0.36922872
43	0x3da403ce	0.08008538
44	0xbdfcf87e	-0.123520836
45	0xbec40b3b	-0.38289818
46	0x3e1875f8	0.14888752
47	0x3ecb69a1	0.39729026
48	0xbd0cf4b0	-0.03441304
49	0x3edcd50c	0.43131292
50	0x3e397c28	0.18113768
51	0xbea4c6fe	-0.3218307
52	0xbe20262e	-0.15639564
53	0xbef116ee	-0.47087806
54	0x3ee183c0	0.4404583
55	0x3ebb3643	0.36564836
56	0xbe7788ac	-0.2417323
57	0xbe88ed69	-0.2674363
58	0xbeacef9e	-0.33776563
59	0xbc607a9e	-0.013701109
60	0x3eae62ba	0.34059697
61	0x3ef81a72	0.48457676
62	0x3edb5cd7	0.4284427
63	0x3ca130a1	0.019676508
64	0x3dfed578	0.1244306
65	0x3e66a91c	0.22525448
66	0xbe5c6250	-0.21521878
67	0xbdfb3768	-0.12266427
68	0x3e87ddb3	0.2653633
69	0x3eebeeba	0.4608057
70	0xbe54b5cc	-0.20772475
71	0xbeec8448	-0.46194673
72	0xbe3ae8c4	-0.18252856
73	0x3e9696af	0.29411837
74	0xbe6d7696	-0.23189768
75	0x3ed275ec	0.41105592
76	0xbe06d390	-0.13166642
77	0xbebd2880	-0.36944962
78	0x3ee6695a	0.45002252
79	0xbed7cc1e	-0.42147917
80	0x3ebb075b	0.3652905
81	0x3edc5b12	0.4303823
82	0xbe53c852	-0.20681885
83	0x3e6e68d9	0.23282184
84	0x3e747047	0.23870955
85	0xbd562d6b	-0.052289408
86	0xbe6da7ed	-0.2320859
87	0xbebe713c	-0.37195766
88	0xbe28fc5c	-0.16502517
89	0xbe7829c7	-0.24234687
90	0x3e57f97f	0.21091269
91	0x3ee531fc	0.44764698
92	0xbe9b863a	-0.30375844
93	0xbd35ccb0	-0.04438466
94	0xbeaf674e	-0.34258503
95	0xbea1b072	-0.3157993
96	0xbe7b093e	-0.24515244
97	0x3e63c00a	0.22241226
98	0xbeb10b8b	-0.3457912
99	0xbcb443f5	-0.02200506
100	0xbe542569	-0.20717396
101	0x3e3e65a4	0.1859346
102	0xbddc978e	-0.10771094
103	0x3eb85493	0.36002025
104	0xbeea88cf	-0.45807502
105	0x3ef094c2	0.46988493
106	0x3d7b3ed7	0.061339226
107	0xbea452d3	-0.3209444
108	0x3ed33fb6	0.41259545
109	0xbd0c5f6a	-0.03427068
110	0x3e568fea	0.20953336
111	0x3ec9a816	0.39386052
112	0xbef3620e	-0.47535747
113	0x3d63fc30	0.055660427
114	0xbdc3ef98	-0.09567183
115	0xbe8f6d4c	-0.28013074
116	0xbe6ce697	-0.23134838
117	0xbe732e6c	-0.23748177
118	0xbe930bd4	-0.28719962
119	0xbe2e0ff4	-0.16998273
120	0x3d703aee	0.05864995
121	0x3e82a0bd	0.2551326
122	0xbee579b6	-0.4481942
123	0xbe5d774a	-0.21627536
124	0xbdc1a49c	-0.09455225
125	0x3ea054ab	0.31314597
126	0x3e0155c5	0.12630375
127	0x3ea1ae85	0.3157846
128	0x3dc1e97b	0.09468361
129	0xbced1626	-0.028941225
130	0x3ee93fea	0.45556575
131	0x3e287c03	0.16453557
132	0xbeca9597	-0.39567253
133	0x3d372ed3	0.04472239
134	0x3e8fc9df	0.28083703
135	0xbef80d27	-0.48447534
136	0x3e33d426	0.17561397
137	0x3adf2058	0.0017023189
138	0xbe5018a0	-0.20321894
139	0x3de4881c	0.11158773
140	0xbe17bc1c	-0.14817852
141	0xbeb0d2b8	-0.34535766
142	0x3efd921f	0.49525544
143	0xbe8d1bca	-0.27560264
144	0xbd28ad86	-0.04118111
145	0xbebd6200	-0.3698883
146	0x3eadaed3	0.33922443
147	0x3e7b686d	0.24551554
148	0xbddeaba8	-0.108725846
149	0xbed85940	-0.42255592
150	0x3e789300	0.24274826
151	0x3efa829c	0.48927772
152	0xbe66a93c	-0.22525495
153	0x3e65991c	0.22421688
154	0xbeb530b2	-0.35388714
155	0xbeb2189e	-0.34784406
156	0xbe07a382	-0.13245967
157	0xbe70d605	-0.23519142
158	0x3efb004a	0.49023658
159	0xbedaadd2	-0.4271074
160	0xbeaebacc	-0.3412689
161	0x3bcc5500	0.0062357187
162	0xbea62514	-0.32450163
163	0xbed602ba	-0.41798955
164	0x3d78e6c1	0.06076694
165	0x3e89c359	0.2690685
166	0xbe440b94	-0.19145042
167	0xbeade61e	-0.33964628
168	0xbeab394c	-0.33442152
169	0xbe45e26a	-0.19324651
170	0xbed35e16	-0.4128272
171	0x3ef0a7d6	0.4700305
172	0xbe8b0cad	-0.27158108
173	0x3c832b6d	0.016011918
174	0x3ec6da82	0.38838583
175	0xbed2bbf3	-0.4115902
176	0xbdd97ad6	-0.10619132
177	0xbe81f1d2	-0.25379807
178	0xbd37dfe0	-0.04489124
179	0xbd75889b	-0.05994473
180	0xbe926e1c	-0.28599632
181	0xbde85418	-0.113441646
182	0x3e36e730	0.17861629
183	0xbe212ee4	-0.15740544
184	0x3eecb526	0.46231955
185	0xbe9822c7	-0.29714033
186	0x3eaad851	0.3336816
187	0x3cda20d2	0.026626978
188	0x3e561acb	0.20908658
189	0x3e8340a5	0.25635257
190	0x3eb52dd2	0.3538652
191	0x3ed09aa7	0.4074299
192	0x3e9b04eb	0.3027719
193	0xbe2e1452	-0.16999939
194	0xbd4d8001	-0.050170902
195	0xbd7eca4b	-0.06220464
196	0xbe489fcc	-0.19592208
197	0xbe01144c	-0.12605399
198	0xbe5be574	-0.21474248
199	0x3ef80cc4	0.4844724
200	0xbdc12ee1	-0.094327696
201	0xbe1d695c	-0.15372223
202	0xbe6d0e48	-0.23149979
203	0x3eb6b109	0.35681942
204	0x3e36289c	0.17788929
205	0x3e8e1ba8	0.27755475
206	0x3e83fb8b	0.2577785
207	0xbe5eb383	-0.21748166
208	0x3ee82ecf	0.45348212
209	0x3e8ae50e	0.2712788
210	0xbe2c3947	-0.16818725
211	0x3e20853a	0.15675822
212	0x3e8c9507	0.2745745
213	0x3d776b1b	0.060404878
214	0x3eef3069	0.46716622
215	0x3d0dfd21	0.03466523
216	0xbed63cce	-0.41843265
217	0x3e6d7828	0.23190367
218	0xbe75d51c	-0.24007076
219	0xbe460c5c	-0.19340652
220	0x3e155d6e	0.14586422
221	0xbe3b3e06	-0.18285379
222	0xbd6246dd	-0.05524336
223	0x3d6eebd6	0.05833038
224	0x3ec43fac	0.38329828
225	0xbeb8a350	-0.36062098
226	0x3e4eb7f8	0.20187366
227	0xbee4503e	-0.4459247
228	0xbe5c7b14	-0.21531326
229	0xbe90e9b2	-0.28303295
230	0xbef35c88	-0.47531533
231	0x3efd2222	0.49440104
232	0x3ceb054d	0.028689051
233	0x3e94a442	0.2903157
234	0x3ebd166d	0.36931172
235	0xbd5e017c	-0.054200634
236	0x3eb434d0	0.35196543
237	0x3ed38ad1	0.41316846
238	0xbed7c14a	-0.42139655
239	0x3e859636	0.26091164
240	0xbea4c575	-0.32181898
241	0xbe37c08f	-0.17944549
242	0x3dabf345	0.08396009
243	0x3ed6bb33	0.41939697
244	0x3ea0893a	0.31354696
245	0x3e9c1f09	0.30492428
246	0x3ec5107d	0.38489142
247	0xbe9c3b0f	-0.30513808
248	0xbec61209	-0.38685635
249	0xbdd5db09	-0.10442168
250	0xbe8e5e89	-0.278065
251	0x3ea4ffdb	0.32226452
252	0x3eb00e35	0.3438584
253	0xbeaaf02b	-0.3338636
254	0xbe2e1e2d	-0.17003699
255	0x3e334f48	0.17510712

critic.0.bias f4 [128]
0	0x3e758188	0.23975194
1	0xbee483b2	-0.44631726
2	0x3ebe9f79	0.37231043
3	0xbad4a1a4	-0.0016222489
4	0xbef3f6ea	-0.47649318
5	0x3e3e3bbc	0.18577474
6	0xbe854968	-0.26032567
7	0x3ed1e973	0.4099842
8	0xbe287170	-0.16449523
9	0x3ea16336	0.31521004
10	0x3ec19ae4	0.37813485
11	0x3d55170f	0.052023944
12	0xbef48720	-0.47759342
13	0xbbaa7839	-0.00520232
14	0x3e23d443	0.1599894
15	0x3e92c6d6	0.28667325
16	0xbece68f4	-0.40314448
17	0xbe9a8d66	-0.30186003
18	0x3e96213e	0.29322237
19	0xbd5fbfc0	-0.054626226
20	0xbefcc5ee	-0.49369758
21	0x3e87c88e	0.265202
22	0x3ed6f101	0.41980746
23	0xbefc3eea	-0.4926675
24	0x3ea4e81b	0.32208332
25	0x3e90c1e7	0.28272936
26	0x3eb56b4f	0.35433432
27	0x3e892eed	0.26793614
28	0xbedfeb84	-0.43734372
29	0x3ecc721f	0.39930817
30	0x3ebfa5f6	0.37431306
31	0x3e9b0a11	0.30281118
32	0xbede1990	-0.43378878
33	0x3e5a7776	0.21334633
34	0x3da359a2	0.079760805
35	0x3eca9244	0.39564717
36	0x3d42152a	0.047383465
37	0xbed73e36	-0.4203965
38	0xbe146a80	-0.14493752
39	0x3e84fa56	0.2597224
40	0x3e99870e	0.2998585
41	0x3eb4d3ab	0.3531774
42	0x3d8c0db8	0.06838554
43	0x3ecec90b	0.4038776
44	0x3dd4249c	0.10358545
45	0xbe810022	-0.25195414
46	0x3df61ed3	0.12017598
47	0xbd9969c3	-0.074908756
48	0x3e8220b1	0.25415567
49	0xbedfb14a	-0.43689948
50	0xbe31a372	-0.17347506
51	0x3e7f4c98	0.24931562
52	0x3e029e4c	0.12755698
53	0xbeaddbee	-0.33956856
54	0xbe4411b0	-0.19147372
55	0x3ed50109	0.41602352
56	0xbee33ca2	-0.44382197
57	0xbe9245fc	-0.2856902
58	0xbd64d7a1	-0.055869702
59	0xbe824fd1	-0.2545152
60	0x3e988f5b	0.29796872
61	0x3eb0246a	0.34402782
62	0x3ec8b855	0.39203134
63	0x3e8e20db	0.27759442
64	0xbd3fe4bf	-0.04684901
65	0x3e84063f	0.25786015
66	0xbe335c50	-0.17515683
67	0x3e9cec74	0.3064915
68	0x3e13945c	0.14412063
69	0xbed001e6	-0.40626448
70	0xbed842ca	-0.42238456
71	0xbefa93c0	-0.4894085
72	0xbb3a5ade	-0.0028435509
73	0x3e8075d5	0.250899
74	0x3e8c957c	0.27457798
75	0xbe2d15ec	-0.16902894
76	0xbefd908f	-0.49524352
77	0xbef3adfe	-0.47593683
78	0x3d0f301a	0.034957983
79	0x3ec4e418	0.38455272
80	0xbe2aaf2c	-0.16668385
81	0x3e46fe6b	0.1943299
82	0xbeea3a9a	-0.45747834
83	0xbed4087c	-0.41412723
84	0x3e57b3c0	0.21064663
85	0x3c72a2cf	0.014809324
86	0x3f006e37	0.50168175
87	0x3e465030	0.19366527
88	0x3cecd451	0.028909834
89	0xbed3af34	-0.41344607
90	0xbef88514	-0.4853903
91	0xbe88d017	-0.2672126
92	0xbd12e69a	-0.03586445
93	0x3ef96362	0.48708636
94	0xbe393923	-0.18088202
95	0xbeb6acf2	-0.35678822
96	0x3ea09c52	0.31369263
97	0x3ed0e18b	0.40797076
98	0xbedeae80	-0.43492508
99	0x3e87c41a	0.265168
100	0xbee1c591	-0.44096044
101	0x3e19db7f	0.15025137
102	0x3d766294	0.060152605
103	0x3e405b36	0.18784794
104	0xbb07143b	-0.0020611424
105	0x3dcfa606	0.10139088
106	0xbeb8d568	-0.36100316
107	0xbe980154	-0.29688513
108	0x3ee69d7f	0.45042035
109	0x3e991a78	0.29903007
110	0x3dfce47c	0.123482674
111	0xbcc06c20	-0.023489058
112	0x3edb2988	0.42805123
113	0xbee1451c	-0.4399804
114	0x3ef9894a	0.48737556
115	0xbd4e13c3	-0.050311815
116	0xbe84aed6	-0.2591464
117	0xbe934412	-0.2876287
118	0xbeb0f10a	-0.34558898
119	0x3e22d7e1	0.15902664
120	0x3efc8af3	0.4932476
121	0x3e7fb0c9	0.24969782
122	0x3ea87557	0.32902023
123	0xbee0106c	-0.4376253
124	0x3d5d3b14	0.05401142
125	0x3d59a7b5	0.053138454
126	0xbe78b174	-0.24286443
127	0x3ee13f91	0.4399381

critic.2.weight f4 [64, 128]
0	0xbd7eb4cd	-0.062184144
1	0xbd05fb38	-0.032710284
2	0x3d86e74b	0.065870844
3	0xbd671a00	-0.05642128
4	0xbc8f8364	-0.017518707
5	0x3db38606	0.08765797
6	0x3db13987	0.086535506
7	0x3cb61e39	0.022231208
8	0xbda33173	-0.07968416
9	0x3b5b4962	0.0033460488
10	0x3d9791a8	0.074008286
11	0x3d6dbe6a	0.05804292
12	0xbd9b5903	-0.07585337
13	0xbbef51c3	-0.007303448
14	0xbd341447	-0.04396465
15	0xbd03e509	-0.032200847
16	0x3dae199f	0.085009806
17	0x3db1587f	0.086594574
18	0x3c39d90f	0.011343255
19	0xbdaf44b3	-0.08558025
20	0x3d83f7ec	0.06443772
21	0x3cd831de	0.026390966
22	0xbdac8789	-0.08424289
23	0xbd5b8243	-0.053591024
24	0xbd23f4be	-0.040028326
25	0xbca43d6e	-0.020048823
26	0x3d677343	0.056506407
27	0xbcfd4a5b	-0.030919245
28	0x3d3fce69	0.046827707
29	0x3d1a0a02	0.0376072
30	0x3d893a4f	0.067005746
31	0x3c85e41e	0.016344126
32	0xbb80d606	-0.0039317636
33	0xbd439a93	-0.047754835
34	0xbd8be968	-0.06831628
35	0x3d5f0f4d	0.05445795
36	0x3d48ade7	0.04899397
37	0xbc08e20c	-0.008354675
38	0x3d1ef3f1	0.03880686
39	0xbd81805c	-0.06323311
40	0x3ce290cf	0.02765694
41	0xbd71cd14	-0.05903347
42	0xbda86806	-0.08222966
43	0xbdab90d2	-0.08377232
44	0x3d22e74d	0.039771367
45	0xbd8f5c80	-0.07000065
46	0xbbfb1a48	-0.007663045
47	0x3d0a978c	0.033835933
48	0x3d9be41b	0.07611867
49	0x3d625c8c	0.05526404
50	0xbd39fb44	-0.04540564
51	0xbd9f860d	-0.0778924
52	0xbd1f3833	-0.038871955
53	0xbd2a026f	-0.041506227
54	0xbd42089e	-0.0473715
55	0xbd9f4521	-0.07776857
56	0x3d42f30b	0.047595065
57	0xbcc1fece	-0.02368107
58	0xbdaa05b3	-0.08301868
59	0x3c1f8c4d	0.00973804
60	0x3c544adb	0.0129573
61	0xbcbfd305	-0.023416052
62	0x3d0353d5	0.03206237
63	0xbcbea0c1	-0.023270013
64	0xbd26418d	-0.040589858
65	0xbd717921	-0.05895341
66	0xbbd11390	-0.006380506
67	0xbd0945ac	-0.03351371
68	0xbd943891	-0.07237352
69	0xbda6c5c9	-0.08143193
70	0xbd1c6216	-0.03817948
71	0x3cde06d5	0.027102867
72	0x3d2e72eb	0.042590063
73	0xbc6a0243	-0.014282766
74	0x3b525278	0.0032092612
75	0x3d7f36b3	0.062308025
76	0xbd15482f	-0.036445793
77	0x3cfcd455	0.030862967
78	0x3d171cbd	0.03689264
79	0x3d087ec9	0.033324037
80	0x3d9dffc4	0.07714799
81	0x3dadd755	0.08488337
82	0xbbe3cc3f	-0.0069518383
83	0xbd0b5017	-0.034011927
84	0xbd977ef6	-0.07397263
85	0x3d19b00a	0.0375214
86	0x3d9b368a	0.07578762
87	0xbd97d535	-0.07413713
88	0xbd13a2d6	-0.036043964
89	0xbd1e1446	-0.038593553
90	0xbd920dbb	-0.07131525
91	0x3c9be9a3	0.019032305
92	0xbceac583	-0.028658634
93	0xbcf89e54	-0.030348934
94	0xbd1f470c	-0.038886115
95	0x3c936272	0.017991278
96	0xbd8af436	-0.06784861
97	0xbcb0a1d8	-0.021561548
98	0x3ccc38d3	0.02492944
99	0xbda9eff4	-0.082977206
100	0x3d4f549e	0.050617807
101	0x3bfd2a39	0.0077259806
102	0xbd8c1142	-0.06839229
103	0xbda3778a	-0.07981785
104	0xbd4aef33	-0.049544524
105	0xbda21e46	-0.079159304
106	0xbd0b331c	-0.03398429
107	0x3c4174eb	0.011807661
108	0xbd919a5f	-0.07109522
109	0x3da2ddac	0.07952437
110	0xbdac9118	-0.08426112
111	0xbd36b98b	-0.04461054
112	0xbd911c91	-0.07085527
113	0xbd91210c	-0.07086381
114	0x3d9f1b52	0.07768883
115	0xb9e81e6d	-0.00044273157
116	0x3db12e30	0.08651388
117	0xbda45361	-0.08023716
118	0x3d3dee68	0.04636994
119	0xbd0a1c4d	-0.033718396
120	0x3d1a627f	0.03769159
121	0xbbbc72a0	-0.005750969
122	0xbbc5ac46	-0.0060324995
123	0xbd89781a	-0.06712361
124	0xbd4bff23	-0.049803864
125	0x3cc07b6c	0.023496352
126	0x3d1eca4c	0.038767144
127	0x3d6b23f7	0.057407346
128	0xbd35fbf6	-0.04442974
129	0x3d4d164a	0.050070085
130	0xbd1b6708	-0.037940055
131	0xbc07efe6	-0.008296942
132	0xbd872ed9	-0.06600732
133	0x3d0d9d67	0.03457394
134	0x39ae2cf4	0.0003322136
135	0x3cf53661	0.029933156
136	0xbd1746c2	-0.036932714
137	0x3c09c22f	0.008408113
138	0x3d3360aa	0.043793358
139	0x3d1f9fab	0.03897063
140	0xb9a29b60	-0.0003101481
141	0x3c617f1d	0.013763216
142	0xbd11cd65	-0.03559627
143	0x3aa85ccc	0.0012845038
144	0xbd6236a1	-0.05522788
145	0xbd8618e2	-0.06547715
146	0x3c5625dd	0.013070551
147	0x3cf82049	0.030288832
148	0xbda49856	-0.08036868
149	0xbd9d2376	-0.07672779
150	0xbd8b131e	-0.06790756
151	0x3d107f84	0.03527786
152	0x3d00743b	0.031360846
153	0x3d34c3d9	0.044132087
154	0x3d6f0cf5	0.058361966
155	0x3c8c1115	0.01709799
156	0xbc4744b7	-0.012162379
157	0x3d88cf8f	0.06680214
158	0xbcb470dc	-0.022026472
159	0x3d5a04e5	0.053227324
160	0x3d55e392	0.05221898
161	0x3ba15509	0.004923467
162	0xbb07e98f	-0.0020738577
163	0xbd9d5450	-0.07682097
164	0x3d9e5df9	0.077327676
165	0xba59340c	-0.00082856487
166	0xbd45ab8e	-0.04825931
167	0x3d41b9d2	0.047296353
168	0x3d9c64de	0.076364264
169	0x3cdd1452	0.026987229
170	0xbd995842	-0.07487537
171	0x3d0eb5d0	0.03484136
172	0x3d9c7e44	0.07641271
173	0xbc8e1fd9	-0.01734917
174	0xbd863cc2	-0.065545574
175	0xbcc8091d	-0.024418408
176	0xbdb67aaa	-0.08910115
177	0x3da736d2	0.08164753
178	0x3c78d570	0.015187606
179	0x3c1328a7	0.00898186
180	0x3d8afa70	0.067860484
181	0xbb37fbe7	-0.002807373
182	0x3d425c30	0.047451198
183	0xbdba2ec6	-0.090909526
184	0xbdabb47e	-0.083840355
185	0x3d1758ef	0.036950048
186	0x3d347d1b	0.044064622
187	0xbdb7bb86	-0.08971314
188	0x3d24d8fb	0.04024599
189	0xbdabd8aa	-0.08390935
190	0xbcece1d7	-0.028916283
191	0xbd4a2533	-0.049351882
192	0x3da71165	0.081576146
193	0xbda1b4bf	-0.07895803
194	0xbd16c1b3	-0.03680582
195	0xbd66c606	-0.056341194
196	0x3da29462	0.07938458
197	0xbc13e0cc	-0.009025764
198	0xbce02b98	-0.027364537
199	0x3d0ac253	0.03387673
200	0x3d94e85a	0.0727088
201	0xbdaf5cce	-0.08562623
202	0xbd289921	-0.04116166
203	0xbc83c0af	-0.01608309
204	0xbc344193	-0.011001962
205	0x3cf86b54	0.030324616
206	0x3ca663b7	0.02031122
207	0x3d8be9a3	0.06831672
208	0xbc99be61	-0.018767538
209	0x3d18a377	0.037265267
210	0xbdaaa9bc	-0.083331555
211	0x3d694cf7	0.056958165
212	0xbc8155c4	-0.015787967
213	0xbd30387e	-0.043022625
214	0xbd0827ae	-0.033240966
215	0x3d5f6e9e	0.054548852
216	0xbd469ae6	-0.048487566
217	0x3d099493	0.033588957
218	0xbd99c415	-0.07508103
219	0xbc31e820	-0.010858566
220	0xbb03e120	-0.0020123199
221	0x3d6186cb	0.05506019
222	0xbd9a29a6	-0.07527475
223	0x3cc1f674	0.023677088
224	0xbda54261	-0.080693014
225	0xbcc9ed2b	-0.024649223
226	0x3cbbbe23	0.022917813
227	0x3d4cd75b	0.050010066
228	0xbcc9120f	-0.024544744
229	0x3bf62040	0.0075111687
230	0x3cc157a9	0.02360137
231	0x3dab7c4a	0.08373316
232	0xbce13636	-0.02749167
233	0x3cbff4b7	0.023432119
234	0x3d1a5269	0.03767625
235	0x3d6b20eb	0.05740444
236	0x3d37605d	0.044769634
237	0xbdb11672	-0.08646859
238	0xbdab584b	-0.0836645
239	0x3ca399a6	0.019970726
240	0xbc2e1503	-0.010625127
241	0xbd5237f4	-0.051322892
242	0xbda77350	-0.08176291
243	0xbd3c0ca1	-0.04591048
244	0x3d48907b	0.048965912
245	0xbc52bf3b	-0.012862976
246	0xbd625e0d	-0.055265475
247	0x3da45706	0.08024411
248	0xbbb1578e	-0.0054120487
249	0x3c78b7ce	0.015180541
250	0xbd9b1d4d	-0.07573948
251	0x3d12f5eb	0.035879057
252	0x3d504d76	0.050855123
253	0xbd4c1752	-0.049826927
254	0xbc8836d6	-0.01662771
255	0x3d8c5ee4	0.068540365

critic.2.bias f4 [64]
0	0xbc230e48	-0.009952135
1	0xbd79b2ed	-0.060961653
2	0xbb46a171	-0.003030863
3	0xbd30741c	-0.04307948
4	0xbd255117	-0.040360536
5	0xbda6dc90	-0.08147538
6	0x3c0e8392	0.008698361
7	0xbd97d47e	-0.074135765
8	0xbd08ff78	-0.03344676
9	0x3d95cf39	0.07314915
10	0xbaa25dcf	-0.0012387576
11	0x3b15f43c	0.002288117
12	0xbd02fed1	-0.031981293
13	0xbd8e965b	-0.06962272
14	0x3c0a7af3	0.008452165
15	0xbd32eda3	-0.04368366
16	0xbbc3a4b1	-0.0059705605
17	0x3da8339b	0.08212968
18	0x3d450c4c	0.04810743
19	0x3d56fefb	0.052489262
20	0x3d97033f	0.07373666
21	0x3d4b4186	0.049623035
22	0xbc7b7306	-0.015347248
23	0xbc96522e	-0.018349733
24	0x3cdb8785	0.02679802
25	0xbd54a02c	-0.051910564
26	0xbdb4a524	-0.088205606
27	0xbc1bcd98	-0.009509467
28	0xbb77b3c3	-0.0037796355
29	0xbc92fab5	-0.017941812
30	0xbd21f5df	-0.03954112
31	0x3cb01cb8	0.02149807
32	0x3cf788ef	0.030216662
33	0x3cfd225b	0.030900171
34	0xbdb2bf04	-0.087278396
35	0xbbe62ddc	-0.00702451
36	0xbd17c9f0	-0.037057817
37	0x3cd65f60	0.026168525
38	0xbbfd0f71	-0.007722788
39	0xbd986bc7	-0.07442432
40	0x3cd2184d	0.025646353
41	0xbda98234	-0.082767874
42	0xbd98ebc0	-0.07466841
43	0x3d0f3f21	0.034972314
44	0xbc8edeea	-0.017440278
45	0xbc82efd8	-0.015983507
46	0x3c143393	0.009045499
47	0x3d6c1ade	0.05764281
48	0xbd51016f	-0.051026758
49	0xbd923230	-0.07138479
50	0xbc4d7882	-0.012540938
51	0x3d4dcc3b	0.050243597
52	0xbc833622	-0.016017023
53	0x3d42562b	0.047445457
54	0x3cca3d42	0.024687413
55	0xbd6f886f	-0.058479723
56	0x3d38b609	0.045095477
57	0x3d1ea615	0.038732607
58	0xbdb32c8b	-0.0874873
59	0x3d87863e	0.066174015
60	0x3d8fe871	0.070267566
61	0x3d9d6380	0.07684994
62	0x3c19f529	0.00939683
63	0xbd508cf8	-0.05091569
