data/ppo_2023_03_23_11_27_47.pth (torch, 93525 bytes, 14 tensors)

actor.0.weight f4 [128, 4]
000000 12 88 df 3e a8 95 97 be ba 35 c2 3e d0 5e f9 bd
       0.436585 -0.29606366 0.37931615 -0.12176287
000010 e6 5c fe be 84 f0 33 3e 96 cd 82 3e 46 9d c3 be
       -0.4968025 0.17572218 0.25547475 -0.38205928
000020 45 19 e1 3e d1 54 c7 be 60 b2 f1 bc 2a 7f 2a be
       0.43964592 -0.38931897 -0.029504001 -0.16650072
000030 85 4b c3 be 7e 96 ab be 00 de c8 bb 3d 6b e2 be
       -0.38143554 -0.33513254 -0.00612998 -0.4422244
000040 01 fe 11 3e 3e cf 62 3e fb 35 1a 3e 62 24 f6 3e
       0.14257051 0.22149369 0.15059654 0.48074633
000050 b5 31 f3 3e f2 4d 86 3e ae 56 2c 3e 1e 34 a5 3e
       0.4749886 0.26231343 0.1682994 0.32266325
000060 0a 58 fe be 34 82 32 be 54 92 d4 3e e0 4c 5c be
       -0.49676543 -0.17432481 0.4151789 -0.215137
000070 2e 12 45 3e e4 31 2d 3d 9b 94 4f be df a0 93 3d
       0.19245216 0.042283908 -0.20271532 0.07208418
000080 56 18 8a bd 92 83 86 3e 88 62 36 3e 43 5a d5 3e
       -0.06742923 0.26272255 0.17811024 0.41670427
000090 f0 da c1 be a7 22 7a 3e e4 14 2a be d2 71 be 3e
       -0.3786235 0.24427281 -0.16609532 0.37196213
0000a0 dc a0 e1 be a9 6a 87 be 1c f9 4f be 0e 41 8a bd
       -0.44068038 -0.26448563 -0.20309871 -0.067506894
0000b0 43 92 ce 3e 57 02 13 bd 57 91 ad be 75 13 22 3e
       0.40345964 -0.035890903 -0.33899948 0.15827735
0000c0 4c 7e 21 3e 5f c9 e7 be 86 04 87 be f2 db 96 be
       0.15770835 -0.4527082 -0.2637064 -0.2946468
0000d0 76 e2 db 3e 73 86 2a bc 38 82 ff 3e 19 ba 44 3d
       0.42946213 -0.010408032 0.49904037 0.04802904
0000e0 d5 b2 c2 3d ee 92 01 3c 40 55 b8 3e 9c 87 d4 3d
       0.09506766 0.007908566 0.3600254 0.10377428
0000f0 48 87 ae be a6 50 48 3e b2 b6 1f 3e ca 08 20 bd
       -0.34087586 0.19562015 0.15597036 -0.039070882
000100 38 20 db 3e 56 8f 83 be 28 42 dd be ee 3f 8d be
       0.42798018 -0.25695294 -0.43214536 -0.27587837
000110 71 ee 4c be 19 fb a9 be 1c 4f 82 be 72 a2 95 3e
       -0.20012833 -0.33199385 -0.2545098 0.29225498
000120 70 0e d8 bd f0 bf ed 3d 78 ec c9 3d 70 87 c4 bd
       -0.10549629 0.11608875 0.09859556 -0.09596145
000130 62 7f 8b 3e fa 30 8a be d0 94 52 be 50 cf b7 bd
       0.27245623 -0.2699049 -0.2056458 -0.089750886
000140 17 7a de be 91 83 f7 3e 09 0e 87 bd 65 4d a2 3e
       -0.43452522 0.48342565 -0.06594474 0.31699672
000150 20 74 c3 be b0 a0 df 3e 58 bc e4 3d c0 7c da 3d
       -0.38174534 0.43677282 0.11168736 0.106683254
000160 2f 5f cf 3e 7c 5f c3 3e ae 5e 9e be 38 ae c4 be
       0.40502307 0.38158786 -0.3093161 -0.38414168
000170 bf 20 cf 3d 57 01 fe 3e 65 f8 67 bc 43 68 cc be
       0.10113668 0.49610397 -0.014158343 -0.39923295
000180 1c d2 57 3e 48 b5 d1 bd 38 96 81 be 30 5e e0 bd
       0.21076244 -0.10239655 -0.2530992 -0.10955465
000190 c2 58 f5 be 38 be 88 be 2a 18 ce 3e 78 93 1f 3e
       -0.4791928 -0.26707625 0.4025281 0.15583599
0001a0 80 2c 3a bd 12 a3 b4 3e e2 08 f9 be 64 f4 6f be
       -0.045452595 0.35280663 -0.4863959 -0.23433071
0001b0 90 f2 93 3e b7 cf d8 be 56 c8 03 be bd ff d5 be
       0.28895998 -0.42345974 -0.12869391 -0.41796675
0001c0 e2 12 b3 be b7 02 5d 3e 9b 4f 63 3e f9 ee 7c 3e
       -0.34975344 0.21583067 0.22198336 0.24700536
0001d0 d0 66 89 be 00 27 6b 3b d2 63 90 be 04 d6 ab 3e
       -0.26836252 0.00358814 -0.28201157 0.33561718
0001e0 3c b5 90 3e 40 9b 62 bc 88 38 48 be 48 49 90 be
       0.2826327 -0.01383096 -0.19552815 -0.2818091
0001f0 24 58 89 be f2 53 a1 be 38 cd 32 3e 44 74 7b be
       -0.26825058 -0.31509358 0.17461097 -0.2455607
000200 7e 0c b5 3d 86 3c 6e be 8c f7 fe 3e 2c 4e 43 3e
       0.08840273 -0.23265275 0.49798238 0.19072789
000210 61 5d 9c bd 7f 8e 9f be b8 c6 d6 bd 13 09 dd be
       -0.07634998 -0.31163403 -0.10487121 -0.43170986
000220 fc b6 df be 98 54 0a 3e 38 30 0a be 18 03 8c 3e
       -0.43694293 0.13508832 -0.13494956 0.2734611
000230 0e 26 de be fb ad 4d 3e 57 6e f7 3e 2a 51 d5 3d
       -0.43388408 0.200859 0.4832637 0.104158714
000240 8e ad 34 be 1d fc 92 3e ae f5 e0 bd 15 7e 47 3e
       -0.17644331 0.28707972 -0.1098436 0.1948169
000250 90 26 b8 3d 50 cf 4f 3d 80 0c 28 3c 70 8a a0 bd
       0.0899173 0.050734818 0.0102568865 -0.07838905
000260 eb 8e e4 be 78 42 50 3e 77 36 f4 3e ff bc f1 3e
       -0.44640288 0.20337856 0.47697803 0.47214505
000270 8e b9 f0 be b9 60 85 3e 33 dc 9a 3e e4 a0 7d 3e
       -0.47016567 0.26050356 0.30246124 0.24768406
000280 91 c2 cf 3e 76 f8 f3 be 52 6a 6a 3e 39 cd 88 3e
       0.4057813 -0.47650498 0.2289212 0.26719072
000290 90 13 33 3d a0 5a 93 bd 26 7f f4 be 30 26 9d bd
       0.043719828 -0.0719502 -0.47753257 -0.07673299
0002a0 6d 97 8a be 7a bd de 3c dd d4 74 be 6c 0d 34 3e
       -0.27068654 0.027189959 -0.23909326 0.17583245
0002b0 fd 24 eb 3e 3a 84 41 3e 70 33 d7 3e 66 6d 8d 3e
       0.45926657 0.18898097 0.4203143 0.27622527
0002c0 a9 6e 6a 3c 32 31 d7 3e 33 37 c8 be d6 9d a9 bd
       0.01430861 0.4202972 -0.39104614 -0.08282058
0002d0 ad c1 d5 be 54 49 c7 be cd 7a b6 3d ae 2d 6a 3e
       -0.41749325 -0.38923132 0.08910141 0.22868988
0002e0 b3 57 45 3e dd a1 ca 3e 14 04 88 3e 99 81 83 be
       0.19271736 0.39576617 0.2656561 -0.25684813
0002f0 2f b5 c4 bd 0d 4a 7b be 90 4f 89 bd 2a 75 d8 3e
       -0.096048705 -0.24539967 -0.067046285 0.4227689
000300 30 03 e8 bd 64 f4 54 3e c5 d2 b8 be 2e 3c cb 3e
       -0.11328733 0.20796353 -0.36098304 0.3969435
000310 17 76 e1 3e ab eb a5 3e 6a d6 7d bd 2a 97 37 3e
       0.44035408 0.32406363 -0.06197206 0.17928758
000320 38 d5 2f 3e cc 05 0c 3e 74 9e 52 be 70 5a 74 3e
       0.1717118 0.13674086 -0.20568258 0.23862624
000330 54 b8 ee 3e fc 74 af be 76 af 88 be ac a4 24 be
       0.46625006 -0.3426894 -0.26696366 -0.16078442
000340 b4 25 2d 3e 84 c1 37 be 7c 95 3a be b0 28 19 bd
       0.16908914 -0.17944914 -0.18221086 -0.03739232
000350 0c 71 d8 3e 6f 0e e4 3e 93 3c cd 3e f5 41 df 3e
       0.42273748 0.44542262 0.40085277 0.4360501
000360 fa 78 01 3d 6c 2a 0c 3e e6 35 51 be 3a c9 7e 3d
       0.031609513 0.13688058 -0.20430717 0.062203623
000370 96 39 c5 3e 1c 6f 50 3e d4 29 75 3e f6 a5 64 be
       0.38520497 0.20354885 0.23941737 -0.22328934
000380 53 d5 c6 bd 4a 28 db 3e 6a aa 8a 3e 9a 0d d6 be
       -0.09708657 0.42804176 0.2708314 -0.41807252
000390 87 43 b4 3e 24 43 96 be 8f 72 5f 3d b8 60 53 bd
       0.3520777 -0.293481 0.05455261 -0.05160591
0003a0 90 41 be be b4 2c 3f be c0 9d 24 3c ea 27 a9 3e
       -0.37159395 -0.18669397 0.010047376 0.33038265
0003b0 6c c0 81 3e a0 40 d8 be 50 6a 14 3d 0c 62 62 3e
       0.2534212 -0.42236805 0.0362342 0.22107714
0003c0 72 45 af 3c b6 00 c1 3d 75 a9 b6 bd 85 37 e1 3e
       0.021395419 0.09423964 -0.0891904 0.4398767
0003d0 00 19 42 3e 52 02 a5 3e 57 26 3e 3e d9 b6 95 3e
       0.18954849 0.32228333 0.18569313 0.29241064
0003e0 4c e3 1f 3e 58 96 4f be 84 37 b3 3e dd 47 dc bb
       0.1561405 -0.20272195 0.35003293 -0.006722434
0003f0 0b b6 09 3e b8 e2 c1 3e 61 3e 5a be 7b 72 dd 3e
       0.1344835 0.37868285 -0.21312858 0.43251404

actor.0.bias f4 [128]
000000 3a fd f9 be bc 21 17 be 86 3c dc 3c 13 50 c8 3e
       -0.4882601 -0.14758962 0.026884329 0.39123592
000010 38 a5 70 3d e1 bc 36 be 6a 62 01 3d 81 f1 7a 3e
       0.058751315 -0.17845489 0.031587996 0.24506189
000020 15 7d c3 3d 1d 79 c9 bc 4b 5e 79 3e d4 14 60 bd
       0.09545342 -0.024593884 0.24352376 -0.054707363
000030 59 d0 ae 3e 84 8c 92 3e e5 06 a5 3e 65 a3 a0 bc
       0.34143332 0.2862283 0.32231823 -0.019609163
000040 b6 2f e9 be 16 ae c6 3e 08 85 4a be 7a f9 a3 be
       -0.45544213 0.38804692 -0.1977731 -0.32026273
000050 b8 e0 ec bc 24 20 d3 be 92 5c c3 3e f2 66 da 3e
       -0.028915748 -0.4123546 0.38156563 0.42656666
000060 4c 32 f1 be e4 c2 c1 be f0 42 a4 be 9f 1d f6 3e
       -0.47108686 -0.37844002 -0.3208232 0.48069474
000070 52 cb 4d bc 14 72 1a be 5e 7e ee be 84 db d5 be
       -0.012560682 -0.1508258 -0.46580786 -0.4176904
000080 e8 be a7 bd bf 2a 5f 3e 46 ae fc be 1f 78 4a bd
       -0.08190709 0.2179365 -0.4935171 -0.049430963
000090 97 4c d0 bb 0e ec a4 be 10 72 cc 3e b2 fd e2 3e
       -0.0063567865 -0.32211345 0.39930773 0.4433418
0000a0 21 d9 4a 3d 1e ea eb be 1c 13 f1 3e 2f 10 eb be
       0.049523477 -0.46077055 0.47084892 -0.45910785
0000b0 95 d8 9c be 25 cb e2 3e 2e 99 83 bd 90 ff 4d be
       -0.3063399 0.44295612 -0.06425701 -0.2011702
0000c0 28 23 2f be bd 57 df 3e 9c 60 e4 be 7e b8 fd be
       -0.17103255 0.43621626 -0.44604957 -0.4955482
0000d0 d4 62 cf be 57 8a db be d3 f1 72 3c 58 00 04 be
       -0.40505087 -0.42878982 0.014828163 -0.12890756
0000e0 d3 34 32 3e ae 9b e4 3e f0 69 ac bd 18 44 dd be
       0.17402963 0.44650024 -0.084186435 -0.43216014
0000f0 65 b1 18 3e 89 d7 76 3e a9 3a 62 3e e5 3b 90 3e
       0.1491142 0.24105658 0.2209269 0.28170696
000100 e4 de 51 be 0f c7 40 be 58 52 62 be 89 06 6a 3e
       -0.20495182 -0.18825935 -0.22101724 0.22854055
000110 e4 4d 1b be a8 51 6b be fa 4a e7 be 42 90 a1 be
       -0.15166432 -0.22980368 -0.4517439 -0.31555372
000120 6c 9e dd be 38 21 b9 3d 90 de 0a be 43 52 db 3d
       -0.4328493 0.09039539 -0.13561463 0.107090496
000130 ed 57 a3 3e 88 ee dc be 50 24 f7 3e 8c 42 d1 3d
       0.3190302 -0.43150735 0.48269892 0.10217771
000140 72 e2 ae be c3 7d f0 be d7 25 e0 3e 34 7c 24 3e
       -0.3415714 -0.4697095 0.4377887 0.16063005
000150 03 b6 e6 3d d3 16 a9 3e 9e e7 c8 be 5b 07 d5 bd
       0.11265185 0.33025226 -0.3923921 -0.104017936
000160 c6 8d 7b 3e 16 2b 98 3e 12 71 d4 3d c5 ae dd be
       0.24565801 0.29720372 0.10373129 -0.432974
000170 80 fc ae 3e d3 a7 f3 be 16 67 f0 be 66 f6 f9 bd
       0.34177017 -0.47588977 -0.46953648 -0.122052
000180 95 f1 d6 be 64 ed 0f be ce d0 e1 bd 7f 92 c1 bd
       -0.41981187 -0.14055401 -0.110261545 -0.0945177
000190 51 d8 39 bd d8 e0 f3 be 0c 46 af 3d 9a 2b 8a 3c
       -0.04537231 -0.4763248 0.08558282 0.016866494
0001a0 88 14 b1 be e0 a4 6d bd 8a 42 e3 3e 8e 88 d7 be
       -0.34585977 -0.058018565 0.44386703 -0.4209637
0001b0 4d 50 c4 be 0e 41 0d 3e d4 3e 6e 3e f0 50 90 3e
       -0.38342515 0.13794348 0.23266155 0.2818675
0001c0 b6 c6 d9 3d 97 81 2e 3e 68 c2 65 3e 2a 6c ef 3e
       0.10633604 0.17041622 0.22437441 0.4676221
0001d0 38 ab 9e be 34 a9 c3 bd 14 7d c3 be 66 67 80 3e
       -0.30990005 -0.09553757 -0.38181365 0.25078887
0001e0 f6 4e b9 be 2b 67 b6 be e4 65 2e 3e fc 54 e0 be
       -0.36193055 -0.35625586 0.17031056 -0.43814838
0001f0 b8 14 f8 bd 73 87 a0 bd 2b 47 fe 3e 4a 67 e6 be
       -0.12113327 -0.07838335 0.49663672 -0.45000678

actor.2.weight f4 [64, 128]
000000 85 13 66 bc 28 51 c7 3c 75 35 45 bd c7 eb 83 bd
       -0.01404274 0.02433069 -0.048146684 -0.06441455
000010 04 4b c5 bc 17 d5 3e 3d 9c fb 4d 3c 61 84 a3 3d
       -0.024083622 0.046589937 0.012572195 0.07984234
000020 7a 9f 81 3d f0 77 4c 3d 04 01 5f 3d a6 13 93 bc
       0.06329246 0.04991907 0.054444328 -0.017953705
000030 8b c1 82 bd c6 92 45 3d 7b d7 70 3d 3c df 99 3d
       -0.06384572 0.048235677 0.05879925 0.07513282
000040 5a de 4e 3d 9d 7e 9f 3d b4 44 47 bd ad 7b 86 3d
       0.05050502 0.077878214 -0.048649505 0.06566558
000050 90 5c 85 3d 6f 54 ce bb b3 8c 6b 3d 48 a3 37 bd
       0.065117955 -0.0062966864 0.057507228 -0.04483345
000060 88 44 b3 bd 68 ed 51 bd 45 69 a1 bd 59 b7 ae 3d
       -0.08753306 -0.0512518 -0.07881407 0.085310645
000070 26 45 fd 3c ba 70 8b 3d e6 cc b4 bd 2e 95 02 bc
       0.030916762 0.0680861 -0.08828144 -0.0079701375
000080 5c b0 b0 bd 2c ef 2d bd df b4 a6 bd 48 47 37 bd
       -0.08627388 -0.04246442 -0.08139967 -0.044745713
000090 4b d0 95 bc 90 1b 96 bd 51 c6 8b 3d 3c ec 2c bd
       -0.018287798 -0.07329476 0.06824935 -0.04221748
0000a0 4d 2b 0c bd b0 cf 07 3c 0b 8c 70 3d ec d6 6b bd
       -0.034220982 0.008289263 0.058727305 -0.057578012
0000b0 be 9a 90 3d cc d4 da bb 1a 5e 1b bd 2c 0b a0 bd
       0.07060765 -0.0066781994 -0.03793154 -0.07814631
0000c0 ec 3f 19 bd b9 4d d7 bc 08 28 08 3c ae a7 a7 bd
       -0.037414476 -0.026282178 0.008310325 -0.08186279
0000d0 16 05 2e bd 15 5b c8 bc fa a9 cd 3c 77 95 11 3d
       -0.04248532 -0.024457494 0.025105465 0.03554293
0000e0 90 78 9e bd f8 08 4b 3c 52 fa a3 bc aa e1 48 3d
       -0.07737839 0.012392275 -0.020016823 0.049043335
0000f0 e8 7a 98 3c a5 f8 2b 3d e0 f2 9e bd 2d bb 26 3d
       0.018613294 0.041985173 -0.077611685 0.04070585
000100 b7 28 8d 3c 11 a6 d9 bc 6c 7d df 3b 79 66 a4 3d
       0.017231328 -0.026568444 0.0068203714 0.080273576
000110 7d 07 4b 3c 41 40 94 bd d6 7b e7 3c 55 73 d9 3b
       0.012391922 -0.07238818 0.028257292 0.006636063
000120 a4 c3 ed bc 9c bf a6 3d de 91 32 bd f1 9c 6c 3d
       -0.029023953 0.08142015 -0.04359614 0.05776686
000130 0e c1 32 bc c4 ff d0 3b d3 01 40 3d 57 e3 fd bb
       -0.010910286 0.006378146 0.04687674 -0.0077480483
000140 16 2c 67 bd 5d 37 99 bc 4c 3e 88 3a da 03 dd bb
       -0.056438528 -0.018703157 0.0010394542 -0.006744844
000150 5c 61 59 3d 91 63 50 bc 45 1d 4e bd 14 32 6c 3d
       0.053071365 -0.012719051 -0.050320882 0.057664946
000160 b6 15 b2 bc eb 57 67 3d f7 f6 a8 3d ea cb 85 3d
       -0.021738868 0.05648033 0.0825023 0.06533034
000170 06 94 a2 3d 45 7f 85 bd 83 b3 0a bd 01 b9 83 bc
       0.079383895 -0.06518415 -0.033862602 -0.016079428
000180 43 bc d8 3b 9a 7e 17 bd 05 a7 4a 3d c6 3e 96 3d
       0.0066142394 -0.03698597 0.04947569 0.07336192
000190 29 55 4d 3d 6b 28 81 3d 9c bb af 3d 0f 91 32 bc
       0.050130043 0.06306537 0.085807055 -0.0108988425
0001a0 7e 47 a9 3d 53 85 a9 bd 8a aa 6e bd 08 c1 80 bd
       0.08265589 -0.08277383 -0.058268107 -0.06286818
0001b0 60 f5 45 3d 08 31 18 bd b1 74 8c bd d5 b5 93 3d
       0.04832971 -0.037156135 -0.068581946 0.07212416
0001c0 91 3f 9e bd da 63 74 ba c1 34 66 3d 4b db 89 3d
       -0.07726968 -0.00093227404 0.056202654 0.0673128
0001d0 d6 f1 21 3a c8 bf 54 3d de 10 05 3c 20 bd 85 bd
       0.0006177699 0.05194071 0.008121697 -0.06530213
0001e0 1f 53 98 bd 1b 20 af 3d 30 b6 40 3c 4d a5 99 3c
       -0.07437729 0.085510455 0.011762187 0.01875558
0001f0 f6 b2 b0 3d 08 c5 9e bc 94 09 85 3c d3 a1 62 3d
       0.08627884 -0.019381061 0.016239919 0.05533011
000200 17 32 3e bd e3 6b c0 3b 0a 95 19 3d b3 7b 5d bc
       -0.04643449 0.005872236 0.03749565 -0.013518262
000210 bc 48 99 bd 23 8b 00 3d 38 23 98 3d dc 68 c7 bc
       -0.07484576 0.03138269 0.074285924 -0.024341993
000220 e2 61 84 bc 6b 74 95 3c 80 a6 07 3c 4c 4a 17 bd
       -0.016159955 0.018243989 0.008279443 -0.03693609
000230 5d d7 e5 bb 87 b6 9a 3d 5c 59 91 3a 5d 9c 34 bd
       -0.0070141987 0.075543456 0.0011089253 -0.044094432
000240 39 73 fb bc 79 26 c4 3c 84 66 0e 3d 39 6e d6 bc
       -0.03069459 0.023944126 0.034765735 -0.026175605
000250 bf 71 93 bd e7 eb 90 bd e5 5e fb 3c 80 71 d2 39
       -0.0719943 -0.07076245 0.030684898 0.00040138885
000260 9b 85 64 3d 17 d8 6b bc 1a a2 97 bd 90 b9 50 3c
       0.05579148 -0.014394782 -0.07403965 0.012739554
000270 04 d1 9e 3d 42 dd 3b bd 2f 71 28 3c 70 f6 4a bd
       0.0775471 -0.045865305 0.010280891 -0.049551427
000280 76 86 83 3d 53 12 9d bd ef 08 d5 bc 43 bb 18 3d
       0.06422131 -0.07669511 -0.026005236 0.03728796
000290 ce 1b a5 3d a2 de a3 bd 1b 69 a1 bc 46 c2 05 3d
       0.08061944 -0.08001448 -0.019703439 0.032655977
0002a0 74 a5 a5 bd 5d 6e f6 3c ce 57 96 3d 25 16 45 3d
       -0.08088198 0.030081922 0.07340966 0.04811682
0002b0 c8 5b 88 bd f1 08 70 3d a8 c6 88 3c af 7f 3e bd
       -0.06658131 0.058602277 0.01669629 -0.046508487
0002c0 10 cd af 3d c5 de f2 3c 13 86 59 3d b7 1a 70 3c
       0.085840344 0.02964724 0.05310638 0.014654807
0002d0 60 7e 63 3c e9 08 16 bd 48 ca 67 3d 68 1f 2d bd
       0.013885111 -0.03662959 0.056589395 -0.04226628
0002e0 45 30 8b 3d 91 08 b2 3c 51 5d aa 3d 1e bb 8b 3a
       0.06796316 0.0217326 0.0831858 0.0010660624
0002f0 fd ec b8 bc 3b b6 c2 bb 24 e6 ad 3c 8a 1c 9f 3d
       -0.022573942 -0.0059421337 0.021227904 0.07769115
000300 ce 15 b4 3d 28 89 36 3d 18 c9 a3 3d d7 15 ad bd
       0.087932214 0.044564396 0.0799734 -0.08451431
000310 41 c2 81 3d 7c 34 a0 3d 2e 71 53 3d b8 35 b9 3c
       0.06335879 0.078225106 0.05162161 0.022608623
000320 4d d8 36 3d 2b 37 9b bd 36 79 51 3c fa 88 f0 3c
       0.044639874 -0.07578882 0.012785247 0.02936219
000330 b5 f9 3f 3d f4 ac 24 bd f7 82 2d 3d 78 ef 30 3d
       0.046869 -0.040204003 0.042361226 0.043197125
000340 ae 36 87 bd d4 42 83 bc 48 77 3e bc 94 c7 fd bb
       -0.06602226 -0.016023077 -0.011625119 -0.007744739
000350 70 69 6f 3d 3d fd 94 3d d2 a3 00 bc b6 90 07 3d
       0.058450162 0.07274864 -0.007851558 0.03309699
000360 5e 77 66 bd 2b 3d 73 bd 58 6f a6 bd d6 9f b1 bd
       -0.05626618 -0.059384506 -0.08126706 -0.086730644
000370 56 57 46 bd 8b c7 23 3d f5 90 09 bd 36 db 98 3d
       -0.048423134 0.03998522 -0.033585507 0.07463686
000380 cd 3a 35 3d 0c f0 5a bd 8b 1f 9b bc e5 18 4f bd
       0.04424553 -0.053451583 -0.01893594 -0.05056085
000390 1c 67 89 bd 57 17 79 bd 69 fc 0e 3d 81 92 b9 3b
       -0.0670912 -0.060813274 0.034908686 0.0056632166
0003a0 fd 23 08 3d 6e 6b 08 3c 98 74 35 bd 5b 0f 96 bd
       0.033237446 0.0083263945 -0.044300646 -0.073271476
0003b0 be 03 68 3c 22 8f 9b bd 6f 47 b0 3c 6f 36 21 3d
       0.014161048 -0.0759566 0.021518437 0.039358553
0003c0 0a 3f 29 bd 93 0e d7 bc f0 5f 86 3c fb 0e 4f bd
       -0.041319884 -0.026252067 0.016403168 -0.050551396
0003d0 5b a4 e4 3c f7 57 ff 3b e4 8e 5b 3d db 7e 7d 3d
       0.027910402 0.0077924686 0.053603068 0.061888557
0003e0 e0 c2 13 bd 89 1b 3d bd 9d f3 1d bd 7a c6 ca bb
       -0.03607452 -0.046168838 -0.038562406 -0.006188211
0003f0 f2 d5 2a 3d ee 93 21 3d 83 83 71 3d 05 03 58 bc
       0.04170794 0.039447717 0.05896331 -0.013184314

actor.2.bias f4 [64]
000000 53 45 ad 3d 9c dd 8a bd 0c 1d 5f bd 4f 36 0e bd
       0.08460488 -0.0678055 -0.05447106 -0.03471976
000010 4c 0d cd 3c 48 d6 73 3d 72 fc 60 bc f0 6c a2 bd
       0.025030755 0.059530526 -0.013732063 -0.079309344
000020 cd cf a2 bd b8 26 70 3d 86 9a ad 3d 1a 4f a7 bc
       -0.07949791 0.058630675 0.08476739 -0.02042346
000030 cc f6 8e 3d 26 15 0f bc a5 78 d1 bb 33 2d 8b bd
       0.069806665 -0.0087330695 -0.006392556 -0.067957304
000040 8e 9f 85 bd 37 13 d4 3b 8d a2 17 3d 28 e2 d1 bc
       -0.06524573 0.006472017 0.037020255 -0.025620535
000050 a9 15 5d 3d 1c f3 4b bd f4 54 ee bb 9c ce 8e bd
       0.053975735 -0.049792394 -0.007273311 -0.06973001
000060 5a 4f 86 3d b4 5d aa 3d eb b3 0f 3a dd ec 0d 3d
       0.06558104 0.08318654 0.0005481827 0.03464972
000070 d6 1d b4 bc 7d 36 9b 3d d1 d0 4d bd 68 59 b3 3d
       -0.021986883 0.07578752 -0.05024797 0.08757287
000080 6c f3 74 bc 63 89 10 bd 69 b7 2a bc 68 69 ff 3c
       -0.014950614 -0.035287272 -0.010419705 0.031178191
000090 59 01 53 3d 98 3e 1b bd e4 26 38 3d 85 81 af bd
       0.051514957 -0.03790149 0.044958964 -0.08569626
0000a0 fd af 35 bd 6a df 7f 3d 05 f1 4d bc f8 14 9f bc
       -0.04435729 0.062468924 -0.012569671 -0.019419178
0000b0 e1 f5 7e 3d bd 48 e2 bc 4d cd 1e bd 1f 72 a0 bd
       0.062246207 -0.027622575 -0.03877001 -0.07834267
0000c0 9e e4 08 3d ca 86 93 3d 4c 83 89 bd 69 35 11 bd
       0.03342115 0.07203443 -0.06714496 -0.035451327
0000d0 b7 04 70 bd 25 81 91 3d 08 c9 2b bc cf a8 83 bd
       -0.058598246 0.071047105 -0.010484941 -0.06428682
0000e0 60 90 82 bd d3 48 78 3d 37 77 a6 bc 51 22 89 bd
       -0.063751936 0.060616326 -0.020320518 -0.066959985
0000f0 75 54 1e 3d dc 19 5c bd b0 65 dd bc 9c b9 54 bd
       0.038654763 -0.0537356 -0.027026027 -0.051934823

actor.4.weight f4 [32, 64]
000000 b4 14 c1 bd 6e 6b a5 bd 78 06 d4 3d 26 69 cb 3d
       -0.09427777 -0.08077131 0.10352796 0.09932165
000010 39 7a cd 3d b9 9f f1 3d 86 e3 d5 bd 08 45 f6 3c
       0.10033078 0.11798043 -0.10443787 0.030062214
000020 00 ed 56 bc 0e 46 ac bd bd 1e 93 3d 0a ee da bd
       -0.013118029 -0.08411799 0.07183597 -0.106899336
000030 d1 dd 2d 3d 60 ba b9 bd a5 9e ac bc fa 3e c6 bd
       0.04244787 -0.09068751 -0.021071741 -0.096799806
000040 6f ed 7c bc bd 8d 15 bd 2d 37 f9 3d 06 9e 87 bd
       -0.015437468 -0.036512125 0.12168727 -0.066219375
000050 b9 e7 00 3e f9 9c d1 bc 4c 70 38 bd 0f dd 9c 3d
       0.12588395 -0.025587546 -0.04502897 0.07659351
000060 51 48 99 3d 61 94 16 bd 11 cf bb bc d5 31 50 3d
       0.074844964 -0.0367626 -0.022925885 0.050828774
000070 36 81 47 bc 4b b6 ce bd 84 51 0b bc b8 8c 30 bd
       -0.012176802 -0.100933634 -0.008503322 -0.04310295
000080 64 c8 fb 3d b9 89 98 3c 55 16 23 3d 69 d3 f5 bd
       0.12294081 0.018620359 0.03981622 -0.12003214
000090 b7 ea 47 3c 0d fa cf 3d 5b 7e bb bd d0 e9 8c 3c
       0.0122019565 0.10155115 -0.0915496 0.017201334
0000a0 ef 50 be bd 07 28 e2 bc 9d 31 a5 3d f6 0c 0d 3d
       -0.092927806 -0.027606977 0.080661036 0.03443619
0000b0 b7 dd 8f bd cb bf 78 bd ba d0 97 bc 1a f7 a4 bd
       -0.070247106 -0.060729783 -0.018532146 -0.080549434
0000c0 da ac c7 3d a0 4e 3b bc d6 ed b6 ba dc 30 52 3d
       0.09749766 -0.01143232 -0.0013956379 0.051316127
0000d0 34 c0 76 bd a8 23 db bd 2e 65 a1 bc ee e7 e1 bd
       -0.060241893 -0.1070016 -0.019701567 -0.11030565
0000e0 74 6a f8 bc 2a 43 c5 bc 57 e8 37 3d 25 52 fb 3d
       -0.030324198 -0.024079878 0.04489931 0.12271527
0000f0 3b c2 84 bd 40 5e 77 bb b9 37 9a bd e0 5e dd 3d
       -0.06482359 -0.0037745386 -0.075301595 0.108091116
000100 b2 93 43 3d 3d 96 9c bd 80 71 d6 3d 28 a5 bd 3d
       0.047748275 -0.07645843 0.10470867 0.09260017
000110 d7 4f f9 3c b8 c9 ad 3d 54 eb 6d bd ae 9e 9e 3d
       0.030433578 0.084857404 -0.058085755 0.077451095
000120 d0 c4 c3 3c 76 61 93 bd 45 36 f8 bd 81 59 f2 bd
       0.023897558 -0.071963236 -0.12119726 -0.11833478
000130 cf ed 9f 3d 00 5d df bd b2 52 9c 3d 94 c1 49 bd
       0.0780903 -0.1090641 0.076329604 -0.049256876
000140 f0 96 de bd 89 59 e7 3b ee 02 dd bd 81 9a 7b 3c
       -0.10868633 0.007060234 -0.107915744 0.015356661
000150 9d c3 eb 3d 80 4f 4c 3d 4a 9b a0 3d 62 1c c3 3d
       0.1151192 0.049880505 0.07842119 0.09526898
000160 d8 3b bd 3d 2e 0a eb 3d d4 a9 56 3d 00 79 e0 3c
       0.0923993 0.11476551 0.052408054 0.027401447
000170 a0 5a b3 bc 43 c3 ce bc cb 6e 3d bc 18 48 a8 bd
       -0.0218938 -0.025239592 -0.01156206 -0.08216876
000180 50 34 0f 3c 85 93 97 3d b8 8a 80 bd 0d 8b 1a bc
       0.0087405 0.07401184 -0.062764585 -0.009432566
000190 32 9e d1 3d fd fd a2 bd fd 95 da 3d 9a b5 a9 bd
       0.102352515 -0.07958601 0.10673139 -0.08286591
0001a0 24 a7 ab bd 74 67 9b 3d 22 91 5d bd d5 22 03 bd
       -0.08381489 0.075880915 -0.054093488 -0.03201564
0001b0 74 18 2d 3d 03 04 a2 3d af e7 20 bd 8e dc b6 3d
       0.04225965 0.079109214 -0.03928345 0.08928786
0001c0 95 3b a4 bd 94 05 d9 3d ea ad a8 3d 30 0c a9 bc
       -0.08019177 0.10596767 0.082362965 -0.020635694
0001d0 70 1c 86 3d 25 63 33 bd 56 4d 07 3d f0 9b 16 3d
       0.06548393 -0.043795723 0.033032738 0.036769807
0001e0 8d f6 8d bd 61 5f d4 3d cc 88 b5 3d 33 19 52 3c
       -0.069317915 0.103697546 0.088639826 0.012823391
0001f0 cd ac a2 3b 00 cb ab bd 3e e4 df 3d 14 d5 dd bd
       0.004964447 -0.083883286 0.109322056 -0.10831657
000200 40 aa f7 bd 6e e8 9e 3d 3f c8 1c 39 78 e9 fe bc
       -0.120930195 0.07759176 0.00014951917 -0.031117186
000210 74 5d 77 3d be 3b 2c 3c 18 f8 e9 3d 4c 7b aa bd
       0.06039186 0.0105122905 0.11424273 -0.08324298
000220 f4 3e 75 bd f3 3b d3 3d b6 45 b6 bd 8f 9d a6 3d
       -0.05987449 0.10314169 -0.08900015 0.08135521
000230 43 db 06 3d 7a b5 e4 bd 03 9e c9 3d 1a c9 fa bd
       0.032923948 -0.111674264 0.098445915 -0.12245388
000240 56 55 ec 3d 75 ba 22 bd a6 24 73 3d 9b e7 8c bd
       0.11539714 -0.0397286 0.059361123 -0.06880113
000250 51 1b d7 3d 96 b1 dc 3d 60 d9 4a b6 d9 bd a1 3d
       0.10503257 0.10776059 -3.0226875e-06 0.07897539
000260 f7 e1 d3 bc 0f 0b bc 3d 04 56 bf bc c6 86 b6 bc
       -0.025864584 0.09181797 -0.023356445 -0.022281062
000270 ad ae a4 3d 6b b5 e8 bd 4e d5 dc bc 6e b4 dc 3c
       0.08041129 -0.11362728 -0.02695718 0.026941504
000280 92 e2 ce bd a8 a2 f9 3d bc 90 22 bd ba 02 79 bd
       -0.101018086 0.12189227 -0.03968881 -0.060793616
000290 6c a0 a5 3d c6 c3 62 3d 1f a5 68 3d 04 ad 2f 3d
       0.08087239 0.055362485 0.056798097 0.04288961
0002a0 49 e2 fe bd 9e 09 2c bd 70 97 bf 3d 81 4a 79 3d
       -0.12445504 -0.04200136 0.09355056 0.060862068
0002b0 8c 1a 8b bc 10 df 06 bd 1e 71 ec 3d b2 48 aa 3d
       -0.016980432 -0.032927573 0.11545013 0.08314647
0002c0 d8 86 b4 bc 41 29 99 3d 89 7f 43 bd 70 2c b0 3d
       -0.022036955 0.07478572 -0.04772905 0.08602226
0002d0 3a 53 a5 3d 12 2c a8 3d 40 f0 9d bd d2 08 fa 3d
       0.08072515 0.08211531 -0.0771184 0.122087136
0002e0 4d 20 fb bd 6d 29 c2 bd 2e 5e f8 bd dc 0f 0c bd
       -0.1226202 -0.094805576 -0.12127338 -0.034194812
0002f0 4f d5 bd 3d 50 48 81 bc 70 9c 33 bd fd 6a dd bd
       0.09269201 -0.015781552 -0.043850362 -0.10811422
000300 80 64 10 3b 54 6d 5f bd 6c ac 99 bd 90 d2 22 3c
       0.002203256 -0.054547623 -0.0750359 0.009937897
000310 b8 2e 01 3d d0 63 e8 bd 48 af d7 3c a0 81 b3 bd
       0.031538695 -0.11347163 0.026328698 -0.087649584
000320 fa db d0 bd 4a 10 fc 3d a8 bc 68 bd a4 1d 27 3d
       -0.10198207 0.123077944 -0.05682054 0.040799752
000330 e6 27 ef bd c0 3f df 3d 04 32 75 bd 50 88 99 bd
       -0.11677532 0.10900831 -0.05986215 -0.07496703
000340 ba 44 e2 bd 74 15 8f bd 48 86 8d 3d 10 d3 92 3d
       -0.11048265 -0.06986514 0.06910378 0.07169163
000350 36 27 b8 bd 1a c0 c6 bd d2 d5 a2 bd c6 53 cf 3d
       -0.08991854 -0.09704609 -0.07950939 0.101234004
000360 1e 6f f9 bd 9a dd 80 bd e8 e3 99 bd 28 ea ff 3d
       -0.12179397 -0.06292267 -0.07514173 0.12495834
000370 58 29 02 3d d2 64 ab bd fc 87 3c 3d 80 32 84 3a
       0.03177771 -0.08368839 0.046028122 0.0010085851
000380 5a 48 f3 bd 9a 09 ca bd 84 bd fb bd 6e 98 cb bd
       -0.11879034 -0.098651126 -0.122920066 -0.09941183
000390 48 a1 ef bd 02 b2 ba bd 58 3c 89 3d 00 60 42 38
       -0.11700684 -0.091159835 0.06700963 4.634261e-05
0003a0 38 49 99 3c cc 93 99 bd 28 21 df bd a8 1b 33 bd
       0.018711671 -0.07498893 -0.10894996 -0.043727547
0003b0 e4 5b 85 3d 64 52 69 bd 64 15 2e 3d 0c 62 4f bd
       0.06511667 -0.05696334 0.04250087 -0.050630614
0003c0 0a 9d e2 bd 10 35 53 3d 3e 37 e9 3d e0 0f ec 3c
       -0.11065109 0.051564276 0.1138749 0.028816164
0003d0 c4 73 78 bd 40 d0 dd bd 12 50 a4 bd 28 75 af 3d
       -0.060657278 -0.10830736 -0.08023085 0.08567268
0003e0 c0 da a0 bd b4 10 b6 bd 54 dd 8e bd dc a6 72 bd
       -0.07854223 -0.088899046 -0.06975809 -0.05924116
0003f0 f0 3c 35 3c a6 0a d3 bd 78 c9 5a bd 70 7c 4f 3d
       0.011061892 -0.103047654 -0.05341479 0.050655782

actor.4.bias f4 [32]
000000 35 e0 fc 3d 63 f9 64 bc 2c 86 ad 3d c4 e4 67 3d
       0.123474516 -0.013975474 0.08472857 0.056614652
000010 0e 5c dd bd 6a 86 f5 bd 75 96 ac 3d 02 b7 de 3d
       -0.10808574 -0.11988528 0.08427135 0.1087475
000020 b0 f4 bf bc 68 a7 c3 bd 8e 95 60 3d 47 aa 99 3d
       -0.023432106 -0.095534146 0.054830126 0.07503181
000030 70 b1 bb 3b c3 2b 80 3b 25 34 db bd ea af ac 3c
       0.0057279393 0.003911467 -0.10703305 0.021079976
000040 2d af 2e bd ce 6c 30 3c aa 8a a2 bd 1d d3 bf 3d
       -0.04264753 0.010768129 -0.07936604 0.093664385
000050 97 e2 ba 3d 83 b2 c8 3d d3 d4 6c 3c 48 89 fc bd
       0.0912525 0.097996734 0.014455038 -0.12330872
000060 10 ee b7 3c 50 c0 84 3d 3c e2 85 3d 0c b4 21 bd
       0.022452384 0.06481993 0.065372914 -0.039478347
000070 48 e4 ff bd dd 67 5e 3d ed 3d 78 bc cc d8 cd 3d
       -0.12494713 0.05429827 -0.015151483 0.10051116

actor.6.weight f4 [1, 32]
000000 1e 37 9c bd 9c 90 0b be d3 30 33 be be 2d 67 3d
       -0.076277 -0.13629383 -0.17499094 0.056440108
000010 16 06 16 3d f5 6d 1b 3d b1 07 93 bc a5 73 2c be
       0.036626898 0.03794666 -0.017948003 -0.1684099
000020 16 df 24 3e 8c 15 18 be 2a c1 7e bd b9 ed b0 bd
       0.16100726 -0.1485197 -0.062195934 -0.08639092
000030 95 1f d0 bd c0 0f 80 bd da 9a a3 bd 14 04 03 3d
       -0.10162274 -0.06253004 -0.0798852 0.03198631
000040 56 e2 7d ba 80 9d a1 bc c1 3f 49 bd ec 44 08 3e
       -0.0009684911 -0.019728422 -0.049133066 0.13307542
000050 cb f0 2b 3e 29 67 82 bd 10 be c6 3d c0 94 1c be
       0.16791074 -0.063673325 0.0970422 -0.15291119
000060 6a 2b 10 be 06 c6 9c 3d 8b 0b fb bd 0a 54 f3 3c
       -0.14079061 0.076549575 -0.12258061 0.029703159
000070 9e 15 2a 3e b3 74 26 3e 51 b1 b1 bd c9 3d eb b9
       0.16609809 0.16255455 -0.086763985 -0.00044868726

critic.0.weight f4 [128, 4]
000000 9d 6b 97 3e 37 dc 9a 3e 8d 2e 8b bb ce 9a dd 3e
       0.2957429 0.30246136 -0.0042474926 0.4328217
000010 d1 62 a2 3e 82 59 49 bd 17 c5 a7 3e c8 14 39 be
       0.31716016 -0.049157627 0.32767555 -0.18074334
000020 d8 1d 46 3e 30 a5 eb 3e 4d 36 1e 3e 63 5e e4 3e
       0.19347322 0.46024466 0.15450402 0.4460326
000030 b2 35 1a be c7 02 aa be 68 af c6 be 9b 3c d4 3e
       -0.15059546 -0.33205244 -0.388057 0.41452488
000040 12 0a 35 3e 70 ea 8e be bc 3e 1f be a8 d8 d9 be
       0.17679623 -0.27913237 -0.15551275 -0.42548108
000050 39 a3 81 3e e3 47 e7 3e 27 38 b0 bd aa 59 20 3e
       0.25319842 0.45172033 -0.0860446 0.15659204
000060 55 a1 98 3e e7 d9 74 3e 39 3c 89 3d cc 71 b4 be
       0.29810587 0.23911248 0.0670094 -0.3524307
000070 5a b9 e4 be b0 98 e1 bd 98 03 2c be 82 14 e0 be
       -0.44672662 -0.11015451 -0.16798246 -0.43765646
000080 2a ac bc be ac dd 00 3e fc 03 2e be f6 11 fb be
       -0.368501 0.12584561 -0.16993707 -0.4903714
000090 a6 59 c3 3d fc f0 dd be 3d 02 ff 3e 41 1b a7 3e
       0.095385835 -0.4334792 0.49806395 0.3263798
0000a0 30 c8 0d 3e cc e3 09 be 10 4e 69 bd 4c cc 8c be
       0.13845897 -0.13465804 -0.05695921 -0.27499616
0000b0 e1 f3 50 be 9a 8e ce be c0 02 01 bd 3c b2 73 be
       -0.20405532 -0.4034317 -0.031496763 -0.2379846
0000c0 97 af e4 3d 8c 4c b2 be b4 53 0e be 02 88 0a 3e
       0.111663036 -0.34824026 -0.13899118 0.13528445
0000d0 54 00 f9 3e 70 2d c7 be 00 9f 5b 3d ea 8a f0 be
       0.48633063 -0.38901854 0.05361843 -0.46980983
0000e0 34 3e c8 be 68 52 15 be 60 e7 c4 bc 3c 18 77 be
       -0.39109957 -0.14582217 -0.02403611 -0.24130338
0000f0 5c 3b 2a 3e 16 34 9f be 08 ee 51 be dc 7c ac be
       0.16624206 -0.31094426 -0.20500958 -0.3368901
000100 a6 79 3d 3e 59 fc 4b 3e bd 79 9d be b3 53 c8 bd
       0.18503436 0.19920482 -0.3075694 -0.09781589
000110 bd 19 c9 3d c6 47 cb 3b 75 b5 18 3e b9 47 88 3e
       0.09819362 0.0062036244 0.1491297 0.2661722
000120 38 4d f6 3e b4 af 87 3e 44 a7 b8 be ac f0 b7 be
       0.48105788 0.26501238 -0.36065114 -0.35925806
000130 b7 06 d2 bc 3a 8d d5 3e 8d 5e 6d be 73 26 bf be
       -0.025637968 0.4170931 -0.231806 -0.37334022
000140 d4 42 e3 bd bc cd 44 3e e2 93 91 be c8 ab b9 3e
       -0.11096731 0.19219106 -0.28433138 0.3626387
000150 63 37 c5 3d 4c e6 a8 be e8 ef 65 3e e3 e1 e8 3e
       0.09629705 -0.32988203 0.22454798 0.45484838
000160 40 85 1b 3c 3c 05 a1 be 8a 67 8f be 70 1b 06 bd
       0.0094922185 -0.31449306 -0.28008682 -0.03274101
000170 50 8b 8c be f2 a2 a4 3e b0 51 91 3e b3 51 8f 3d
       -0.27450037 0.32155567 0.28382635 0.06998005
000180 41 82 b6 be 16 4d e9 be d0 2b 32 be 63 a7 d6 3c
       -0.3564625 -0.45566624 -0.17399526 0.026202863
000190 eb 65 90 bd 6d 63 5e 3e 90 55 fb 3d 83 91 00 3f
       -0.07050689 0.21717615 0.12272179 0.50222033
0001a0 00 ab 14 3e 9a b7 06 be a3 93 6e 3d cb c3 65 3e
       0.14518356 -0.13155976 0.058246266 0.2243797
0001b0 28 22 1a be 30 99 20 be 34 3a f8 be d6 a5 9e be
       -0.15052092 -0.15683436 -0.48481905 -0.30985898
0001c0 90 67 79 3d 9c f7 9a be 90 cd af bd 78 ad 45 3e
       0.06088978 -0.30267036 -0.0858413 0.19304454
0001d0 00 ef 55 bc fc 23 cf be ee db fe 3e 14 41 fd be
       -0.01305747 -0.4045714 0.49777168 -0.49463713
0001e0 d7 c9 46 bd c4 a4 f2 bd 98 a2 d8 3e 50 da c6 3d
       -0.048532333 -0.11847833 0.4231155 0.097096086
0001f0 20 3b 9d bc 80 b8 de 3c ba c8 b3 be b4 ec 28 be
       -0.019193232 0.027187586 -0.3511408 -0.16496545
000200 ee 39 9a 3e ef 62 77 3e 90 90 e1 3e 72 89 9c 3e
       0.30122322 0.24158834 0.44055605 0.30573612
000210 48 76 dd be 1c 59 28 3e ec 16 90 be 90 96 8e be
       -0.43254304 0.16440243 -0.28142488 -0.27849245
000220 f2 4b 13 3e 72 c3 90 3d fb d5 1a 3e d9 5b ff be
       0.1438444 0.07068528 0.1512069 -0.49874762
000230 4f a7 d4 be 41 04 8f 3d 7f bb bc 3e df 46 b8 3d
       -0.41533896 0.06983233 0.36861798 0.089978926
000240 bd bd 78 3e 82 87 94 be 3c f5 46 be 2e 1d 1f be
       0.2429113 -0.29009634 -0.19429487 -0.15538475
000250 0a 3c e4 be e0 0f 02 be 58 02 d1 be 14 dc 71 3e
       -0.44577056 -0.12701368 -0.408221 0.2361911
000260 10 09 42 3d d0 a6 7f 3d 00 cb 30 bc 98 fd 43 3e
       0.047371924 0.062414944 -0.0107905865 0.19139707
000270 97 43 02 3c eb 72 c5 3d 5f 67 ff be 80 3f 95 3b
       0.007950685 0.096410595 -0.49883553 0.004554689
000280 a7 08 f8 be f7 6c 78 3e dd 51 f8 3e d1 9f 2c be
       -0.484441 0.24260317 0.48499957 -0.1685784
000290 c8 b0 42 be 18 62 5f be c0 50 77 bc 4a 40 e9 3e
       -0.19012749 -0.21814764 -0.015094936 0.4555686
0002a0 24 ee 77 be f0 73 a5 bd 68 6d 8b 3d e4 0d 05 be
       -0.24211937 -0.08078754 0.06807977 -0.1299358
0002b0 81 de 2d be 1b a8 80 3e 19 51 42 bd e1 e7 80 bd
       -0.1697941 0.25128254 -0.047440622 -0.062942274
0002c0 a5 f6 b8 3d eb bb e5 be 6c a3 b4 3e fa 61 2b 3e
       0.09031419 -0.44869933 0.3528093 0.16736594
0002d0 8c 14 34 3e 0b 1f ae 3e 30 d3 c6 3e a7 e4 90 3e
       0.17585963 0.3400806 0.38832998 0.28299448
0002e0 2c 11 6c 3d eb e3 7d bc c5 4b 84 be 6b a4 a1 3e
       0.057633564 -0.015496234 -0.25839058 0.31570753
0002f0 60 5d fa 3e 87 80 cb be bc 1e d0 3c 2a f1 d5 3e
       0.48899364 -0.39746496 0.02540528 0.41785556
000300 19 17 51 be 8c e8 39 be d1 e3 ed be 38 62 e1 3e
       -0.20418967 -0.18155116 -0.46462873 0.44020247
000310 d2 47 d7 3e 19 16 a7 be 74 2f 95 3e fe 35 23 be
       0.42046982 -0.32634047 0.29137766 -0.15938565
000320 7a d9 77 3e 2d a5 b7 3e 2d cd 57 bd c7 14 bd 3e
       0.24204054 0.35868207 -0.052685905 0.36929914
000330 4b 88 c4 be 4f 85 dd 3e 23 67 f1 3e d5 5e 3c be
       -0.38385233 0.4326577 0.47149 -0.1839555
000340 5c 8f 0a be b0 f8 5a 3d 30 d1 03 be 10 c6 5c be
       -0.1353125 0.053459823 -0.12872767 -0.2155993
000350 80 1e 56 bd 48 3e 7e 3e 90 9d 79 bd 30 38 95 be
       -0.05227518 0.24828446 -0.06094128 -0.2914443
000360 b4 77 b8 bd 1d f9 dd 3e e9 a4 8e be 5f 6e a7 bd
       -0.090072066 0.4335412 -0.2786019 -0.081753485
000370 36 72 9e 3e f2 7a 8b be 40 6b 7a 3e a0 83 11 3d
       0.3094651 -0.27242237 0.24454975 0.035525918
000380 88 5d 50 be 20 3b b6 3e 68 cb 1a be a9 f9 14 be
       -0.2034818 0.35591984 -0.15116656 -0.14548363
000390 a4 93 e7 be a0 f6 57 3d a0 6b 43 3d 42 e6 fe be
       -0.45229828 0.052725434 0.04771006 -0.49785048
0003a0 2e 70 c8 3e 9b 2b 11 be f4 4c a9 be 15 e3 12 bd
       0.39148086 -0.1417679 -0.33066523 -0.035861094
0003b0 b4 fe 88 3e fe 8f 67 be 92 42 f9 be e7 c3 ec bd
       0.26756823 -0.22613522 -0.48683602 -0.11560803
0003c0 63 cd 86 3e dd 69 83 3d 17 4e eb 3e 12 7f 92 be
       0.26328573 0.06416676 0.45958015 -0.28612572
0003d0 bf e0 aa 3e 60 1e a4 3e ed 2b 0b be 51 22 0f be
       0.33374593 0.32054424 -0.13590975 -0.13977934
0003e0 20 ff 82 bd 78 59 94 bd c0 9e b0 3d 58 e2 a0 3d
       -0.063963175 -0.07243627 0.08624029 0.07855672
0003f0 16 d4 e3 3e 11 cf 81 be 27 9f ae 3e 8c 88 bf 3e
       0.44497746 -0.25353292 0.341058 0.37408864

critic.0.bias f4 [128]
000000 3d 1e 07 3e 71 66 eb 3e d3 13 35 be c3 0c ea bd
       0.13195129 0.45976594 -0.17683344 -0.11428215
000010 2e c3 e0 3e 5e 6c a9 3e 04 94 d4 bd 3f 32 9e 3e
       0.4389891 0.3309049 -0.10379794 0.3089771
000020 98 53 ad bd b4 a4 7d bd 61 32 f5 3b 5d 15 7a 3e
       -0.0846321 -0.06192465 0.0074828123 0.24422212
000030 0f 5c f2 3e 22 de bc be ea e9 3b 3e c6 ad 3f 3c
       0.4733586 -0.36888224 0.1835095 0.011699146
000040 3d ef a9 bd dc 13 61 be 3a fe ee be 57 87 27 3d
       -0.08297584 -0.21980232 -0.46678334 0.040900555
000050 3f 35 2e be dd 1a f5 3e f4 ac e7 be f5 90 0b 3e
       -0.170125 0.47872058 -0.4524914 0.13629515
000060 a0 cc 72 3e 18 9a b0 3d c9 35 4e 3e d0 61 cc bd
       0.2371087 0.08623141 0.20137705 -0.09979594
000070 74 05 ca be af 04 1a 3e 00 40 ef 3c 86 e4 a3 be
       -0.39457285 0.15040849 0.029205322 -0.32010287
000080 f8 18 c8 be a0 df c5 bc cb c5 95 3e 05 e3 fe 3e
       -0.3908155 -0.024154484 0.29252467 0.49782577
000090 eb 87 f1 3d e8 4e 31 be e8 76 fb be dc cf c2 3e
       0.117935024 -0.17315257 -0.49114156 0.3804921
0000a0 69 36 ff 3e 92 8a c4 be 00 26 1b be eb 09 83 3e
       0.498462 -0.3838697 -0.15151215 0.25593504
0000b0 79 70 ba 3e dd 8e d8 3e db ff c0 bd 55 7d d0 3b
       0.36413935 0.42296496 -0.094238006 0.006362597
0000c0 27 af ce 3e 55 96 ea 3e db 11 0d be e5 cf 19 be
       0.40368006 0.4581782 -0.13776343 -0.15020712
0000d0 04 f1 b7 be 1e 83 ba be 7c 8b 31 be 24 da bf be
       -0.35926068 -0.3642816 -0.17338365 -0.37471116
0000e0 1a 73 8a 3c 8c 23 e9 be 52 6e b1 3e a8 c0 1e 3e
       0.016900588 -0.45534933 0.3465448 0.1550318
0000f0 72 68 8a be 48 fe 90 be c4 2b 98 be 44 ed de 3e
       -0.2703281 -0.28319 -0.2972089 0.43540394
000100 4c de 1a be b8 aa 8d 3e 58 ce f2 be 34 9e 4c be
       -0.15123862 0.2766931 -0.47423053 -0.19982225
000110 7c 6e 82 be 14 95 67 3e ad db a9 bc 71 64 fe 3e
       -0.25474918 0.22615463 -0.020734632 0.49686006
000120 b6 3e 24 3e 8e 80 e8 bd 13 c8 b5 bd 32 bc c2 3d
       0.16039547 -0.11352645 -0.08876052 0.09508552
000130 c9 00 39 3e c8 ba c8 3e 66 83 35 3c 19 b5 c7 3e
       0.18066706 0.39205003 0.011078691 0.39005354
000140 b0 e7 bd be 29 af 92 3e 66 88 aa 3e 84 8c 77 3e
       -0.37090826 0.28649262 0.3330719 0.24174696
000150 31 92 d3 bc 6a dc 81 3e 39 ca 4c be c1 80 d6 be
       -0.025826545 0.25363475 -0.19999017 -0.41895106
000160 ee 84 f0 be 44 d7 ae be 48 63 b3 3e 68 81 5b 3e
       -0.46976417 -0.3414861 0.35036683 0.21436083
000170 62 8e da be 40 26 a4 be a4 32 84 be c4 11 07 3e
       -0.42686754 -0.32060432 -0.25819886 0.13190371
000180 88 ff 17 be 38 2e 99 3e 10 7c 08 be 2d 6c 47 be
       -0.14843571 0.29918075 -0.13328576 -0.1947486
000190 b8 63 8f be e8 51 b0 3e 5d a1 83 be 86 b8 e8 3e
       -0.28005767 0.3443749 -0.25709048 0.4545328
0001a0 c2 24 8d be d5 de 9b bd c0 fe f8 be 6a eb ac 3e
       -0.27567106 -0.07610861 -0.4863186 0.33773357
0001b0 e1 51 04 be 01 95 ca 3e 89 0e fb 3b 13 1d 85 bd
       -0.1292186 0.39566806 0.007661645 -0.06499686
0001c0 5f 9e 71 3d e5 3d d9 bd a2 36 f1 be 15 97 77 be
       0.058988925 -0.106075086 -0.47111994 -0.24178727
0001d0 e0 9f 7c be 10 ad cc be cc 89 c1 be d9 ed 89 bd
       -0.24670362 -0.39975786 -0.37800443 -0.06734819
0001e0 79 49 73 3e ba fe c9 3e 6f 9b d0 3c c6 11 8a 3e
       0.23758496 0.39452153 0.025464742 0.26966685
0001f0 52 a8 23 bd fa 15 a0 3e 29 d5 2e bd 97 d5 88 3e
       -0.039955445 0.31266767 -0.042683754 0.26725456

critic.2.weight f4 [64, 128]
000000 02 f9 ff 3b 2f d3 52 bd 82 81 03 3d f3 91 20 bd
       0.0078116665 -0.05147093 0.03210593 -0.039201688
000010 ae cb 19 bc d4 12 41 bd 26 26 16 3b da 8e 5c bd
       -0.00938694 -0.047137097 0.0022910922 -0.05384717
000020 ae af 83 3d b7 4c 7b bd 66 25 26 bc b3 80 a6 bb
       0.064299926 -0.061352458 -0.010140752 -0.00508126
000030 20 12 62 bd 3f 21 81 bd 37 b0 95 3d 76 93 82 bd
       -0.055193067 -0.06305169 0.07309001 -0.06375782
000040 20 34 b3 bd 3b 16 b1 bb ed 1f e8 3b 42 77 85 bd
       -0.087501764 -0.0054042614 0.007083884 -0.06516887
000050 2f ba 71 bd e5 77 87 3c 8b cf b8 3c b0 d2 df 3a
       -0.05901545 0.016536662 0.022559902 0.001707634
000060 15 70 b3 bc 23 0d 9b 3c a3 5c 79 ba 7f 3f 20 3d
       -0.02190403 0.018927163 -0.00095124 0.039123055
000070 9b 4e 9f 3d 24 08 d9 bc dc 54 06 3d 4a 06 84 39
       0.07778665 -0.02649314 0.032795772 0.00025181688
000080 fd ac 99 bd 56 8b 2a bc 60 72 56 bd d0 85 2b 3b
       -0.07503698 -0.010409197 -0.05235517 0.0026172288
000090 9a 00 0d 3d 22 67 36 bd 82 0e 72 3d 32 ee 95 bc
       0.0344244 -0.04453195 0.059095867 -0.018302057
0000a0 42 e3 2f 3c e7 cb 3b bd b0 82 38 bc 7b ff dd 3c
       0.010735335 -0.045848753 -0.011261627 0.027099362
0000b0 b0 eb 06 bd 8d fd 5d 3d 85 37 c0 bc 43 37 aa 3d
       -0.032939613 0.054196883 -0.023463974 0.083113216
0000c0 ee 48 5d 3d 41 30 b5 bc 12 c3 90 3d 52 24 cb bc
       0.05402463 -0.022117736 0.07068457 -0.024797592
0000d0 c7 65 a2 3d 01 db b1 3c 78 82 e6 bc 5a 3c 9f 3a
       0.07929569 0.021710875 -0.028138384 0.0012148723
0000e0 ee 66 39 bd b3 48 78 bd 60 09 a2 3d fc 56 97 bd
       -0.045264177 -0.060616206 0.079119444 -0.07389638
0000f0 25 a4 7b bd cc f6 60 bc f7 29 52 3d 19 f4 27 3d
       -0.061435837 -0.013730716 0.051309552 0.041004274
000100 a8 0a 9f bd 34 53 39 bd 2f 4c 5c bd 75 c9 2d 3d
       -0.077657044 -0.045245364 -0.05378359 0.042428453
000110 c4 69 9d 3d 4c 3d 5c bd ae f4 2f bd 16 10 6b bd
       0.07686189 -0.053769395 -0.042957954 -0.057388388
000120 8e 2b 96 3c 5d d1 a6 bd 12 a1 ac 3d fa 3a a7 bd
       0.018331315 -0.081454016 0.08429159 -0.08165546
000130 d8 c8 b0 bd 97 25 11 bd 04 7e 7b 3d 1b 79 a0 3d
       -0.08632058 -0.03543624 0.061399475 0.07835599
000140 44 25 4a bd ea e3 54 bd 63 90 c7 3a 8e 61 83 bc
       -0.049351946 -0.05197517 0.0015225526 -0.016037729
000150 28 76 94 bd fd 21 90 3c 09 1a 5e bd 5d b2 21 bd
       -0.07249099 0.017594332 -0.054224048 -0.03947674
000160 fb f0 69 3c 5b e2 6f bd 80 13 4b 3d 97 a3 a0 bd
       0.014278646 -0.05856548 0.049579144 -0.07843702
000170 ea cf 7a bd 1b d0 3a 3d cd 9e 24 3d 08 e6 12 bb
       -0.06123344 0.04560862 0.040190507 -0.0022414941
000180 89 01 89 3d cd a4 09 bd 09 2a 86 3d ad 0e de bc
       0.06689746 -0.033604432 0.06550986 -0.027106607
000190 c1 5a 7e 3d 39 3d d9 3c d9 93 8a bd a2 da 6f 3c
       0.06209827 0.026518451 -0.06766481 0.0146395285
0001a0 84 52 a4 bd a9 86 ac 3d f0 9c de bc 8e d2 9b 3d
       -0.08023551 0.08424122 -0.027174443 0.076085195
0001b0 3b cb 9f bd bc 69 0c bd 76 13 ae 3d ea 04 da 3c
       -0.07802435 -0.034280524 0.08499806 0.026613671
0001c0 ed 77 1b bd cd 68 90 3d 7f 87 c2 3c 82 de 0b bd
       -0.037956167 0.07051239 0.02374625 -0.034147747
0001d0 10 ef 70 bd 36 14 9f 3d 36 89 9a 3d ba 5b b0 bc
       -0.058821738 0.07767527 0.07545702 -0.021528114
0001e0 3a 34 2f bd e2 c1 7e bd 63 b0 05 3d 83 26 81 3d
       -0.042774417 -0.06219662 0.03263892 0.06306174
0001f0 aa b8 ff bc c3 f5 0a 3c d8 91 9d bd dc 19 5c bd
       -0.031215984 0.008481446 -0.07693833 -0.0537356
000200 fc 96 34 bd 69 d4 9b 3d 0a 9e a5 3a 6e fb b0 bd
       -0.044089302 0.076088734 0.00126356 -0.086417064
000210 71 15 a8 bd fc 84 a9 3d 18 d0 3c bd 13 5f aa bd
       -0.082072146 0.08277318 -0.04609689 -0.08318915
000220 54 35 3c 3d a6 7f 87 3d 8f db 1a bd 0c 13 ac bd
       0.045949295 0.06616144 -0.037807044 -0.084020704
000230 5f 8c 01 3d 1b 18 42 bd 76 14 41 bd 44 35 87 3d
       0.03162801 -0.04738627 -0.047138654 0.066019565
000240 cc f6 94 3c 27 3b ac 3d bd 14 b3 bd 6b ea a3 bb
       0.018184088 0.0840972 -0.0874419 -0.00500231
000250 35 89 74 3d 71 89 1e 3d 3f b7 c7 3c 8f c2 75 3d
       0.059701163 0.038705293 0.02437937 0.06
000260 8c ad 67 bd 0e 63 6d bd 8d e7 a7 bd 36 cd 29 3d
       -0.05656199 -0.057955794 -0.08198462 0.04145547
000270 cc 18 1b 3c 1e 80 22 3c a9 bf 99 3d 11 12 58 3d
       0.009466361 0.009918241 0.075072594 0.052751604
000280 b4 e9 ad bd 0c 3a b1 3d 76 d0 a6 3d 63 c7 7d bd
       -0.08491841 0.0865365 0.081452295 -0.061957728
000290 5b ea 87 3b 2c 0a 94 bd 07 7e 96 3c 98 77 b4 bd
       0.0041478104 -0.07228503 0.018370641 -0.08811873
0002a0 ab a0 8a bb cd 4c 84 3c 5b a7 a8 bd 37 7d a8 3c
       -0.004230579 0.016149903 -0.082350455 0.02056752
0002b0 33 4b 8d 3d c9 bc 78 3d a9 e1 7b 3c 55 d5 04 bc
       0.06899109 0.060726915 0.015373626 -0.008107503
0002c0 12 08 a1 bb 9b d2 b9 3c 0f 18 92 3d 6a 6f 8f bd
       -0.004914292 0.022683432 0.07133495 -0.070036724
0002d0 f8 73 b0 3d c5 86 4e bc 3e 3c e1 3b 29 27 a3 bd
       0.08615869 -0.012605374 0.0068736365 -0.079664536
0002e0 90 9e 32 bd 5b a6 b3 3c c7 71 8d 3d f7 66 8a 3d
       -0.04360825 0.02192991 0.06906467 0.0675792
0002f0 94 00 a8 bd 44 60 6e bd dc df 8f 3d 12 66 32 3d
       -0.08203235 -0.058197275 0.0702512 0.043554373
000300 aa 73 30 3d bd 7c a2 3d a2 6c 88 3d 2d 1f ad bc
       0.043079056 0.07933948 0.06661345 -0.02113303
000310 6e 52 68 bd e0 42 c7 3c 6a 1d 26 bd 5d 7c 65 3d
       -0.056719236 0.02432388 -0.040555395 0.056026805
000320 79 96 08 3d 68 b2 91 bd 42 ef 6b 3d a1 06 42 bd
       0.033346627 -0.071141064 0.05760122 -0.047369603
000330 74 83 9d 3d 29 6d a9 bd 08 3a a8 3c 65 a3 3d bd
       0.07691088 -0.08272774 0.020535484 -0.046298403
000340 8e 77 7d 3d 05 98 a4 bb b3 85 59 b9 4d 2d 64 bd
       0.061881594 -0.005023005 -0.0002074454 -0.055707265
000350 91 3e 36 3c 9e 8c d7 bc 68 00 4f bd b6 d7 9e bd
       0.011123315 -0.026312169 -0.050537497 -0.07755987
000360 3d 00 0c 3b 62 cb 92 bc 70 27 5c bd 50 fc 5f 3d
       0.0021362447 -0.017919246 -0.053748548 0.054683983
000370 21 5a ba bc 70 b3 55 3d 81 8a b4 3d 4d 3d 9a 3d
       -0.022748055 0.052173078 0.0881548 0.075312234
000380 3e a7 68 3d cd cb a5 3d fd 6a b1 bc f1 db bc 3b
       0.05680012 0.080955125 -0.021657461 0.0057635237
000390 d1 5c 48 3d 21 ec 8e bd 2d ff 07 3d 9a 59 bb bd
       0.04891664 -0.06978632 0.03320234 -0.091479495
0003a0 1c 73 4b 3d cb 85 d9 bc f0 5e f8 3c 58 7c 17 bc
       0.049670324 -0.026553055 0.030318707 -0.009245954
0003b0 67 64 8d 3d 57 6b 7d bd cd 29 ca bc 6f e4 c2 bc
       0.06903916 -0.061869945 -0.024678135 -0.023790566
0003c0 d9 7c ac 3b fd 8a 0c bd a5 c7 c2 bc 66 d5 05 bd
       0.0052639064 -0.034312237 -0.023776839 -0.032674216
0003d0 64 2c b5 bd 6e a0 77 3c 3e 5c b0 bd 8f 7e 4a 3d
       -0.088463575 0.015113933 -0.08611344 0.049437102
0003e0 3d f4 99 bd 42 22 23 3d e5 5d 72 bd 6d 4e 1b 3c
       -0.07517288 0.039827593 -0.059171576 0.009479147
0003f0 3c a2 d9 bc b0 91 ec 3c 0b 4e 1d 3c 56 43 10 3c
       -0.026566617 0.028878063 0.009601126 0.008805117

critic.2.bias f4 [64]
000000 78 7b 0c 3c 8f 94 3e bd 2c 5f 24 bd 8c 36 4b bd
       0.008574359 -0.046528395 -0.040129825 -0.049612567
000010 d7 3a d2 bb 63 e2 48 3d 2e 43 45 bc a1 66 bb 3d
       -0.0064157057 0.049044024 -0.012039943 0.09150434
000020 b3 93 9b 3d 17 29 0d bc 4c 20 90 bd 28 ef 39 bd
       0.07596531 -0.008615754 -0.0703741 -0.045394093
000030 d0 66 54 3d c2 c3 b3 3d 2d 47 a8 bc 0b 08 1c bd
       0.051855862 0.08777572 -0.020541752 -0.038093608
000040 c7 6e 82 bd 79 ba cb 3c 6b 45 af 3d 9f eb 06 bd
       -0.06368785 0.02486919 0.08558162 -0.03293955
000050 01 79 a4 bd 99 57 9c 3d d7 00 9e bd 5d ae ca 3b
       -0.08030892 0.076338954 -0.07715004 0.0061853365
000060 52 46 68 bd 78 3e 48 3d 41 81 40 bd ad e3 f2 bc
       -0.056707688 0.0488877 -0.046998266 -0.02964958
000070 b8 27 71 39 1e 99 8f bd f6 e0 ba 3c ef b1 2d bd
       0.00022998347 -0.07011627 0.022812348 -0.04240602
000080 f8 c5 22 3d 59 73 a3 bc 14 2d 11 bd 0c a6 75 3c
       0.03973958 -0.019952463 -0.03544338 0.014993202
000090 b3 9a af bd 83 6e e0 bc 84 1e 6c bd 46 a8 ab bd
       -0.085744284 -0.027396446 -0.05764629 -0.08381705
0000a0 9a d6 67 bd 1a 85 40 3a cf de de 3c ae 05 39 bd
       -0.056601144 0.00073440524 0.027205853 -0.045171432
0000b0 c6 40 f9 3c 0c b4 a8 3b ce 20 42 3d b6 9a af 3d
       0.030426394 0.0051484164 0.047394566 0.08574431
0000c0 7e e9 a1 bc 99 e9 08 3c d2 70 29 bd f9 60 93 3d
       -0.019764658 0.008356475 -0.04136736 0.071962304
0000d0 1b 50 9d bd 91 c0 74 3b fb b7 a1 bd f3 9e 4f 3d
       -0.076812945 0.0037346224 -0.078964196 0.050688695
0000e0 b3 b0 9f bd d4 95 6b bd e6 0e ad bd f6 c4 cf 3b
       -0.077973746 -0.057515934 -0.08450107 0.0063406182
0000f0 5e 8e 95 3d 9f e3 02 3d 27 07 5c 3d 22 cc a6 bc
       0.07302545 0.031955358 0.05371776 -0.02036101
