data/ppo_2023_03_23_11_29_30.pth (torch, 93525 bytes, 14 tensors)

actor.0.weight f4 [128, 4]
00000000: 0090 ebbd 6e66 82be fe83 bcbe 7349 e93e
00000010: f8ba b7be 5692 0ebe 7994 f23e b952 223e
00000020: ab51 10be 4480 6a3e 4acf d43e f356 8abd
00000030: 32f1 acbe 7840 99bd 1e51 f1be 3047 c5bd
00000040: f49a 35be 18b0 ef3d e847 52be 707e 14bd
00000050: b41c eebe 54aa b6be ea24 8fbe 56c9 aabc
00000060: 07db 403e d807 e9be 3e46 a8be a9a2 873e
00000070: 3906 d63e bbd6 aebd e0ae 503d ab2d 60bd
00000080: 450f 273e 6a45 f43e 4b7f 873e bfd5 c43e
00000090: 0818 68be 886b dbbd a609 f4be 0eba 93be
000000a0: 0665 433e b1d8 d03e 72e3 313c 2ad8 813d
000000b0: c73f cdbd 79ab 2f3e 6647 61be 36eb 12bd
000000c0: e4a3 98be e4e4 0ebe 48fd c1bd a994 66be
000000d0: 56ab 89bd 6d04 993e 4787 87be ca34 4bbe
000000e0: 2f20 63be c635 813e aae4 d8be 27f8 e4bd
000000f0: c095 7cbd 1e34 9a3e 78f6 463e b615 ddbe
00000100: a62f 323e d30e 2b3b b60c 28bc 5f6a f43e
00000110: 9a8b 03be 0a98 ea3e 8711 653e 8e39 8a3e
00000120: 403a 683e 7430 803d 3a4b c6bd 10cb 523e
00000130: dd5c 123e dbf6 953e 4f5e 023e b9b6 8b3d
00000140: 3b8f 9b3e cce3 f2be 6067 5f3d 7f55 e7be
00000150: b113 8e3d 27c0 bf3e 21ff 1b3e 1987 653e
00000160: e67b d0be 6ee6 89be 420e ca3e 2643 aabe
00000170: ceb0 2a3c ee95 a1be 5806 013e 19a3 6ebe
00000180: 1936 f73e e821 b23e ec87 653e c6e9 65be
00000190: 6147 e43c 7b87 bc3e 9b39 d0bd 51ed 96be
000001a0: 50e2 523d 38c5 a8be 8005 e83c a00d 823e
000001b0: 3442 7dbe 1cc6 b23e bc3e 79be c0cc 13bd
000001c0: 98e8 b0be 9cc7 ab3e 2c64 f73e 2937 463e
000001d0: 2755 fc3e c2a5 c63e c8aa 0c3e 4a9c 983d
000001e0: c811 003e d8c1 a53d f88f 6a3e c0b1 90bd
000001f0: 8032 7a3e 2fb4 16be 649c 76be 7331 ca3e
00000200: 77cd d4be 3419 c1bd d8f1 a33e 2bf0 9d3e
00000210: 968c 67be 6621 c33e 03a3 f93d a224 dbbe
00000220: 3947 b93e 65b4 c33e 7b93 ec3e 6a37 6ebb
00000230: e636 c73e 68f5 2c3e f6ec a13e 80d8 df3e
00000240: bf38 843e 88fc 68be 7c44 91be e78d 1c3e
00000250: 4ba9 8e3e c62a df3e 073f 20be de6f d1bd
00000260: 9135 c93e e399 3b3c e8d8 d8be 5f4f f9bd
00000270: 4ff8 b53e c0fc 6f3e 422d ef3e 0e68 bf3e
00000280: 30fa 9fbe 45c1 b43e afdd 3fbe 7730 b53e
00000290: 85f6 d73d 9644 1e3e fe59 533d 342c fb3e
000002a0: 17ab 1dbe e1fc 30bd c5a6 cf3d 9330 af3e
000002b0: b3e3 1c3e 3425 e53e 7a94 fdbe 8b7a debe
000002c0: ad74 193c 1dba c63d 98fb 85bd 52c1 d43e
000002d0: a350 f53d e523 8e3e 01e2 1f3e 62a2 f2bb
000002e0: c05a 8d3d 0095 503d d052 76bd 7e23 f6be
000002f0: 086b c9be f698 d1be 807e 643c 16d5 95be
00000300: 8804 8a3d 70bf e7be 40f1 e93c 481b b63e
00000310: c0e4 fbbe 2530 f73e eec6 94be 55f5 b0bd
00000320: 70b1 adbe 543b d63e 555c ddbd 8446 9f3e
00000330: d6a9 a1be c054 3a3d 40d3 b83c a01f 063d
00000340: ac7e 71be 40f3 dfbe f496 9a3e 3805 33be
00000350: 3a52 c6be 3cf2 553e 617a b33e 3f7a c73e
00000360: 08d3 173e 6009 923e b08a d73e 4e6a 923d
00000370: d136 a33e 5e48 d1be 7084 2d3d 6224 2f3d
00000380: 4fdf cf3e 3770 68be d317 ff3e 73a3 56be
00000390: 3c3d eebd 5316 393e 6cb6 f5be f56c 36be
000003a0: 69d7 863e b383 59bb 441e a7be 6a87 733d
000003b0: 1c16 0cbe 35b9 b7be 7692 9ebd 06a2 853e
000003c0: d072 103d ce4e ebbe 4cbf be3e f01d 20bd
000003d0: e162 243e 810b aebe a06d 8a3d 663f c5be
000003e0: 401c bbbe 704d c6bd 9859 15be 54bb 3ebe
000003f0: 47c7 f63e 2710 febe 5188 353d 2906 ec3e
-0.11502075 -0.25468773 -0.36819452 0.4556385 -0.35884833 -0.1392301 0.473789 0.15851869
-0.14093654 0.22900492 0.415644 -0.067548655 -0.33777767 -0.074829996 -0.471322 -0.096327186
-0.17734891 0.11703509 -0.20535243 -0.036253393 -0.46506274 -0.35676825 -0.2795785 -0.020847958
0.18833552 -0.45513797 -0.3286609 0.26491287 0.41801623 -0.0853705 0.050948024 -0.054731052
0.16314419 0.4770921 0.26464304 0.38444325 -0.22665417 -0.10713869 -0.4766361 -0.28852886
0.19081506 0.40790322 0.01085745 0.06340058 -0.1002193 0.17155255 -0.21999893 -0.035868846
-0.2981254 -0.13954502 -0.09472138 -0.22517647 -0.06722133 0.2988619 -0.26470396 -0.19844356
-0.22180246 0.25236338 -0.42361957 -0.11180144 -0.06166625 0.30117887 0.19429958 -0.43180627
0.17400989 0.0026101365 -0.010256937 0.47737405 -0.12846223 0.45819122 0.22369967 0.26997036
0.2267847 0.06259242 -0.09682317 0.20585275 0.14293237 0.29289898 0.12731288 0.06821961
0.30382714 -0.4743942 0.054541945 -0.45182416 0.069373496 0.37451288 0.15234043 0.22414817
-0.40719527 -0.26933616 0.39464003 -0.33254355 0.01041813 -0.315597 0.12600076 -0.23304404
0.4828346 0.34791493 0.22415131 -0.22452459 0.027866067 0.36822113 -0.10167237 -0.29477933
0.05148536 -0.32962966 0.028322935 0.2540102 -0.24732286 0.3491677 -0.24340338 -0.036083937
-0.34552455 0.33550727 0.48318613 0.1935698 0.49283716 0.38798338 0.13737023 0.07451685
0.12506783 0.080936134 0.22906482 -0.07065153 0.24433327 -0.14717172 -0.24083096 0.39490852
-0.41563007 -0.09428635 0.3202045 0.30847296 -0.22612223 0.38111418 0.12189295 -0.42801386
0.3618715 0.38223568 0.4620627 -0.0036348947 0.38909072 0.1689049 0.316261 0.43719864
0.25824544 -0.22752583 -0.28372562 0.15288506 0.27863535 0.4358732 -0.15649043 -0.10226415
0.3929868 0.011450264 -0.42352986 -0.12173342 0.35541007 0.2343626 0.46714216 0.37384075
-0.31245565 0.35303703 -0.1873691 0.35388538 0.10545067 0.15455851 0.051599495 0.49057162
-0.15397297 -0.043209914 0.10139231 0.34216747 0.15321235 0.44754946 -0.4952734 -0.43452868
0.009366197 0.09703467 -0.06542128 0.41553742 0.11978271 0.2776176 0.15613557 -0.0074046114
0.06902075 0.050923347 -0.06013757 -0.48073953 -0.3933947 -0.40937012 0.013946176 -0.29264134
0.067391455 -0.45263243 0.02855742 0.3556769 -0.4919796 0.4827892 -0.2905802 -0.08640543
-0.33924437 0.4184214 -0.108086266 0.31108487 -0.31574887 0.04549098 0.02256167 0.032745004
-0.23583478 -0.43740273 0.30193293 -0.1748246 -0.3873461 0.20893186 0.35054305 0.38960454
0.14826596 0.28522778 0.42097998 0.07149182 0.3187776 -0.40875524 0.04236263 0.042759307
0.40600058 -0.22699057 0.49822864 -0.20960788 -0.11632773 0.18074922 -0.4799074 -0.17815001
0.2633622 -0.003319007 -0.32640278 0.059455313 -0.13680309 -0.3588349 -0.07742779 0.26100177
0.035265744 -0.4595856 0.37255323 -0.03909105 0.16053344 -0.33993152 0.067591906 -0.38524932
-0.3654499 -0.09682739 -0.14584959 -0.18626148 0.48198912 -0.49621698 0.044319455 0.4609845

actor.0.bias f4 [128]
00000000: e779 24be 75c9 933e 2d96 c03d e62f ecbe
00000010: 5c9c 67be 1362 ef3e 5527 893e 4170 2ebe
00000020: afff 553e f0df 70be f629 abbe 3e94 823d
00000030: cfd1 8b3e eee5 793e 8b4c e13d 5e8e f6be
00000040: cae6 8f3e 9d56 b73e f018 9b3e 5bc2 583e
00000050: 28a0 693e 5d13 f2be 9b09 0b3e 1f8b 473e
00000060: 71a9 59be 866e 2d3c b808 58be 66e3 d7be
00000070: e046 2abe 6d83 db3e 48c0 e8be a8be a13d
00000080: f0c0 943e 74a3 e63e db33 b0be c4b6 10be
00000090: 1ed8 373d ee5c a8bd cf90 503e d9a9 f33d
000000a0: 11a7 f53d d409 1c3e c839 29be c637 04be
000000b0: c0f4 15be f446 e13e 88de b0bd fdb3 fb3d
000000c0: 8848 ecbe 640e 223e 9c75 d7be 4fd2 553d
000000d0: c0c6 4dbc 0b41 3dbe d4ea dd3d 9c83 22bd
000000e0: dc7d 103c 9936 3ebc b433 1cbe 7648 953e
000000f0: a00c 71be c50d bc3d f497 a4be 945c 9b3e
00000100: 85c0 b1bd e764 e53e 40f3 b6bc 1c47 9c3e
00000110: b07b 963d f2dc 9c3e 5e5f d4be 2ed3 f43e
00000120: 74b1 863e 0093 e0be 2a7d ebbe 0a50 f5bd
00000130: 5d2c 953e 2818 f2be 58f8 a0be 7011 b53e
00000140: 888a bbbe f27d 3fbc 22d2 30be 149d bbbe
00000150: 2dba f43e d421 debe 9a83 3dbe 76ab f3be
00000160: a1c3 1b3d 7ca3 55be d6db f93e 1949 d33e
00000170: 1358 70bd ec70 0dbe 4ef5 4bbe 6d46 fb3e
00000180: 3661 13be 4804 c6be 218a 8bbe 04dc dabe
00000190: 0913 673d 4876 f1be ebbe be3e e5df ddbe
000001a0: 2bce 903e f639 d1bd 517c df3d d8bd 12be
000001b0: 94e1 70bd 5cfe 8d3e f609 ecbd 8e93 483d
000001c0: 7ffc 9a3e c316 73be 63b7 f7be 7f35 2b3e
000001d0: 435e 873b 3ed2 84be c0d5 35be da28 84be
000001e0: cf6e 823e a125 dbbe b916 1f3d 50b4 b8be
000001f0: 9857 d3bd e592 8a3e 56d1 e03e 6124 5cbd
-0.16062127 0.28864637 0.09403644 -0.46130294 -0.2261824 0.46754512 0.2678782 -0.17035009
0.20898317 -0.23522925 -0.3343045 0.06375931 0.2730851 0.24404117 0.110009275 -0.48155493
0.28105766 0.35808268 0.30292463 0.2116789 0.22815001 -0.47280398 0.13577883 0.19486664
-0.21256043 0.010585433 -0.21097076 -0.4216568 -0.16628599 0.42873707 -0.454592 0.07897693
0.2905345 0.4504658 -0.34414563 -0.1413222 0.04488384 -0.0822085 0.2036774 0.1189763
0.11994756 0.15238124 -0.16525948 -0.12911901 -0.14644146 0.43999445 -0.086361945 0.122901894
-0.46149087 0.15825802 -0.42081916 0.05220252 -0.012559593 -0.18481843 0.108358055 -0.039676294
0.00881907 -0.011609697 -0.15254098 0.29156846 -0.23539972 0.09182314 -0.3214718 0.3034407
-0.08679298 0.44803545 -0.022332788 0.30523002 0.0734781 0.30637318 -0.4147901 0.47817367
0.2630726 -0.43862152 -0.4599393 -0.11978157 0.2913541 -0.47284055 -0.3143947 0.35364866
-0.36629128 -0.011687743 -0.1726766 -0.3664328 0.4779829 -0.43385184 -0.18507233 -0.47591752
0.038028363 -0.20863146 0.48800534 0.41266707 -0.058677744 -0.13812608 -0.19917795 0.49077168
-0.14392552 -0.3867514 -0.27253821 -0.42745984 0.056414638 -0.47160554 0.37255034 -0.4333488
0.28282294 -0.10216133 0.10912383 -0.14330232 -0.058808878 0.27733123 -0.115253374 0.048968844
0.30270764 -0.23739152 -0.483821 0.16719626 0.00413111 -0.25941652 -0.1775732 -0.25812417
0.25475165 -0.42802146 0.03884003 -0.36075068 -0.103194416 0.27065197 0.4390971 -0.05374563

actor.2.weight f4 [64, 128]
00000000: da38 a7bd b657 ebba b560 563d aa6a 26bd
00000010: c8b3 8bbb b431 743d ed81 03bd f451 883c
00000020: dee7 293d 1b3e a9bd f86a 69bd 93ed 3b3d
00000030: 1139 b1bd 985d b33b 177a d4bc 9e68 0fbd
00000040: fe37 893d fbbd 29bd 602f 183d f33d a73c
00000050: d16d a53d 960f 88bc 74e4 573d 7de3 49bd
00000060: 3ce6 b6bb b355 1f3c 4914 c6bc 5034 c83c
00000070: d2df 80bc 3789 853d 2fa8 9d3d ad63 b63d
00000080: 7c9d 823d 6c5c 98bc c682 acbd 24f0 9cbd
00000090: ef43 70bd 8969 95bd 8917 58bd 556f 7ebd
000000a0: fbff bcbc ab5a 403d 687d 43bd 8e2c f9ba
000000b0: dddd dd3c 7861 9abd ac4e 603d 4f14 a7bc
000000c0: e6f5 c53b 7117 393d 1fb7 ad3d b8c5 a83c
000000d0: d80d 09bd 455c 253d c2e7 223d 5330 7c3d
000000e0: c279 26bd 1783 b23d 6dbe 303a 45f6 8abd
000000f0: 7ebd 37bc 5149 b33d 8141 7f3b 4132 773c
00000100: 8342 a33d 5b9d 97bd 4392 133d e57a c8ba
00000110: 7f6e 8a3c 12a1 263d 473f 843d aa9c e0bc
00000120: d7bf 153c 48b8 ed3c e0bb 81bc 9ee0 cc3c
00000130: 9e28 74bd 7182 93bc 5808 ab3d 052b 3fbd
00000140: be6f 773d c884 4bbd 4d19 83bd 6e5e 72bd
00000150: 86ff 6d3d c932 11bd d3ef afbd def6 18ba
00000160: 1f60 f2bc 7857 6ebd 9cba afbc 1eed 6d3d
00000170: 8f09 05bd 52ee 1fbc 8669 4dbd 04fd b23d
00000180: 6b00 99bd f1dc 04bd 2e3a b3bd 4e4d 1ebc
00000190: 9211 773c 5978 40bd eb8f a1bd a07a 443d
000001a0: 0f0c aa3d 4821 67bd 08d3 8f3c 02e3 9ebd
000001b0: 38f7 aebd c3e9 afbd a857 7f3d adc6 ff3c
000001c0: 8d3f 893d 7282 073d df95 34bd aa65 433d
000001d0: 2e2c 95bd 2d57 89bd ddb3 b3bd 6aee 9d3d
000001e0: fe4d b1bb 3d64 0e3d 59dd 9d3d a66e 863d
000001f0: 5086 24bd 84ed 25bd 2a95 883d 822e 153d
00000200: cc19 403d 4903 fbbc e0e3 28bd 6c3f 15bd
00000210: 0f6f b13d fd79 9dbd 3dff 473d 894d 913d
00000220: 8213 443d a0c7 8ebd 2c78 a63d cc63 863d
00000230: d0d5 9f3d f03a a93d e6e0 31bc 946c 87bd
00000240: 8cd2 253d 1027 a73d 0218 1fbd 164d 77bd
00000250: deb5 ce3c 1f49 1abc c395 4f3d 9641 50ba
00000260: e480 523c 3f1e 943c 2975 8fbc 7113 943d
00000270: 0bec 44bd d716 ab3d 7871 0fbb e11f 8cbd
00000280: 09a2 f8bb 01ed 0cbd 1631 7b3d 37d9 81bb
00000290: f907 653d 8b1d 2f3d 6f06 9e3c a4a8 743d
000002a0: a505 453d a543 3abd 92e4 463d ee18 7dbd
000002b0: 4b47 a1bd 3f7b 69bd 7ed2 dcbc 2805 6a3c
000002c0: 7e1b 0abd cc4b 003d 2fc7 a3bc 499d b7bc
000002d0: 3bd2 4c3d d3e1 963d 802c 81bd 7cc4 5e3d
000002e0: 3f0e 333d 6db2 3f3d 26b0 56bd bc85 2dbd
000002f0: aa81 823d 5ce9 593d bc70 e03c a555 75bb
00000300: 523a bfbb c0ea eb3b 0b76 65bd 2025 2a3d
00000310: 35bc 96bd c637 b2bd a1b6 07bc 688e 9f3d
00000320: a6ca 67bd 82cc e3b8 4d13 5fbd 4bf9 723d
00000330: ecb0 c13c 0035 933d 5dda ecbb 9928 65bd
00000340: c2d8 a9bd 977d 2bbd 024d 743d 63c3 1b3d
00000350: 00d2 37bd 359f 07bd 079d 993d 18b9 16bd
00000360: 1aa2 0f3d a037 a13d a964 703d 6ff1 213a
00000370: d372 083d ce5c 81bd 222d f83b c632 24bd
00000380: 9a1d 123d da9b 973b c788 acbc 83f5 acbd
00000390: 25bb 75bc eeff aabd 59bc 173d 9844 5fbc
000003a0: f50c 7abd b3f6 963d 8483 703d a3b2 17bd
000003b0: c0f0 f4ba 9b96 dcbc 1b68 823d 3340 2fbd
000003c0: 2f5f 0d3d 1e3b 29bd 77b0 dfbc b3ae 71bd
000003d0: 1f7a a63d 55c1 4bbd 4a5b 81bd 9428 9b3d
000003e0: a562 fd3c 1ba7 df3b 55ee 0bbd 1961 863a
000003f0: 98d5 963c a77f 3a3d ad08 633d ddab 383d
-0.081651405 -0.0017955217 0.05233832 -0.040629067 -0.004263375 0.059617713 -0.03210633 0.01664064
0.04148089 -0.08263799 -0.05698678 0.045880865 -0.08653463 0.0054738037 -0.025937123 -0.03501188
0.06700133 -0.041440945 0.037154555 0.020415282 0.080775864 -0.016608994 0.052708104 -0.049289215
-0.0055816453 0.009725022 -0.024179595 0.024439007 -0.015731726 0.06520312 0.07698094 0.089057304
0.06377694 -0.018598758 -0.084233806 -0.07662991 -0.058658537 -0.0729552 -0.05275682 -0.062117893
-0.02307128 0.046961468 -0.04772702 -0.0019010471 0.027083332 -0.07538122 0.054762527 -0.020395426
0.0060412763 0.04518837 0.08482193 0.020602092 -0.033460468 0.0403712 0.039771803 0.061569523
-0.04064346 0.0871641 0.0006742243 -0.067852534 -0.011214612 0.08754218 0.0038948955 0.015087665
0.079716705 -0.0740306 0.036028158 -0.0015295414 0.016898392 0.040680952 0.06457382 -0.027418453
0.009139976 0.029018536 -0.015836656 0.02500945 -0.059609048 -0.018006535 0.08351201 -0.046671886
0.0604093 -0.049687177 -0.0640131 -0.059172086 0.058105014 -0.035448823 -0.08590665 -0.0005835126
-0.02958685 -0.058188885 -0.021451287 0.05808746 -0.03247982 -0.00976141 -0.050149463 0.08739665
-0.07470783 -0.03243727 -0.08751331 -0.009661986 0.015079873 -0.046989772 -0.07888778 0.047968507
0.08303081 -0.056428224 0.017556682 -0.07758142 -0.08543247 -0.085895084 0.062339455 0.031222666
0.067015745 0.033083387 -0.04408824 0.047704376 -0.07283817 -0.067060806 -0.087745406 0.077114895
-0.0054109087 0.034763563 0.07708234 0.06564073 -0.040167153 -0.040509716 0.06669076 0.036421306
0.0468996 -0.030641215 -0.041232944 -0.036437437 0.08663761 -0.07689283 0.0488274 0.07094867
0.047870167 -0.06971669 0.0812839 0.065620035 0.078044534 0.082631946 -0.010856843 -0.066125065
0.040483996 0.081617475 -0.038841255 -0.06037625 0.025233205 -0.0094168475 0.050679933 -0.00079443434
0.012848113 0.018080829 -0.017511921 0.07230271 -0.04807667 0.08353966 -0.00218877 -0.06842018
-0.0075876755 -0.034405712 0.06132611 -0.0039626616 0.055915806 0.042752784 0.019290177 0.05973114
0.048101086 -0.045474667 0.048557825 -0.061791353 -0.07874926 -0.057002302 -0.02695584 0.014283456
-0.033717625 0.031322286 -0.01999244 -0.022413867 0.05000518 0.07367291 -0.06307316 0.0543866
0.043714758 0.04680102 -0.052414082 -0.042363867 0.06372388 0.053201064 0.027397506 -0.0037435081
-0.0058358097 0.0071996152 -0.056020778 0.04153931 -0.073601164 -0.08702044 -0.008283288 0.07790834
-0.056589745 -0.00010862296 -0.054461766 0.059319776 0.023643933 0.07187843 -0.0072281794 -0.05594692
-0.082932964 -0.04186782 0.059643753 0.038028132 -0.044878006 -0.033110816 0.07500654 -0.036797613
0.0350667 0.07871938 0.058689747 0.0006177639 0.03331263 -0.06316529 0.0075737396 -0.040087484
0.03567276 0.0046267333 -0.021061314 -0.08445265 -0.014998232 -0.08349596 0.037044857 -0.013627194
-0.061047513 0.07371273 0.058719173 -0.037035596 -0.0018687472 -0.026927283 0.06367513 -0.042785835
0.034514602 -0.041316144 -0.027305825 -0.059004497 0.081287615 -0.049744923 -0.0631624 0.07576099
0.030930826 0.0068253404 -0.034162838 0.0010252326 0.018412396 0.045531895 0.055428196 0.045085777

actor.2.bias f4 [64]
00000000: fe7f 67bd 7ca4 23bd 05bf 97ba a756 923d
00000010: 29a1 0abd a42d 09bd acef 2cbd 58e1 8f3b
00000020: 6642 73bd 1b58 26bd e326 95bd c3e2 653d
00000030: 5597 3e3d 8e3c ddbc 80a8 eeba fec5 23bd
00000040: 3bba 10bc e909 6f3d a806 08bd b7f5 863d
00000050: 6927 b2bd 6d4a 4dbd 273c 7abd 3dd1 4ebd
00000060: 7702 a33d 0992 83bd 3e62 18bd 5c93 a63d
00000070: 3f52 053c cc46 af3d b4b8 9cbd daba 843d
00000080: a4d4 803d 3d34 d23b 8afa 043d 614f ab3c
00000090: 2b82 f83b 6a11 633d 2fe9 27bd 85d0 813d
000000a0: c6b9 75bd d89f 823d 4f8d 8a3d 20c8 5a3d
000000b0: 5bb2 5b3d 7ced ee3c bf38 96bd 7d73 16bd
000000c0: 7876 1fbd 154c 863d 55c8 78bd caf1 163c
000000d0: 8549 94bc 6282 5fbd 2e8a 3a3d 936b 813c
000000e0: 9fc6 793b 7ea7 a43d bf3e cf3c 1e07 c13c
000000f0: f9a7 7a3d 82bf 80bd f50c 5ebc a4e1 e7bc
-0.056518547 -0.039951786 -0.0011577314 0.07145434 -0.0338451 -0.033490792 -0.042220756 0.0043908767
-0.059389494 -0.040611368 -0.07282808 0.05612446 0.04653104 -0.027006414 -0.0018208176 -0.039983742
-0.008833463 0.05835906 -0.033209473 0.06589835 -0.08698923 -0.050119806 -0.061092522 -0.050492514
0.079594545 -0.06424338 -0.037203066 0.08133575 0.008137285 0.08558425 -0.07652417 0.064809516
0.06290558 0.0064149187 0.032465495 0.020911874 0.0075838766 0.05543653 -0.040993866 0.063386
-0.05999162 0.06378144 0.06765234 0.05341351 0.05363689 0.029165976 -0.07335042 -0.036731232
-0.03893134 0.0655748 -0.060737927 0.00921292 -0.018101463 -0.054567702 0.045541935 0.015798366
0.0038112772 0.08039759 0.025298474 0.023562964 0.061195347 -0.06286527 -0.013552894 -0.028305836

actor.4.weight f4 [32, 64]
00000000: 391c a73c 7d51 dcbd 0da5 f23d 0c15 0cbc
00000010: f8d1 333d 00c8 60bc f107 e1bd a147 c6bd
00000020: f6e1 a4bd 27ec c63d a07a 70bc 1a4f 813d
00000030: 3d2a 7f3d cc6d 863d 62bc 42bd ff6d 773c
00000040: 4018 e23c 6ed9 723d 28c6 b33c 39f6 183c
00000050: 944e 8f3d a7ca fd3d 5c09 8039 9eae fd3d
00000060: 4ca3 433d f3d7 a6bd e019 0fbc 6ebb 6d3c
00000070: ae25 e73d 184a debc 6f64 c73d 5214 fa3c
00000080: ea21 d9bc 80b8 f83c 50c3 47bd 104e b33d
00000090: 6297 d5bd 5cad 80bd ee3a fd3c 042f ecbd
000000a0: b8d6 8a3d 4ded cb3d d69b 25bd 2c1d 17bd
000000b0: 7ee9 24bd 9996 e9bd a0df 8b3d cdce 99b9
000000c0: c07d 4b3c 371b 66bd 7c1a efbd 25e3 a33c
000000d0: 7ddc dbbd 363a 883d ef4e 26bd 7243 aabc
000000e0: 72b4 a33d 61ed 96bd ab76 f33d e873 b73d
000000f0: 7f3e e1bd 25d7 febc 9c66 5dbd a2fc e43d
00000100: bfa9 fabd 7ce4 3dbd 7168 1f3d 3adb 813d
00000110: 2491 93bd 46f8 803d a2bf bb3d a787 98bd
00000120: 421c 693c dd90 b8bd 7ebb a2bd 9293 62bd
00000130: 1001 ecbd a267 953d 2da4 27bd d50a 6bbc
00000140: d618 9b3d 61f7 c13d 6ed8 d13d b6ea 913d
00000150: 3ef0 b23d e798 dcbb 3c38 e03d 7472 893d
00000160: 5e61 a33d 259f c1bd 44ff 3e3d 3977 86bc
00000170: be2d d73d 8c5e 593d 03eb d5bd eb5d e83c
00000180: 0a73 bf3d e015 ba3c da01 9c3d e6f0 a3bd
00000190: 577b 22bd d150 113d bd7f c93d 9409 8b3d
000001a0: bfd6 51bd 6885 d53b 9a6c 603d b484 6fbd
000001b0: 50c1 eabd 3b0b a03b 3460 e8bd 2b96 4abd
000001c0: 3873 ae3d b0a3 f63d 209c f3bd db35 cc3d
000001d0: 36a2 b13d b4ef 9c3d 1e97 c1bb 15c8 bbbd
000001e0: 2738 cf3d a375 8dbd 406d c93b 0cdc 1ebd
000001f0: 326a c23c 72bb f8bd 58d3 cb3d 74f6 86bc
00000200: 1a6c 923d f25a d9bd ec69 c0bd e48f c53d
00000210: fc20 67bd 6cc0 d7bd b7e6 ebbc f89c 15bd
00000220: 09f3 a83d 2c17 e9bd f491 6a3d 92f8 bbbd
00000230: 5bbe ddbd 2010 eabb 95d2 9abd 5432 e5bd
00000240: 1af8 bebd a659 bebd 62e3 bbbd 549a 06bd
00000250: 38dc 763d b4c6 fa3d 3f0b 383d b072 513c
00000260: abf8 c9bc c6b1 cebd 0ad9 9bbd a2f8 94bd
00000270: 5043 cebd 43f8 c13d 2197 18bd 8a54 33bd
00000280: bbe8 80bd ec3b 6ebd 2450 963d b489 a03d
00000290: a1aa a83d 2b2e dcbc 1c04 10bd 7548 da3d
000002a0: b321 db3c 7e77 d03d 3a38 ef3c 3a54 dabd
000002b0: baae 783d bc38 bfbd 922d f3bd 2619 983d
000002c0: 509a e93c 4371 813d b67b aebd d0d9 cb3c
000002d0: e340 a6ba fc72 c23d a8f5 d4bd 48b8 15bd
000002e0: 0928 b03d 064d 573d f53d 82bd 3c3c babd
000002f0: 1468 cf3d fdec ca3d 46f0 f43d a4be abbd
00000300: 18c0 eebd bb32 e33d 5b92 3b3d c7ab 863d
00000310: b01b bbbd f0c5 af3c a04b 93bd 3796 dabd
00000320: 4258 e63c 8000 9fbc 0077 833d e26e 1d3a
00000330: ceee 6c3d a85b 8ebc 88b7 c53b 5861 e3bd
00000340: 90be 9abc 805f e43b 8042 c03c 109c 8cbd
00000350: 58b3 ba3c 5e10 cfbc 8a47 4d3d 9020 713d
00000360: c479 f5bd ce56 833c 42a2 e03d b2b5 df3d
00000370: 619c b7bc 391e a63d c638 c4bd 336d b0bd
00000380: 5aa1 543c 9428 bd3d 388f c13c a85c 3abd
00000390: f3c3 d03d 7528 7bbc 5ba9 f93d 68e5 5f3c
000003a0: db61 e0bd 3e83 8b3d a5f4 f13d e6a4 91bd
000003b0: 7164 ccbd f5ca ef3d 4866 9cbd a6ee 1e3d
000003c0: 70c5 fc3d fca8 483d 8a58 afbd f596 f1bd
000003d0: a627 98bb 6892 073d 93b0 ac3d c887 ba3d
000003e0: e559 c93d 3a5f 03bd 4a31 c53d d015 863c
000003f0: 5f87 71bd 3c56 cebd 5d5f db3b 51b5 56bc
0.0203992 -0.1075773 0.11847887 -0.00854994 0.043901414 -0.013719559 -0.10987843 -0.09681631
-0.08050911 0.09713011 -0.014677674 0.063139156 0.06229614 0.06563911 -0.047542937 0.015101909
0.027599454 0.05928939 0.021945074 0.009336048 0.069974095 0.123921685 0.00024421036 0.12386821
0.047763154 -0.08146658 -0.008734196 0.014510019 0.11286484 -0.02713494 0.09735953 0.030527268
-0.02650543 0.030361414 -0.04877025 0.087551236 -0.104292646 -0.06283066 0.030911889 -0.11532405
0.067792356 0.09957371 -0.04043182 -0.036893055 -0.040261738 -0.11405677 0.068297625 -0.00029336513
0.012420118 -0.056178298 -0.11674973 0.020005772 -0.10735414 0.06651728 -0.04060262 -0.020784114
0.079934016 -0.07369495 0.118878685 0.08957654 -0.10998248 -0.031108448 -0.054052934 0.111809984
-0.12239408 -0.046360478 0.038917962 0.06340642 -0.07205418 0.062973544 0.091674104 -0.07447749
0.014227929 -0.090120055 -0.079459175 -0.055316515 -0.1152364 0.07295157 -0.040928055 -0.014345844
0.075730965 0.09471012 0.10246359 0.07124846 0.08737229 -0.0067320946 0.10948226 0.06711283
0.07977556 -0.094541825 0.04663016 -0.016414272 0.105067715 0.053068683 -0.104452156 0.028365096
0.09348114 0.022715509 0.07617541 -0.08004932 -0.039668407 0.035477463 0.09838817 0.06788936
-0.05123019 0.0065161474 0.05479107 -0.058476165 -0.11462653 0.0048841513 -0.11346474 -0.049459618
0.0851807 0.1204294 -0.11895013 0.099712096 0.086735174 0.07662907 -0.005907907 -0.09169022
0.10118132 -0.06907203 0.006147057 -0.03878407 0.023732278 -0.12145127 0.0995242 -0.01647494
0.07149525 -0.106130496 -0.09395203 0.096465856 -0.05642794 -0.105347484 -0.028796537 -0.03652665
0.0824948 -0.11381373 0.057268098 -0.091782704 -0.10827323 -0.0071430355 -0.075596966 -0.1119124
-0.09324665 -0.09294443 -0.09174229 -0.032862023 0.06026861 0.12244931 0.0449326 0.012783691
-0.024654707 -0.10092501 -0.07609756 -0.072739854 -0.100714326 0.0947118 -0.037253503 -0.043781795
-0.0629439 -0.058162615 0.07339504 0.07838765 0.0823567 -0.026877483 -0.03516017 0.10658351
0.026749467 0.10179041 0.029201616 -0.10660596 0.060713507 -0.09336993 -0.11873926 0.07426672
0.028515965 0.06320431 -0.0851969 0.024884135 -0.0012684133 0.09494588 -0.10398418 -0.036552697
0.08601386 0.05256369 -0.063594736 -0.0909352 0.10127273 0.09908483 0.11959891 -0.08385971
-0.11657733 0.110936604 0.045793872 0.06575733 -0.0913614 0.021456689 -0.07192159 -0.106731825
0.028118256 -0.019409418 0.06419182 0.00060055975 0.05784493 -0.01737769 0.0060338415 -0.11102551
-0.018889695 0.0069693923 0.02346921 -0.06865704 0.022790596 -0.02527636 0.050117053 0.058868945
-0.119861156 0.016032603 0.10968448 0.109233275 -0.022413434 0.08111233 -0.09581141 -0.08614578
0.012977922 0.09236255 0.023627862 -0.04549852 0.10193624 -0.01532947 0.12190505 0.013665535
-0.109561644 0.06812142 0.1181424 -0.0711153 -0.09980095 0.11708633 -0.07636696 0.03880181
0.12342346 0.04898928 -0.08561809 -0.11796371 -0.0046433983 0.03309861 0.08432116 0.091079295
0.09831599 -0.032073237 0.09628542 0.016367823 -0.05896699 -0.10075042 0.006694718 -0.013104753

actor.4.bias f4 [32]
00000000: cb0c cd3d f8c4 61bd 87e6 dc3d bbc9 26bc
00000010: f01c 3cbd 8fa4 debd 84f6 833d 64f8 4bbd
00000020: e770 63bd c66b 90bd a5fe de3d 14f4 a2bd
00000030: a943 2c3d d4e5 eb3d fc0e d63d 77ab 373d
00000040: 528f 183b b09e babd 2083 2c3c 00c2 82bd
00000050: e522 993d 61f1 b83d 9d6e b63d 00bf 703b
00000060: 78b1 dabd 485f abbd 1a11 433d aa8d 8ebd
00000070: 3bbd 233d 148f 553d 65bb 65bd b402 013c
0.10012206 -0.055119485 0.10786157 -0.010179932 -0.045926034 -0.10871231 0.064435035 -0.04979743
-0.055527594 -0.07051806 0.10888413 -0.079567105 0.042056713 0.115184456 0.10452077 0.044841256
0.0023278785 -0.091122985 0.0105293095 -0.06384659 0.07477359 0.090304144 0.089078166 0.0036734939
-0.10678381 -0.08367783 0.04762373 -0.06960614 0.039975386 0.052138403 -0.056086916 0.00787418

actor.6.weight f4 [1, 32]
00000000: 7c63 d2bd 77ac 9f3d 0b2a 85bb 416e b83d
00000010: 4977 163d 8a81 e7bc 3cb1 243e 51fe 393d
00000020: 2c16 1c3e d8b1 813d ea32 13be ffdc e5bd
00000030: 8278 c6bc 0e0e 0c3e 21be f1bd 5156 57bb
00000040: 371d cb3d 50d2 b2bc e51e 0a3e 4da6 e8bd
00000050: 3355 09be 55e4 0f3e 0d5e 72bd 2978 193e
00000060: f306 093e 446c 503d 9dd3 f3bd b667 d9bd
00000070: 4efb c83d df4b cb3d 8c0d d93c 457a 1c3e
-0.102728814 0.07796567 -0.00406385 0.09005404 0.036734853 -0.028260011 0.16083235 0.04540855
0.15242833 0.06332749 -0.14374891 -0.11223792 -0.024227384 0.13677236 -0.11803842 -0.0032857845
0.09917682 -0.0218288 0.13488348 -0.11359844 -0.13411407 0.14051946 -0.059171725 0.14987244
0.13381557 0.0508845 -0.119055964 -0.106154844 0.098135576 0.09926581 0.026495717 0.15281017

critic.0.weight f4 [128, 4]
00000000: c281 2c3e 2920 e5bd c0ae 66bd d581 38be
00000010: 9c58 a9be 9053 853e 0493 2a3e f0c7 3a3d
00000020: 096a 66be 7ee3 693e 56cc f73e 486f ecbe
00000030: 20ce 9b3d 486a 21be d82f 44bd 698d d43e
00000040: e8d1 81be d0c8 13bd 4002 803c f42f 203e
00000050: 3b63 9bbe 7ec1 28be f37c fb3e a518 b5be
00000060: 9927 8e3e 99f7 b63e 1c35 d6be f1db 9dbe
00000070: 73cb 17bc 15ab 4cbe 8f36 b03e 54f7 933e
00000080: 503f 7d3e 9aed bcbe fab1 863e 58e4 9fbd
00000090: 4d6f e83d ab26 d6be 17f9 393e 3ca1 ffbd
000000a0: 76f6 053d d1b4 f73d 37b7 bc3e d2a1 a13d
000000b0: a266 f7bd 17a4 c2be f875 183e eccb cc3e
000000c0: b0f4 0cbd 0cd5 dc3e 287c 393e fec6 a4be
000000d0: dc86 1fbe b5ce f0be 24d0 e13e 9185 bb3e
000000e0: fdd4 78be 09dd 89be 9eef acbe 4cb8 72bc
000000f0: 9e43 af3e c7f9 f83e af3b dc3e 0e1e af3c
00000100: 78d5 fe3d 1ca9 663e 5062 5cbe 6837 fbbd
00000110: 883a 863e 224b ea3e f052 57be 9c24 eebe
00000120: 485e 3cbe 8adb 953e c905 6ebe 79be d13e
00000130: 90d3 06be 8028 bdbe 5a69 e63e 1ecc d7be
00000140: b7f8 bb3e b64b dd3e 5aa8 52be cc44 703e
00000150: f9f4 723e e92c 5cbd 6be2 6dbe 682b bfbe
00000160: fbe1 2abe 9510 7abe 2c6e 563e b441 e43e
00000170: 3a86 9bbe b0cc 35bd 4e67 afbe 72b0 a1be
00000180: 10cf 7bbe b7f8 623e 942d b1be f73b babc
00000190: 0099 55be c6f3 3c3e 680b dfbd 229b b73e
000001a0: 4816 eabe 4b05 f13e 6a54 7b3d 68e2 a3be
000001b0: 92fa d33e c389 06bd 5cd2 583e 1a5f ca3e
000001c0: 0e62 f3be 30fc 633d 98ef c3bd 4c6d 8fbe
000001d0: afd8 69be 6505 70be d40b 93be ee02 2bbe
000001e0: ee1f 743d b71c 833e f01c e5be 977d 5cbe
000001f0: c9ad bcbd cc90 a13e 2c5d 023e 85ea a23e
00000200: c0a5 c03d 4425 f2bc cbec e83e 6ddc 273e
00000210: f2ee cabe ca5e 343d c06d 8f3e b366 f8be
00000220: 804d 323e 368a 5639 8774 52be 2689 e13d
00000230: 6dd0 17be 04bd b0be 8ba6 fd3e 1e1f 8dbe
00000240: ec41 23bd 4fb7 bcbe 994f ae3e acc0 7c3e
00000250: a8ab debd 4059 d8be 0093 783e 9c82 fa3e
00000260: 3ca9 66be 1c99 653e b230 b5be 9e18 b2be
00000270: 1d70 08be a3a4 71be 9d8c fa3e 0b1c dbbe
00000280: ccba aebe 0055 cc3b 1425 a6be ba02 d6be
00000290: 2c07 7f3d 0788 8a3e 58ee 42be 1124 adbe
000002a0: cc40 aabe 95c4 42be 165e d3be 90aa f13e
000002b0: 6483 8bbe 702e 783c 115c c73e c533 d3be
000002c0: 283c d6bd 26c1 80be e0df 37bd 9a18 6fbd
000002d0: 1c6e 92be 1854 e8bd 30e7 363e e42e 21be
000002e0: 9b70 ed3e cb67 97be ae60 ab3e 99b5 e53c
000002f0: c9de 563e 0ca2 833e 2b6c b53e 54fd d03e
00000300: 0b35 9a3e f3b8 2fbe ddfa 49bd 9da2 82bd
00000310: cc9f 48be 4c14 01be 74e5 5bbe c40c f83e
00000320: 332a c1bd 2a67 1dbe 480e 6dbe 34b2 b63e
00000330: cf38 363e c429 8e3e 604d 843e f1a7 5ebe
00000340: 745e e93e 8c14 8c3e 8960 29be 97df 223e
00000350: 2cf7 8b3e 6f80 723d 7196 ee3e 2225 093d
00000360: ce3c d6be 2878 6d3e 1cd5 75be 5c0c 46be
00000370: c93d 143e 805d 3cbe f96b 67bd 6a88 6a3d
00000380: ac3f c43e 50a3 b8be f8b7 4e3e 3e50 e4be
00000390: 147b 5cbe b2e9 90be 885c f3be 2222 fd3e
000003a0: eeeb ee3c a5e0 943e 9d05 bc3e 7113 5cbd
000003b0: 8bae b23e 3503 d23e 5060 d7be 350e 843e
000003c0: 989a a4be e96b 37be 8447 ac3d 82e5 d63e
000003d0: 19bb 9f3e a150 9b3e 3e75 c43e 7106 9dbe
000003e0: 9b9a c5be dddf d3bd 863e 8dbe 6d73 a53e
000003f0: 3309 b13e 79f6 a9be 8886 2cbe b33b 353e
0.16846374 -0.11187775 -0.056319 -0.18018277 -0.33075416 0.26040316 0.16657645 0.04560083
-0.22501387 0.22840688 0.48398083 -0.4617865 0.076076746 -0.157632 -0.04789719 0.41514137
-0.25355458 -0.03608018 0.015626073 0.15643293 -0.30349144 -0.16480061 0.49118766 -0.35370365
0.27764586 0.35735777 -0.41837394 -0.30831864 -0.009264815 -0.19987138 0.34416625 0.28899634
0.24731183 -0.36900026 0.2630766 -0.07807225 0.11349354 -0.41826376 0.18161426 -0.12481925
0.032705747 0.12095035 0.36858532 0.07892193 -0.120801225 -0.38015816 0.14888752 0.3999933
-0.03441304 0.43131292 0.18113768 -0.3218307 -0.15578789 -0.47032705 0.4410411 0.3662534
-0.24299999 -0.2692645 -0.33776563 -0.014814448 0.34231275 0.48628065 0.43014285 0.021376636
0.1244306 0.22525448 -0.21521878 -0.12266427 0.2621653 0.45760447 -0.21027732 -0.46512306
-0.1839534 0.29269058 -0.23244394 0.40965632 -0.13166642 -0.36944962 0.45002252 -0.42147917
0.36713192 0.43221825 -0.20572034 0.23463744 0.23726262 -0.053753767 -0.23230903 -0.37337804
-0.16687767 -0.24420388 0.20940465 0.44581378 -0.30375844 -0.04438466 -0.34258503 -0.3157993
-0.24590707 0.2216519 -0.34605086 -0.022733672 -0.20859146 0.18452367 -0.108908474 0.35860544
-0.45720124 0.4707435 0.0613598 -0.32008672 0.41402107 -0.032846224 0.21173996 0.39525682
-0.47535747 0.055660427 -0.09567183 -0.28013074 -0.22836564 -0.23439558 -0.28719962 -0.16700336
0.059600763 0.25607845 -0.4474864 -0.21532284 -0.092128344 0.31555784 0.12730855 0.3181955
0.09406614 -0.029558785 0.4549316 0.1639268 -0.39635426 0.04403571 0.2801342 -0.48515853
0.17412376 0.00020460118 -0.20552264 0.11012487 -0.14825602 -0.34519207 0.49541125 -0.27562803
-0.03985779 -0.36858603 0.34045103 0.24682873 -0.108725846 -0.42255592 0.24274826 0.48927772
-0.22525495 0.22421688 -0.35388714 -0.34784406 -0.13324018 -0.2359796 0.48935404 -0.42794833
-0.3412689 0.0062357187 -0.32450163 -0.41798955 0.0622627 0.27056906 -0.19036233 -0.3381658
-0.3325256 -0.19020303 -0.4128272 0.4720044 -0.2724868 0.01514779 0.3893743 -0.41250435
-0.10460693 -0.2514736 -0.04489124 -0.05837307 -0.28599632 -0.113441646 0.17861629 -0.15740544
0.46374974 -0.29571375 0.33472198 0.028040694 0.20983423 0.2570957 0.35434088 0.40818274
0.30118594 -0.17160396 -0.049311507 -0.06378672 -0.19592208 -0.12605399 -0.21474248 0.4844724
-0.09431877 -0.15371385 -0.23149979 0.35682833 0.17795108 0.2776624 0.25840282 -0.21743752
0.45579875 0.27359426 -0.16540731 0.15905605 0.27337015 0.059204515 0.46599153 0.03348268
-0.41843265 0.23190367 -0.24007076 -0.19340652 0.14476694 -0.18395042 -0.056499455 0.057259
0.38329828 -0.36062098 0.20187366 -0.4459247 -0.21531326 -0.28303295 -0.47531533 0.49440104
0.029165234 0.2907764 0.36723033 -0.05372948 0.3489879 0.41018072 -0.42065668 0.2579209
-0.32149196 -0.17912258 0.08412078 0.41971976 0.31197432 0.30334952 0.383707 -0.30668977
-0.38594517 -0.10345433 -0.27586764 0.32314625 0.3457733 -0.33195856 -0.16848195 0.17698555

critic.0.bias f4 [128]
00000000: b550 773e b283 e4be 7f1f bf3e af6a 0dbb
00000010: eaf6 f3be ea05 3e3e ccc4 83be e40c d33e
00000020: 7071 28be 0957 a33e e900 c13e 31e6 5f3d
00000030: 2087 f4be e4a9 96bb bde6 223e c2a8 933e
00000040: f468 cebe 0531 9cbe 3466 953e c0bf 5fbd
00000050: 66d4 fbbe e00b 873e d6fd d53e ea3e fcbe
00000060: 8185 a43e eb07 903e 2bde b53e 90e9 893e
00000070: 84eb dfbe 92f7 cd3e cf23 c03e 0c48 9c3e
00000080: 856a debe 87c1 593e 0e4d a03d ec82 ca3e
00000090: cfc2 473d 363e d7be 806a 14be 5393 843e
000000a0: 784b 993e ef97 b53e 0bf3 8f3d e550 ce3e
000000b0: 8c9b d73d 2200 81be 8a0c f93d 92df 97bd
000000c0: 8250 813e 4ab1 dfbe 1ba1 31be 2d5a 7f3e
000000d0: 72fd 043e 4479 aebe b011 44be 9171 d43e
000000e0: a23c e3be fc45 92be 46de 62bd bad6 83be
000000f0: 96ba 983e 5f56 af3e 7f2d c93e c51b 8f3e
00000100: 8330 45bd 8df7 833e 505c 33be 13ea 9d3e
00000110: cdad 163e f571 d0be ca42 d8be c093 fabe
00000120: ec6e 49ba eecd 813e 86f0 8d3e ec15 2dbe
00000130: 3579 fcbe fead f3be 165b 163d fb7f c43e
00000140: 2caf 2abe bc65 493e 9a3a eabe 7c08 d4be
00000150: 067f 553e 7d32 4b3c a9c7 003f 6ae1 493e
00000160: 0689 ee3c 718d d4be 1485 f8be 98f5 88be
00000170: 54a4 04bd 50bd fa3e c1d0 39be f2ac b6be
00000180: 26a8 a13e b758 d13e 80ae debe d5d0 883e
00000190: de80 e1be bcbe 1a3e 4959 743d 8015 3f3e
000001a0: 1af1 08bb 8e01 d53d 68d5 b8be 5401 98be
000001b0: be64 e73e 18ba 973e 138d fc3d 206c c0bc
000001c0: 514e dc3e 1c45 e1be d35c fa3e 522d 54bd
000001d0: b6d5 82be 1244 93be 0af1 b0be cdb7 213e
000001e0: 0150 fd3e 5182 7f3e 1b42 a93e cc0d e0be
000001f0: 5898 5e3d 99d7 623d 74b1 78be e029 e03e
0.24151881 -0.44631726 0.37328717 -0.002157848 -0.47649318 0.18556944 -0.25736082 0.41220772
-0.16449523 0.3190234 0.37696007 0.054662887 -0.47759342 -0.0045978893 0.15908332 0.2883969
-0.40314448 -0.3050615 0.29179537 -0.054626226 -0.49185485 0.26376247 0.41795224 -0.4926675
0.32133105 0.2813104 0.35521063 0.26936007 -0.43734372 0.40227944 0.3752732 0.30523717
-0.43440643 0.21265231 0.07827197 0.3955301 0.04876977 -0.4203965 -0.14493752 0.2589365
0.2994039 0.3546748 0.07028779 0.40296093 0.10527715 -0.25195414 0.12160595 -0.074156895
0.25256735 -0.43689948 -0.17346613 0.24936743 0.12987307 -0.34076893 -0.19147372 0.41492894
-0.44382197 -0.2856902 -0.055387758 -0.2574976 0.29829854 0.34245583 0.39292523 0.27950874
-0.048141968 0.25774804 -0.17515683 0.30842647 0.14714737 -0.40711942 -0.42238456 -0.4894085
-0.000768407 0.25352424 0.27722567 -0.16902894 -0.49311224 -0.47593683 0.03670796 0.3837889
-0.16668385 0.19667715 -0.45747834 -0.41412723 0.20849237 0.012402174 0.5030466 0.19714895
0.029118072 -0.4151416 -0.4853903 -0.26749873 -0.032383278 0.4897256 -0.1814604 -0.35678822
0.315736 0.40887997 -0.43492508 0.26721826 -0.4404363 0.15111822 0.05965546 0.18660545
-0.002089566 0.10400687 -0.36100316 -0.29688513 0.45194048 0.29634166 0.12331595 -0.023489058
0.430285 -0.4399804 0.48898944 -0.051801033 -0.25553674 -0.2876287 -0.34558898 0.1579277
0.494751 0.24952056 0.33058247 -0.43760526 0.054344505 0.05538139 -0.24286443 0.43781948

critic.2.weight f4 [64, 128]
00000000: cdb4 7ebd 38fb 05bd 4be7 863d 001a 67bd
00000010: 6483 8fbc 0686 b33d 8739 b13d 391e b63c
00000020: 7331 a3bd 6249 5b3b a891 973d 6abe 6d3d
00000030: 0359 9bbd c351 efbb 4714 34bd 09e5 03bd
00000040: 9f19 ae3d 7f58 b13d 0fd9 393c b344 afbd
00000050: ecf7 833d de31 d83c 8987 acbd 4382 5bbd
00000060: bef4 23bd 6e3d a4bc 4373 673d 5b4a fdbc
00000070: 69ce 3f3d 020a 1a3d 4f3a 893d 1ee4 853c
00000080: 06d6 80bb 939a 43bd 68e9 8bbd 4d0f 5f3d
00000090: e7ad 483d 0ce2 08bc f1f3 1e3d 5c80 81bd
000000a0: cf90 e23c 14cd 71bd 0668 a8bd d290 abbd
000000b0: 4de7 223d 805c 8fbd 481a fbbb 8c97 0a3d
000000c0: 1be4 9b3d 8c5c 623d 44fb 39bd 0d86 9fbd
000000d0: 3338 1fbd 6f02 2abd 9e08 42bd 2145 9fbd
000000e0: 0bf3 423d cefe c1bc b305 aabd 4d8c 1f3c
000000f0: db4a 543c 05d3 bfbc d553 033d c1a0 bebc
00000100: 8d41 26bd 2179 71bd 9013 d1bb ac45 09bd
00000110: 9138 94bd c9c5 a6bd 1662 1cbd d506 de3c
00000120: eb72 2e3d 4302 6abc 7852 523b b336 7f3d
00000130: 2f48 15bd 55d4 fc3c bd1c 173d c97e 083d
00000140: c4ff 9d3d 55d7 ad3d 3fcc e3bb 1750 0bbd
00000150: f67e 97bd 0ab0 193d 8a36 9b3d 35d5 97bd
00000160: d6a2 13bd 4614 1ebd bb0d 92bd a3e9 9b3c
00000170: 83c5 eabc 549e f8bc 0c47 1fbd 7262 933c
00000180: 36f4 8abd d8a1 b0bc d338 cc3c f4ef a9bd
00000190: 9e54 4f3d 392a fd3b 4211 8cbd 8a77 a3bd
000001a0: 33ef 4abd 461e a2bd 1c33 0bbd eb74 413c
000001b0: 5f9a 91bd acdd a23d 1891 acbd 8bb9 36bd
000001c0: 911c 91bd 0c21 91bd 521b 9f3d 6d1e e8b9
000001d0: 302e b13d 6153 a4bd 68ee 3d3d 4d1c 0abd
000001e0: 7f62 1a3d a072 bcbb 46ac c5bb 1a78 89bd
000001f0: 23ff 4bbd 6c7b c03c 4cca 1e3d f723 6b3d
00000200: e6b9 36bd 4a16 4d3d 7d8a 1cbd 68c8 0bbc
00000210: d92e 87bd 5350 093d 7112 ac39 8019 f33c
00000220: c246 17bd 0bb0 c63b 6167 323d ab9f 1f3d
00000230: 609b a2b9 bfbd 553c 65cd 11bd 9011 8a3a
00000240: a136 62bd 691a 86bd 43e4 523c 4920 f83c
00000250: 83f4 a4bd 3a3d 9dbd e491 8bbd 847f 103d
00000260: 659c ff3c 19ec 333d ca2a 6e3d 2b2b 8a3c
00000270: b744 47bc 8fcf 883d c6c2 b5bc ff16 593d
00000280: 501e 513d 5ce8 843b 4917 12bb cb6f 9ebd
00000290: 2953 9b3d 0c34 59ba 8eab 45bd 7709 3f3d
000002a0: de64 9c3d 6788 db3c 5881 99bd dc62 0d3d
000002b0: 447e 9c3d d91f 8ebc f9e1 86bd 360f cabc
000002c0: 64dc b6bd d236 a73d 70d5 783c ae53 0f3c
000002d0: 878f 8a3d 0325 54bb 305c 423d 1d98 babd
000002e0: 7eb4 abbd ef58 173d fc66 333d 9e0e b8bd
000002f0: 3ac8 233d f851 acbd c638 eebc 9ede 4abd
00000300: e59c a63d 852e a2bd b3c1 16bd d2a2 67bd
00000310: dc16 a23d 908b 18bc 982b e0bc 53c2 0a3d
00000320: 5ae8 943d ce5c afbd 4c6f 29bd afc0 83bc
00000330: 8d46 4ebc 546b f83c b763 a63c b83b 8b3d
00000340: 61be 99bc 4eae 173d bca9 aabd f74c 693d
00000350: c455 81bc 6a2d 31bd 1a27 09bd c081 5e3d
00000360: e69a 46bd 6ae7 053d 15c4 99bd b4ff 31bc
00000370: 4854 19bb 77ba 603d a835 9bbd 74f6 c13c
00000380: bbbb a5bd abed c9bc 23be bb3c 7dd2 4b3d
00000390: 0f12 c9bc 4020 f63b da7c bf3c 8f04 ab3d
000003a0: 4f36 e1bc b7f4 bf3c 6952 1a3d eb20 6b3d
000003b0: 8599 363d 01bb b1bd 4b58 abbd a699 a33c
000003c0: a7ca 31bc f437 52bd 2cd4 a7bd 8d3a 40bd
000003d0: 64f5 453d 3bbf 52bc 0d5e 62bd 8c04 a43d
000003e0: 2f44 b9bb b7d1 753c 7a97 9bbd a529 123d
000003f0: 764d 503d 2b3d 4dbd d636 88bc 138e 8b3d
-0.062184144 -0.032710284 0.065870844 -0.05642128 -0.017518707 0.08765797 0.086535506 0.022231208
-0.07968416 0.0033460488 0.074008286 0.05804292 -0.07585337 -0.007303448 -0.04396465 -0.032200847
0.085009806 0.086594574 0.011343255 -0.08558025 0.06443772 0.026390966 -0.08424289 -0.053591024
-0.040028326 -0.020048823 0.056506407 -0.030919245 0.046827707 0.0376072 0.067005746 0.016344126
-0.0039317636 -0.047754835 -0.06831628 0.05445795 0.04899397 -0.008354675 0.03880686 -0.06323311
0.02765694 -0.05903347 -0.08222966 -0.08377232 0.039771367 -0.07000065 -0.007663045 0.033835933
0.07611867 0.05526404 -0.04540564 -0.0778924 -0.038871955 -0.041506227 -0.0473715 -0.07776857
0.047595065 -0.02368107 -0.08301868 0.00973804 0.0129573 -0.023416052 0.03206237 -0.023270013
-0.040589858 -0.05895341 -0.006380506 -0.03351371 -0.07237352 -0.08143193 -0.03817948 0.027102867
0.042590063 -0.014282766 0.0032092612 0.062308025 -0.036445793 0.030862967 0.03689264 0.033324037
0.07714799 0.08488337 -0.0069518383 -0.034011927 -0.07397263 0.0375214 0.07578762 -0.07413713
-0.036043964 -0.038593553 -0.07131525 0.019032305 -0.028658634 -0.030348934 -0.038886115 0.017991278
-0.06784861 -0.021561548 0.02492944 -0.082977206 0.050617807 0.0077259806 -0.06839229 -0.07981785
-0.049544524 -0.079159304 -0.03398429 0.011807661 -0.07109522 0.07952437 -0.08426112 -0.04461054
-0.07085527 -0.07086381 0.07768883 -0.00044273157 0.08651388 -0.08023716 0.04636994 -0.033718396
0.03769159 -0.005750969 -0.0060324995 -0.06712361 -0.049803864 0.023496352 0.038767144 0.057407346
-0.04461088 0.050070085 -0.03821801 -0.008531667 -0.06600732 0.03352387 0.00032820136 0.029675245
-0.036932714 0.0060634664 0.04355562 0.03897063 -0.0003101481 0.013045727 -0.03559627 0.0010533798
-0.05522788 -0.06548006 0.012871805 0.030288832 -0.080544494 -0.07677694 -0.06814936 0.03527786
0.031202504 0.043926332 0.058146276 0.016866287 -0.012162379 0.06680214 -0.022187602 0.053000446
0.0510543 0.0040560197 -0.002229171 -0.077361666 0.07584221 -0.00082856487 -0.04825931 0.046639886
0.076364264 0.02679844 -0.074953735 0.034518108 0.07641271 -0.01734917 -0.065860696 -0.024665456
-0.08928755 0.08164753 0.015187606 0.008747978 0.06765657 -0.0032370694 0.047451198 -0.091110446
-0.083840355 0.036950048 0.043799385 -0.08987163 0.039985873 -0.08414072 -0.029079806 -0.04952871
0.08135394 -0.07919029 -0.03680582 -0.056551762 0.07914516 -0.009310618 -0.027364537 0.03387673
0.0727088 -0.08562623 -0.041365907 -0.01608309 -0.012590063 0.030324616 0.02031122 0.067985
-0.018767538 0.037031464 -0.083331555 0.056958165 -0.015787967 -0.0432562 -0.033484556 0.054322958
-0.048487566 0.032691397 -0.07508103 -0.010864187 -0.0023396183 0.054865327 -0.075785935 0.023677088
-0.08092447 -0.024649462 0.022917813 0.049761284 -0.024544744 0.0075111687 0.023374964 0.08350479
-0.027491717 0.023432119 0.03767625 0.05740444 0.04458 -0.08678246 -0.0836645 0.019970726
-0.010851539 -0.051322892 -0.081947654 -0.04693084 0.048329726 -0.012862976 -0.055265475 0.0800868
-0.00565388 0.015003613 -0.07597251 0.035684247 0.050855123 -0.050107162 -0.01662771 0.06814208

critic.2.bias f4 [64]
00000000: 480e 23bc ec91 7abd e29c 62bb 4674 30bd
00000010: 1751 25bd 90dc a6bd 9283 0e3c 7ed4 97bd
00000020: 78ff 08bd c48a 953d 083b bbba 0717 b93a
00000030: d1fe 02bd 0401 8dbd 9d72 303c 2247 24bd
00000040: 32c5 c6bb 22b3 a53d d4fa 563d bcfe 563d
00000050: 7a17 933d 058a 493d 0673 7bbc bde8 a6bc
00000060: 8587 db3c 62c4 46bd 24a5 b4bd df0d 35bc
00000070: bba1 8ebb 5f66 94bc 00a1 1fbd b006 cb3c
00000080: 6d24 ef3c a100 093d 04bf b2bd dc2d e6bb
00000090: f0c9 17bd 605f d63c 710f fdbb 16ee 98bd
000000a0: eee3 e03c 3482 a9bd 9372 99bd fa64 173d
000000b0: b42e 82bc d8ef 82bc 9b2b 303c 294c 613d
000000c0: a586 48bd 4062 90bd 9ef2 2fbc 5a1e 563d
000000d0: 3036 83bc b61d 3e3d e7d3 c73c 1c88 75bd
000000e0: 35c8 403d 93c4 1d3d 8b2c b3bd 031e 8a3d
000000f0: e8a0 943d 11bb 9a3d 29f5 193c f88c 50bd
-0.009952135 -0.06117432 -0.0034578373 -0.043079637 -0.040360536 -0.08147538 0.008698361 -0.074135765
-0.03344676 0.07301858 -0.001428456 0.0014121243 -0.031981293 -0.06884959 0.010769513 -0.0401069
-0.006065988 0.080908075 0.052485302 0.052489027 0.07182212 0.04920389 -0.015347248 -0.02037465
0.02679802 -0.04852713 -0.088205606 -0.01105067 -0.004352776 -0.01811522 -0.0389719 0.024783462
0.029192174 0.033447865 -0.087278396 -0.00702451 -0.037057817 0.026168525 -0.007722788 -0.07467286
0.027452435 -0.082767874 -0.074925564 0.036961533 -0.01589141 -0.015983507 0.010752584 0.055004273
-0.048956532 -0.0704999 -0.010738997 0.05227504 -0.01601705 0.046415053 0.024393035 -0.059944257
0.047065932 0.038517546 -0.0874873 0.067440055 0.07257253 0.07555211 0.00939683 -0.05091569

critic.4.weight f4 [32, 64]
00000000: daea a03d f866 ddbd c858 35bd 6261 a83d
00000010: 3ca0 0dbd c808 74bd 9078 fc3c 56de 8fbd
00000020: ea25 99bd 1aab 533d 3449 50bd a91f a2bc
00000030: 2030 9ebc e2ad 0fbd 91e0 2dbd 4b37 bfbc
00000040: 493c 82bd 5152 edbd ce11 48bc 2cf0 73bd
00000050: cb7a c03d 2b9f c43c 48fe 4bbd 2d9a d03d
00000060: 96a1 d73d 35dc f1bc 2ab8 86bd 6cde a6bd
00000070: ab7e c4bd e73f a2bc f328 ed3c c0a9 b13d
00000080: b28e 98bb bb5c e0bc 1878 dfbc 1cc7 b93d
00000090: d456 f6bd 646b 693d baf5 d8bd d938 cabd
000000a0: f079 d83c 60ce 36bd 2ae1 2f3d 1acd d33c
000000b0: 3d38 aabc 327a b83d 62aa c6bb dd3c c93d
000000c0: 2ca2 953d b7e6 803d 19d7 a4bd 9159 e5bd
000000d0: 3aeb d3bd ec41 003e a0e0 303d cc7e 023d
000000e0: 4712 5e3b f8f4 9dbd 7a1f c4bd 4c8a 12bd
000000f0: b179 d5ba 2cac 4a3d e841 9b3c 267a cebd
00000100: ee96 f33d a884 c83d 0066 51bd f024 77bc
00000110: 0620 94bd cada 8e3d c0e0 a73c 88a3 cd3d
00000120: 90ea 9ebd d62e 74bd e063 e1bc b001 40bd
00000130: 22e2 9ebd d89f ee3c 6464 863c 20c2 b03d
00000140: fc2c dfbd 9ef5 c33c 3f20 433d f082 f93d
00000150: 33a3 073d 1842 193d 58e6 ca3c 20de eb3d
00000160: 481d 37bd f7a5 813c a8ef b53d 7014 483c
00000170: 5049 8ebd df1d 47bd 5528 b2bd 5280 afbd
00000180: 79e1 03bc 5c91 c93d 20ac 573d 8057 243c
00000190: 8080 60bc 80d0 7a3d 8024 17bb 4c1c a33d
000001a0: a0e1 9dbd 001e 763d c43b 003d f70b 97bc
000001b0: 6f5e b1bd 3a56 c03d 1d05 ce3d 9c7a 5d3c
000001c0: 56d2 a5bd 2fbb 053d 8a7d 993d 2638 b3bd
000001d0: c8e8 f33c 0c9c a03d f819 50bc 2ab7 4fbc
000001e0: 9512 0cbd 1809 5fbd 4ea8 c53d 32ba 8dbc
000001f0: ca59 5e3b 242d e6bd 5c6d 823d 40cc ad3c
00000200: cc21 8cbd bdf9 68bd 8075 d3bd 989a ed3d
00000210: 54ef 6f3d 4ce7 ccbd 5ebe f3bd 509e 0f3d
00000220: 38c9 013d 5d62 29bd 4ca4 e5bd ade1 83bd
00000230: 90ab bd3d 1601 d9bd eb96 31bd dc05 4f3d
00000240: ddd7 c53d 4d64 b53d 23e1 d23c 9c29 17bd
00000250: 710a 22bd 8b2f eabd 12a7 a5bd 0976 8b3c
00000260: 18a1 d9bd 6b6f 18bd 3a1d e0bd e437 b4ba
00000270: e631 d53d 4949 0ebd 2f16 033e d7d6 643d
00000280: 7510 64bd 48d7 aebd d8a7 a2bc c043 e5bc
00000290: 8058 8c3a aea8 cc3d bc99 753d 8b69 adbc
000002a0: 1fbf cebd c84e e03c c18c 0e3d 1ea4 0f3c
000002b0: 63c8 053e b0ba 713c 89cd abbd 04b1 41bd
000002c0: 9db0 8b3c 8f0e eabc bde7 24bb 5ee3 55bd
000002d0: 56da ac3c 6a71 533d 225a 1abd 6fb1 e0bd
000002e0: 866c 783d d997 123d 60c4 aa3b fd71 ff3d
000002f0: 4724 8d3d 45ff 8d3d e874 84bd 0860 debc
00000300: 0e9c d7bd 95dd 443d d698 ad3c f2aa 813b
00000310: 90ae 1f3c 782e f3bd d094 82bd 8070 3d3b
00000320: c0db 63bb 6298 91bd c4d2 ddbc 090e cdbd
00000330: f8eb 663d 2bb5 8dbd dd2e fabd 06df f6bd
00000340: f4d0 2abd 804b cb3d 13e6 45bd 0716 ac3c
00000350: 1478 743d 52dc 8f3d d2bf a53d 4aac 0c3d
00000360: 98bf fdbc e302 8a3d 2624 913d fec4 c1bd
00000370: 94d8 f0bd 7ff4 2d3d 178b 333d 65d2 9bbd
00000380: adc3 9fbd e999 0a3d 1c86 9c3d a433 73bd
00000390: 922b f53d 22d9 fdbd c673 b83d ab67 d53d
000003a0: d830 c3bd 60d5 66bd 2feb 363d 395d a3bc
000003b0: ce51 963d 10ef 3c3d 9934 9dbd 614b 20bc
000003c0: 2180 b5bd 4021 91bd 3eba e6bb c739 eebd
000003d0: 90d5 893d 6f7e 793c 3f09 f3bc 4dd8 e93d
000003e0: b5fd bcbd 81bc 3cbd 0c98 a33d 6800 8bbd
000003f0: 4248 743a c4f6 e03b 142d adbd 0066 adbb
0.078572944 -0.10810655 -0.04427412 0.08221699 -0.03457664 -0.059578687 0.030819207 -0.07024829
-0.07477935 0.051676847 -0.050851062 -0.019790487 -0.019310057 -0.035077937 -0.04245049 -0.023341795
-0.06359155 -0.11587966 -0.012211276 -0.059555218 0.09398421 0.024001678 -0.04980305 0.10185657
0.10528867 -0.029523948 -0.06578095 -0.08147892 -0.095944725 -0.019805862 0.02895019 0.08674955
-0.0046556825 -0.027387967 -0.027278945 0.0907118 -0.1202828 0.05698718 -0.105937436 -0.09874124
0.026425332 -0.04463041 0.042939343 0.025854636 -0.02077877 0.09007682 -0.0060627917 0.09826062
0.073063225 0.06294005 -0.08048839 -0.11198724 -0.103476 0.12525147 0.04318297 0.031859204
0.0033885406 -0.0771274 -0.09576316 -0.03577642 -0.0016286877 0.049480602 0.018952325 -0.10081892
0.11894022 0.09790927 -0.051122665 -0.01508449 -0.072326705 0.069753245 0.020492911 0.10040957
-0.07759583 -0.05961498 -0.027513444 -0.04687661 -0.07757975 0.029128954 0.016405292 0.086307764
-0.10897252 0.02392083 0.047638174 0.121831775 0.033114623 0.037416548 0.02476804 0.11516976
-0.04470566 0.015826209 0.088836014 0.012211904 -0.06947577 -0.04861247 -0.08699099 -0.08569397
-0.008049362 0.09842178 0.052654386 0.010030627 -0.013702512 0.061233997 -0.0023062527 0.079643816
-0.0770905 0.060087204 0.031306997 -0.018438322 -0.0866059 0.093914464 0.10059569 0.013518002
-0.08096759 0.032649215 0.07494648 -0.08750944 0.029774085 0.078422636 -0.012701504 -0.012677947
-0.03419741 -0.05445203 0.09651242 -0.017300699 0.003392803 -0.11239079 0.06368515 0.021215558
-0.06842384 -0.056878794 -0.10325146 0.11601752 0.05857785 -0.10005054 -0.11901544 0.035063088
0.031686038 -0.041353572 -0.11212978 -0.064395286 0.092612386 -0.1059591 -0.043356817 0.050542697
0.09660313 0.088570215 0.02574212 -0.036904916 -0.03956074 -0.11434849 -0.08088507 0.017024057
-0.10626429 -0.03721563 -0.109430745 -0.0013749567 0.10409908 -0.03473786 0.12801431 0.05586895
-0.055679757 -0.085371554 -0.019855425 -0.027986407 0.0010707527 0.099931106 0.059961066 -0.02116849
-0.10095047 0.027381316 0.034802202 0.008767156 0.13064723 0.014753982 -0.08388812 -0.047287956
0.01705199 -0.028571395 -0.002516254 -0.052218787 0.021100204 0.051621832 -0.037683614 -0.10971343
0.06065037 0.035789344 0.005211398 0.124729134 0.06891685 0.069334544 -0.064676106 -0.0271454
-0.10527812 0.04806288 0.021191042 0.003957146 0.009746209 -0.118740976 -0.0637604 0.0028906167
-0.0034768432 -0.07109143 -0.02707804 -0.100124426 0.05637738 -0.06919321 -0.1221597 -0.12054257
-0.04170318 0.0992651 -0.04831512 0.021006597 0.059684828 0.07024445 0.080932274 0.034343995
-0.030975148 0.06738832 0.07086973 -0.094614014 -0.11760059 0.042469498 0.04383382 -0.07608489
-0.07800994 0.033838186 0.07642767 -0.05937542 0.11971201 -0.123949304 0.09006457 0.10420164
-0.095308006 -0.056355834 0.044657882 -0.019941913 0.07339822 0.046126425 -0.07676048 -0.009783597
-0.08862329 -0.0708642 -0.007041245 -0.11632114 0.06730187 0.015227898 -0.029667495 0.11418209
-0.09228078 -0.04607821 0.07987985 -0.06787187 0.00093186286 0.0068653543 -0.084558636 -0.0052917004

critic.4.bias f4 [32]
00000000: 31b8 553d 90a6 c9bc 6b6c e83d e36c d13d
00000010: 0df5 dd3d 90f1 85bd 2bf0 8dbc 8277 ccbd
00000020: caed bdbd 8a4e ae3d 5016 b3bd 1174 2b3d
00000030: 0955 663c 0c9f f9bd 8a69 55bd b6c9 f8bb
00000040: 0f41 debc 98fc ee3d 70da c33c 5d4b c4bd
00000050: c182 433d 4ad0 b23d 648d d13c 69a0 853c
00000060: 99fb 443d a864 bdbd 1f62 793c 134c 353d
00000070: d06e 07bc 4e00 173d d340 51bd e2b0 b7bd
0.05217761 -0.024615556 0.11348804 0.102258466 0.10837755 -0.06540215 -0.017326435 -0.09983732
-0.0927387 0.08511074 -0.0874449 0.041858736 0.01405836 -0.12188539 -0.052102603 -0.007592405
-0.027130632 0.11669272 0.02390787 -0.09584687 0.04773212 0.08731134 0.025580116 0.016311841
0.048091505 -0.09247714 0.015221148 0.044262003 -0.008266166 0.036865525 -0.05108721 -0.089692846

critic.6.weight f4 [1, 32]
00000000: 9a22 bbbc 1e51 313e 2880 3dbd edac eb3d
00000010: e32d 02bd f993 313e 6161 4d3b bf18 d1bd
00000020: 5f0e 273d e4db e3bb 42e7 0dbb 436b 29be
00000030: fe09 4fbd 6cde 02be c4f1 b1bd 6146 323d
00000040: 4776 19be 273a e6bc 512b f13d 0a10 153e
00000050: 44ed a5bc 1c78 193e f897 d83d 6594 a43c
00000060: 3956 9f3d d374 063e a21c 093e b0ec 5fbd
00000070: eef2 d8bd bbef 0cbe 46cd 103e 6628 62bc
-0.022843648 0.173161 -0.046264797 0.11507592 -0.031782042 0.17341603 0.003133856 -0.10209798
0.04078519 -0.0069537032 -0.0021652733 -0.16544823 -0.05054664 -0.1278016 -0.08688691 0.04352415
-0.14986525 -0.028103901 0.1177584 0.145569 -0.020254739 0.14987224 0.10575861 0.020090291
0.077801175 0.13130502 0.13389829 -0.054669082 -0.1059321 -0.13763325 0.14140806 -0.013803577
