data/ppo_2023_03_23_11_28_10.pth (torch, 93525 bytes, 14 tensors)

actor.0.weight f4 [128, 4]
0	0x3edf8812	0.436585
1	0xbe9795a8	-0.29606366
2	0x3ec235ba	0.37931615
3	0xbdf95ed0	-0.12176287
4	0xbefe5ce6	-0.4968025
5	0x3e33f084	0.17572218
6	0x3e82cd96	0.25547475
7	0xbec39d46	-0.38205928
8	0x3ee12dea	0.43980342
9	0xbec78158	-0.3896587
10	0xbcf1b260	-0.029504001
11	0xbe2a324b	-0.16620748
12	0xbec3130d	-0.38100472
13	0xbeab657c	-0.33475864
14	0xbbc8de00	-0.00612998
15	0xbee24e65	-0.44200435
16	0x3e11c884	0.14236647
17	0x3e632181	0.2218075
18	0x3e1954b2	0.14973715
19	0x3ef5f119	0.48035505
20	0x3ef3c9eb	0.4761499
21	0x3e86b1d0	0.26307535
22	0x3e2e5de3	0.17028002
23	0x3ea5ad3c	0.3235873
24	0xbefe580a	-0.49676543
25	0xbe328234	-0.17432481
26	0x3ed49254	0.4151789
27	0xbe5c4ce0	-0.215137
28	0x3e451e0b	0.19249742
29	0x3d2e9776	0.042624913
30	0xbe504e69	-0.20342411
31	0x3d938afd	0.07204244
32	0xbd8b8bba	-0.0681376
33	0x3e86472e	0.2622618
34	0x3e374ab9	0.17899598
35	0x3ed50c3c	0.41610897
36	0xbec1c4d0	-0.3784547
37	0x3e7a9802	0.24472049
38	0xbe2a188e	-0.1661093
39	0x3ebe7ec7	0.37206098
40	0xbee1d9e4	-0.4411155
41	0xbe873ecf	-0.26415107
42	0xbe4ff91c	-0.20309871
43	0xbd8b258f	-0.06794273
44	0x3ecf03d4	0.40432608
45	0xbd1255bb	-0.03572629
46	0xbead3178	-0.33826804
47	0x3e22db01	0.15903856
48	0x3e21b36d	0.15791102
49	0xbee814ec	-0.45328462
50	0xbe870486	-0.2637064
51	0xbe96c20b	-0.29444918
52	0x3edbbab1	0.42915872
53	0xbc339e56	-0.010963043
54	0x3effa8f8	0.499336
55	0x3d438854	0.047737435
56	0x3dc2483c	0.09486434
57	0x3bf2dd15	0.007411609
58	0x3eb8b2df	0.36073968
59	0x3dd44b91	0.10365976
60	0xbeaf29ee	-0.34211677
61	0x3e470cfb	0.19438545
62	0x3e1e459e	0.15456244
63	0xbd25348a	-0.04033331
64	0x3edb2038	0.42798018
65	0xbe838f56	-0.25695294
66	0xbedd4228	-0.43214536
67	0xbe8d3fee	-0.27587837
68	0xbe4c959c	-0.19978946
69	0xbea9967a	-0.33122617
70	0xbe82b438	-0.2552812
71	0x3e95b93b	0.29242882
72	0xbdd80e70	-0.10549629
73	0x3dedbff0	0.11608875
74	0x3dc9ec78	0.09859556
75	0xbdc48770	-0.09596145
76	0x3e8b7f62	0.27245623
77	0xbe8a30fa	-0.2699049
78	0xbe5294d0	-0.2056458
79	0xbdb7cf50	-0.089750886
80	0xbede15ba	-0.4337595
81	0x3ef803d8	0.48440433
82	0xbd86aed2	-0.06576313
83	0x3ea2ca76	0.3179509
84	0xbec37420	-0.38174534
85	0x3edfa0b0	0.43677282
86	0x3de4bc58	0.11168736
87	0x3dda7cc0	0.106683254
88	0x3ecf7a13	0.40522823
89	0x3ec3a643	0.38212785
90	0xbe9ec5ea	-0.3101037
91	0xbec4a072	-0.3840366
92	0x3dce5dd5	0.10076491
93	0x3efdc369	0.4956315
94	0xbc592ba8	-0.013255037
95	0xbecca0ab	-0.3996633
96	0x3e57d21c	0.21076244
97	0xbdd1b548	-0.10239655
98	0xbe819638	-0.2530992
99	0xbde05e30	-0.10955465
100	0xbef558c2	-0.4791928
101	0xbe88be38	-0.26707625
102	0x3ece182a	0.4025281
103	0x3e1f9378	0.15583599
104	0xbd3a2c80	-0.045452595
105	0x3eb4a312	0.35280663
106	0xbef908e2	-0.4863959
107	0xbe6ff464	-0.23433071
108	0x3e938bcb	0.2881759
109	0xbed913d0	-0.42397928
110	0xbe03a3fc	-0.12855524
111	0xbed65931	-0.41864923
112	0xbeb347dc	-0.35015762
113	0x3e5cb34e	0.21552774
114	0x3e640dc8	0.22270882
115	0x3e7c84a9	0.24659981
116	0xbe8966d0	-0.26836252
117	0x3b6b2700	0.00358814
118	0xbe9063d2	-0.28201157
119	0x3eabd604	0.33561718
120	0x3e90b53c	0.2826327
121	0xbc629b40	-0.01383096
122	0xbe483888	-0.19552815
123	0xbe904948	-0.2818091
124	0xbe895824	-0.26825058
125	0xbea153f2	-0.31509358
126	0x3e32cd38	0.17461097
127	0xbe7b7444	-0.2455607
128	0x3db74049	0.08947808
129	0xbe6dafa2	-0.2321153
130	0x3eff3d0f	0.49851272
131	0x3e44849c	0.19191211
132	0xbd9cb32e	-0.07651363
133	0xbe9fad45	-0.31186882
134	0xbdd6c6b8	-0.10487121
135	0xbedd13e6	-0.43179244
136	0xbedfb6fc	-0.43694293
137	0x3e0a5498	0.13508832
138	0xbe0a3038	-0.13494956
139	0x3e8c0318	0.2734611
140	0xbede1d20	-0.43381596
141	0x3e4dc528	0.2009474
142	0x3ef7a7b7	0.48370144
143	0x3dd5abd6	0.10433166
144	0xbe3563cf	-0.17713855
145	0x3e92d45b	0.2867764
146	0xbde10eb8	-0.109891355
147	0x3e46b0b2	0.19403341
148	0x3db82690	0.0899173
149	0x3d4fcf50	0.050734818
150	0x3c280c80	0.0102568865
151	0xbda08a70	-0.07838905
152	0xbee4496b	-0.44587263
153	0x3e5077eb	0.20358245
154	0x3ef3ed59	0.4764202
155	0x3ef1e5bf	0.47245595
156	0xbef0b7e3	-0.47015294
157	0x3e857115	0.26062837
158	0x3e9ab7c8	0.3021834
159	0x3e7d9b08	0.24766171
160	0x3ecfb3b3	0.40566787
161	0xbef46286	-0.47731417
162	0x3e6958c4	0.22787768
163	0x3e8884a6	0.26663703
164	0x3d331390	0.043719828
165	0xbd935aa0	-0.0719502
166	0xbef47f26	-0.47753257
167	0xbd9d2630	-0.07673299
168	0xbe8b3a54	-0.27192938
169	0x3cd70f3b	0.02625238
170	0xbe75e82b	-0.24014346
171	0x3e32bbf9	0.17454518
172	0x3eeb4d4a	0.45957404
173	0x3e41d650	0.1892941
174	0x3ed7a7df	0.42120263
175	0x3e8d9979	0.27656153
176	0x3c6521da	0.013985122
177	0x3ed706c1	0.4199734
178	0xbec8ca2e	-0.3921675
179	0xbdaa4a29	-0.08314926
180	0xbed5aa27	-0.41731378
181	0xbec82206	-0.39088458
182	0x3db3e97e	0.087847695
183	0x3e6ab427	0.22920285
184	0x3e44f531	0.19234158
185	0x3eca6a1d	0.39534083
186	0x3e8800c7	0.26563093
187	0xbe83b908	-0.25727105
188	0xbdbdc355	-0.09265772
189	0xbe786298	-0.2425636
190	0xbd894f90	-0.067046285
191	0x3eda3c6e	0.4262423
192	0xbde7dc0c	-0.113212675
193	0x3e54f9a5	0.20798357
194	0xbeb965a4	-0.36210358
195	0x3ecb5326	0.39711875
196	0x3ee1ae67	0.4407837
197	0x3ea61c63	0.32443532
198	0xbd819278	-0.06326765
199	0x3e37e781	0.17959405
200	0x3e2fd538	0.1717118
201	0x3e0c05cc	0.13674086
202	0xbe529e74	-0.20568258
203	0x3e745a70	0.23862624
204	0x3eeeb854	0.46625006
205	0xbeaf74fc	-0.3426894
206	0xbe88af76	-0.26696366
207	0xbe24a4ac	-0.16078442
208	0x3e2d25b4	0.16908914
209	0xbe37c184	-0.17944914
210	0xbe3a957c	-0.18221086
211	0xbd1928b0	-0.03739232
212	0x3ed8bc0d	0.4233097
213	0x3ee44911	0.44586995
214	0x3ecd663e	0.40117067
215	0x3edf80dc	0.43653
216	0x3d029458	0.031879753
217	0x3e0c8e93	0.13726263
218	0xbe520aac	-0.20511883
219	0x3d7f4120	0.062317967
220	0x3ec4e936	0.38459176
221	0x3e4fd267	0.20295106
222	0x3e75af0e	0.2399256
223	0xbe65408d	-0.22387905
224	0xbdc6c14d	-0.09704838
225	0x3edb2c37	0.4280717
226	0x3e8a0498	0.2695663
227	0xbed6019f	-0.41798112
228	0x3eb43b6a	0.3520158
229	0xbe967d9d	-0.2939271
230	0x3d63b70d	0.055594493
231	0xbd52d16b	-0.051469248
232	0xbebe4190	-0.37159395
233	0xbe3f2cb4	-0.18669397
234	0x3c249dc0	0.010047376
235	0x3ea927ea	0.33038265
236	0x3e81c06c	0.2534212
237	0xbed840a0	-0.42236805
238	0x3d146a50	0.0362342
239	0x3e62620c	0.22107714
240	0x3caf9155	0.021431604
241	0x3dc1930c	0.09451875
242	0xbdb91d28	-0.09038764
243	0x3ee1337c	0.43984592
244	0x3e415a8e	0.188822
245	0x3ea4e88c	0.3220867
246	0x3e3f5f13	0.18688612
247	0x3e957412	0.29190117
248	0x3e1fa9e7	0.15592156
249	0xbe504ec9	-0.20342554
250	0x3eb37cdc	0.35056198
251	0xbbe0c8e3	-0.006859885
252	0x3e09a9ed	0.13443728
253	0x3ec19f77	0.37816975
254	0xbe5abf47	-0.21362029
255	0x3edd77b4	0.4325539

actor.0.bias f4 [128]
0	0xbef9fd3a	-0.4882601
1	0xbe1721bc	-0.14758962
2	0x3ce044f9	0.027376639
3	0x3ec80d31	0.39072564
4	0x3d6f8f15	0.058486063
5	0xbe359bcd	-0.17735215
6	0x3cf6b237	0.030114276
7	0x3e7af72a	0.24508348
8	0x3dc2502f	0.0948795
9	0xbcc7c4ce	-0.024385836
10	0x3e7824ca	0.24232784
11	0xbd5c87c0	-0.0538404
12	0x3eaed08c	0.34143484
13	0x3e926e04	0.2859956
14	0x3ea4f59b	0.32218632
15	0xbcaac0c9	-0.02084388
16	0xbee92fb6	-0.45544213
17	0x3ec6c8d7	0.38825104
18	0xbe4a8508	-0.1977731
19	0xbea3f97a	-0.32026273
20	0xbce5bd4e	-0.02804437
21	0xbed32024	-0.4123546
22	0x3ec368cb	0.38165888
23	0x3eda21d7	0.42603943
24	0xbef1324c	-0.47108686
25	0xbec1c2e4	-0.37844002
26	0xbea442f0	-0.3208232
27	0x3ef5bdf5	0.47996488
28	0xbc54e2e1	-0.012993545
29	0xbe1a7214	-0.1508258
30	0xbeee7e5e	-0.46580786
31	0xbed5db84	-0.4176904
32	0xbda55722	-0.0807326
33	0x3e60630c	0.21912783
34	0xbefcae46	-0.4935171
35	0xbd4a1b60	-0.049342513
36	0xbbe8b9b3	-0.007102215
37	0xbea4ec0e	-0.32211345
38	0x3eccb002	0.39978033
39	0x3ee305c7	0.44340345
40	0x3d48149b	0.048847776
41	0xbeebea1e	-0.46077055
42	0x3ef06ab2	0.46956402
43	0xbeeae69c	-0.45879066
44	0xbe9d02ff	-0.30666348
45	0x3ee2dd57	0.44309494
46	0xbd847e19	-0.06469364
47	0xbe4a6b26	-0.19767436
48	0xbe2f0d82	-0.17094997
49	0x3edf7a1f	0.43647859
50	0xbee4609c	-0.44604957
51	0xbefdb87e	-0.4955482
52	0xbecf62d4	-0.40505087
53	0xbedb3d58	-0.4282024
54	0x3c74afc3	0.014934483
55	0xbe04af65	-0.12957533
56	0x3e32a147	0.17444335
57	0x3ee49e06	0.44651812
58	0xbdac69f0	-0.084186435
59	0xbedd4418	-0.43216014
60	0x3e189f2e	0.14904472
61	0x3e765278	0.24054897
62	0x3e620dde	0.22075602
63	0x3e9029e6	0.28156966
64	0xbe51dee4	-0.20495182
65	0xbe4030ac	-0.18768567
66	0xbe625258	-0.22101724
67	0x3e6a8e8c	0.2290594
68	0xbe1afb2c	-0.15134877
69	0xbe6b51a8	-0.22980368
70	0xbee74afa	-0.4517439
71	0xbea19042	-0.31555372
72	0xbedd9e6c	-0.4328493
73	0x3db9cc7c	0.090722054
74	0xbe0ade90	-0.13561463
75	0x3ddcead5	0.10786978
76	0x3ea38c6a	0.31943065
77	0xbedcee88	-0.43150735
78	0x3ef66170	0.48121214
79	0x3dd0de48	0.10198647
80	0xbeaecd0b	-0.3414081
81	0xbef0338a	-0.4691432
82	0x3edfcced	0.43711033
83	0x3e257ff8	0.16162097
84	0x3de5ae2a	0.1121486
85	0x3ea8ec7e	0.3299293
86	0xbec8e79e	-0.3923921
87	0xbdd6434b	-0.10462054
88	0x3e7bf0b0	0.24603534
89	0x3e981b84	0.29708493
90	0x3dd4dd5f	0.10393786
91	0xbedd4b3b	-0.4322146
92	0x3eaec83e	0.34137148
93	0xbef3e0b8	-0.47632384
94	0xbef06716	-0.46953648
95	0xbdfb7473	-0.1227807
96	0xbed6e3c8	-0.41970658
97	0xbe0ff7bd	-0.14059348
98	0xbde124d7	-0.10993355
99	0xbdc111a1	-0.094271906
100	0xbd37fcfd	-0.044919003
101	0xbef3e0d8	-0.4763248
102	0x3dadd4d6	0.08487861
103	0x3c8d2804	0.017230995
104	0xbeb11488	-0.34585977
105	0xbd6da4e0	-0.058018565
106	0x3ee3aade	0.444663
107	0xbed72cbf	-0.42026326
108	0xbec456d2	-0.3834749
109	0x3e0d2776	0.13784584
110	0x3e7014de	0.2344546
111	0x3e9043e5	0.281768
112	0x3dd99f2e	0.10626064
113	0x3e2e3392	0.1701186
114	0x3e65da5e	0.22446582
115	0x3eef6fb2	0.46764904
116	0xbe9e882a	-0.3096326
117	0xbdc3aa0e	-0.0955392
118	0xbec37d14	-0.38181365
119	0x3e80553c	0.2506503
120	0xbeb94ef6	-0.36193055
121	0xbeb6484c	-0.35602033
122	0x3e2e93ca	0.17048565
123	0xbee054fc	-0.43814838
124	0xbdf814b8	-0.12113327
125	0xbda461a1	-0.08026434
126	0x3efd9276	0.49525803
127	0xbee6674a	-0.45000678

actor.2.weight f4 [64, 128]
0	0xbc661385	-0.01404274
1	0x3cc75128	0.02433069
2	0xbd4640b8	-0.048401564
3	0xbd875035	-0.06607095
4	0xbcc47a41	-0.023984076
5	0x3d3f3383	0.046679985
6	0x3c32c509	0.010911235
7	0x3da3aa26	0.079914376
8	0x3d81b887	0.06334024
9	0x3d4d0907	0.050057437
10	0x3d580e46	0.052747987
11	0xbc8fedf7	-0.017569525
12	0xbd843248	-0.06454903
13	0x3d458915	0.048226435
14	0x3d709dd3	0.058744263
15	0x3d9a80a9	0.07544071
16	0x3d4ede5a	0.05050502
17	0x3d9f5cf0	0.07781398
18	0xbd4744b4	-0.048649505
19	0x3d867bad	0.06566558
20	0x3d856cf0	0.06514919
21	0xbbce546f	-0.0062966864
22	0x3d6bb111	0.05754191
23	0xbd37e572	-0.04489655
24	0xbdb34488	-0.08753306
25	0xbd51ed68	-0.0512518
26	0xbda16945	-0.07881407
27	0x3dae5978	0.085131586
28	0x3cfc835c	0.030824356
29	0x3d8b70ba	0.0680861
30	0xbdb4cce6	-0.08828144
31	0xbc02952e	-0.0079701375
32	0xbdafa3e9	-0.08576185
33	0xbd349e08	-0.044096023
34	0xbda6b4df	-0.08139967
35	0xbd37b959	-0.044854496
36	0xbc9569fc	-0.018239014
37	0xbd961b90	-0.07329476
38	0x3d8b9672	0.068158045
39	0xbd2d6e5d	-0.04234158
40	0xbd0b65f5	-0.03403278
41	0x3c07cfb0	0.008289263
42	0x3d7043c0	0.05865836
43	0xbd6ce2f6	-0.057833634
44	0x3d913875	0.070908464
45	0xbbeb8344	-0.007187279
46	0xbd1c0097	-0.0380865
47	0xbda70f7c	-0.0815725
48	0xbd175bba	-0.03695271
49	0xbcd6d19c	-0.026222996
50	0x3c082808	0.008310325
51	0xbda7a7ae	-0.08186279
52	0xbd2e0516	-0.04248532
53	0xbcc8ce24	-0.024512358
54	0x3ccfa8f0	0.02534911
55	0x3d10b7e1	0.03533161
56	0xbd9f03ef	-0.07764422
57	0x3c499e61	0.012305827
58	0xbca3fa52	-0.020016823
59	0x3d48e1aa	0.049043335
60	0x3c996731	0.018725963
61	0x3d2c26c0	0.042029142
62	0xbd9f4c01	-0.077781685
63	0x3d271dc4	0.04079987
64	0x3c8d28b7	0.017231328
65	0xbcdb44d7	-0.026766224
66	0x3bdf7d6c	0.0068203714
67	0x3da48f3f	0.080351345
68	0x3c4d4886	0.012529498
69	0xbd944041	-0.07238818
70	0x3ce77bd6	0.028257292
71	0x3bd97355	0.006636063
72	0xbcedc3a4	-0.029023953
73	0x3da674d8	0.08127755
74	0xbd3291de	-0.04359614
75	0x3d615f5d	0.055022586
76	0xbc32b445	-0.010907237
77	0x3bd0ffc4	0.006378146
78	0x3d3e5636	0.046468936
79	0xbc062796	-0.008188149
80	0xbd66dd25	-0.056363244
81	0xbc9ae5cc	-0.018908404
82	0x3a7d23d6	0.0009656524
83	0xbbe010b1	-0.0068379273
84	0x3d53c0a3	0.051697385
85	0xbc57118a	-0.01312674
86	0xbd4e1d45	-0.050320882
87	0x3d6dc8fe	0.05805301
88	0xbcb2016d	-0.021729195
89	0x3d6483f6	0.05578991
90	0x3da99391	0.08280099
91	0x3d85ace9	0.065271206
92	0x3da273ac	0.07932219
93	0xbd85df5c	-0.06536743
94	0xbd0ab383	-0.033862602
95	0xbc80c7e3	-0.015720313
96	0x3bb6531f	0.005564108
97	0xbd1921cf	-0.037385758
98	0x3d4b4da6	0.0496346
99	0x3d96786b	0.07347187
100	0x3d4d32cc	0.05009727
101	0x3d81286b	0.06306537
102	0x3dacc1b5	0.08435384
103	0xbc305d81	-0.010764481
104	0x3da9477e	0.08265589
105	0xbda98553	-0.08277383
106	0xbd7585c1	-0.05994201
107	0xbd806854	-0.06269899
108	0x3d447399	0.047961805
109	0xbd189d67	-0.037259486
110	0xbd8fd1f0	-0.07022464
111	0x3d92fcf0	0.0717715
112	0xbd9df602	-0.07712938
113	0xba8b3714	-0.0010621273
114	0x3d644556	0.055730186
115	0x3d895c7a	0.06707092
116	0x3986899d	0.00025661002
117	0x3d53795d	0.051629413
118	0x3c0510de	0.008121697
119	0xbd85b9b0	-0.06529558
120	0xbd98531f	-0.07437729
121	0x3dae3898	0.08506888
122	0x3c41076c	0.011781555
123	0x3c99a54d	0.01875558
124	0x3db0b2f6	0.08627884
125	0xbc9d43ab	-0.019197306
126	0x3c83d645	0.016093383
127	0x3d62a1d3	0.05533011
128	0xbd3e3217	-0.04643449
129	0x3bc06be3	0.005872236
130	0x3d17d0c9	0.037064347
131	0xbc792bbf	-0.015208184
132	0xbd9876cb	-0.07444533
133	0x3d025a72	0.031824537
134	0x3d94a00e	0.072570905
135	0xbcc5a796	-0.024127763
136	0xbc813e8b	-0.015776893
137	0x3c9bf1c0	0.019036174
138	0x3bd6a76b	0.0065507195
139	0xbd150feb	-0.036392134
140	0xbc0b7ada	-0.008513177
141	0x3d9ac710	0.075574994
142	0x3a8e5e32	0.0010861813
143	0xbd329dda	-0.04360757
144	0xbcfb7339	-0.03069459
145	0x3cbfd6a4	0.023417778
146	0x3d0e6684	0.034765735
147	0xbcd66e39	-0.026175605
148	0xbd921107	-0.07132154
149	0xbd90ebe7	-0.07076245
150	0x3cfdbe3a	0.030974496
151	0x3a2899fa	0.00064316357
152	0x3d64859b	0.05579148
153	0xbc6bd817	-0.014394782
154	0xbd97a21a	-0.07403965
155	0x3c3c9129	0.011509218
156	0x3d9fe08b	0.078065
157	0xbd3bdd42	-0.045865305
158	0x3c28712f	0.010280891
159	0xbd4af670	-0.049551427
160	0x3d81b753	0.063337944
161	0xbda08327	-0.07837515
162	0xbcd508ef	-0.026005236
163	0x3d192ef6	0.0373983
164	0x3da67a02	0.0812874
165	0xbda3dea2	-0.08001448
166	0xbca0c17d	-0.019623512
167	0x3d060c8c	0.03272681
168	0xbda73762	-0.0816486
169	0x3cf66e5d	0.030081922
170	0x3d9662ac	0.07343039
171	0x3d450bcd	0.048106957
172	0xbd866d63	-0.065638326
173	0x3d69100f	0.05690008
174	0x3c8c0f33	0.017097091
175	0xbd46ea2a	-0.04856316
176	0x3db1b0f0	0.08676326
177	0x3cf51a9e	0.029919919
178	0x3d598613	0.05310638
179	0x3c701ab7	0.014654807
180	0x3c637e60	0.013885111
181	0xbd14331a	-0.036181547
182	0x3d6a5b27	0.057215836
183	0xbd2c39aa	-0.04204718
184	0x3d8b9151	0.06814826
185	0x3caf77ec	0.021419488
186	0x3daa5d51	0.0831858
187	0x3a8bbb1e	0.0010660624
188	0xbcb63023	-0.02223975
189	0xbbb88d2d	-0.005632064
190	0x3ca64724	0.020297594
191	0x3d9fdf20	0.078062296
192	0x3db415ce	0.087932214
193	0x3d366dca	0.044538297
194	0x3da3c918	0.0799734
195	0xbdac8ef5	-0.084257044
196	0x3d81dd4c	0.06341037
197	0x3da0347c	0.078225106
198	0x3d53712e	0.05162161
199	0x3cb935b8	0.022608623
200	0x3d36d84d	0.044639874
201	0xbd9a924c	-0.07547435
202	0x3c517936	0.012785247
203	0x3ce10b19	0.027471112
204	0x3d416927	0.04721942
205	0xbd24acf4	-0.040204003
206	0x3d26f51f	0.04076111
207	0x3d2bfa2a	0.041986622
208	0xbd8cdc16	-0.068779156
209	0xbc7b9000	-0.0153541565
210	0xbc44f5d5	-0.012021502
211	0xbbf09103	-0.0073415055
212	0x3d69193c	0.05690883
213	0x3d936403	0.0719681
214	0xbc00a3d2	-0.007851558
215	0x3d0914df	0.03346717
216	0xbd65bcb2	-0.056088157
217	0xbd76ce83	-0.06025554
218	0xbda59ece	-0.0808693
219	0xbdb1e2fb	-0.08685871
220	0xbd46a252	-0.048494644
221	0x3d23c78b	0.03998522
222	0xbd0990f5	-0.033585507
223	0x3d9c1b7b	0.07622429
224	0x3d353acd	0.04424553
225	0xbd608a30	-0.054819286
226	0xbc9564b9	-0.018236505
227	0xbd4da76a	-0.050208487
228	0xbd88ba54	-0.06676164
229	0xbd791757	-0.060813274
230	0x3d06ef1d	0.03294288
231	0x3bc8114c	0.0061055776
232	0x3d0823fd	0.033237446
233	0x3c086b6e	0.0083263945
234	0xbd3c4614	-0.04596527
235	0xbd92cf76	-0.07168476
236	0x3c694f36	0.014240077
237	0xbd9f38f6	-0.07774536
238	0x3ca26a53	0.01982609
239	0x3d1beaaf	0.03806561
240	0xbd27c008	-0.04095462
241	0xbcd4ec7b	-0.025991669
242	0x3c83db80	0.016095877
243	0xbd535428	-0.05159393
244	0x3ce4a45b	0.027910402
245	0x3be633c7	0.0070252153
246	0x3d5b8ee4	0.053603068
247	0x3d7e8335	0.062136848
248	0xbd13c2e0	-0.03607452
249	0xbd3f2ac1	-0.046671633
250	0xbd21782c	-0.039421245
251	0xbbcac67a	-0.006188211
252	0x3d2ad5f2	0.04170794
253	0x3d1e4427	0.038639214
254	0x3d6fe9e8	0.05857268
255	0xbc580305	-0.013184314

actor.2.bias f4 [64]
0	0x3dad1dc8	0.08452946
1	0xbd8af339	-0.06784672
2	0xbd592c36	-0.05302068
3	0xbd0e364f	-0.03471976
4	0x3ccd47e2	0.02505869
5	0x3d74b1a5	0.059739728
6	0xbc5fd480	-0.013661504
7	0xbda26cf0	-0.079309344
8	0xbda2cfcd	-0.07949791
9	0x3d720379	0.059085343
10	0x3dadc628	0.08485061
11	0xbca84e00	-0.020545006
12	0x3d8e64b7	0.069528036
13	0xbc0f1526	-0.0087330695
14	0xbbce2c75	-0.006291921
15	0xbd8b2d33	-0.067957304
16	0xbd8566a3	-0.06513717
17	0x3bf3791b	0.0074302084
18	0x3d15a6a3	0.03653587
19	0xbcd075d9	-0.02544682
20	0x3d5e8c97	0.054333296
21	0xbd4b294b	-0.049599927
22	0xbbbe50e6	-0.0058079837
23	0xbd8df3e1	-0.06931282
24	0x3d8779ae	0.066150054
25	0x3daa7d80	0.083247185
26	0x3939944c	0.0001769822
27	0x3d0b1a99	0.033960912
28	0xbcb6ec20	-0.02232939
29	0x3d9a7e32	0.07543601
30	0xbd4c034c	-0.04980783
31	0x3db3fa7b	0.0878801
32	0xbc74f36c	-0.014950614
33	0xbd0ff71c	-0.03514777
34	0xbc4405e2	-0.011964293
35	0x3cff1bf4	0.031141259
36	0x3d547087	0.051865127
37	0xbd1a627e	-0.037691586
38	0x3d3a94fd	0.045552243
39	0xbdaf8185	-0.08569626
40	0xbd375110	-0.04475504
41	0x3d7f20cf	0.062287148
42	0xbc4f15a6	-0.012639439
43	0xbc9ecadd	-0.019383842
44	0x3d7e9a17	0.06215867
45	0xbce37314	-0.027764834
46	0xbd20a441	-0.039219145
47	0xbda0721f	-0.07834267
48	0x3d07beec	0.03314106
49	0x3d93d9d2	0.0721928
50	0xbd89da1d	-0.06731055
51	0xbd113569	-0.035451327
52	0xbd7004b7	-0.058598246
53	0x3d92f93f	0.07176446
54	0xbc253285	-0.010082846
55	0xbd83a8cf	-0.06428682
56	0xbd82d154	-0.063875824
57	0x3d79a249	0.060945783
58	0xbca80885	-0.020511875
59	0xbd884627	-0.066540055
60	0x3d20e202	0.039278038
61	0xbd5c19dc	-0.0537356
62	0xbcf61090	-0.030037194
63	0xbd561a4e	-0.05227118

actor.4.weight f4 [32, 64]
0	0xbdc04799	-0.09388656
1	0xbda65c5e	-0.081230864
2	0x3dd1638a	0.10224064
3	0x3dcb6926	0.09932165
4	0x3dcccbb5	0.099997915
5	0x3df28ff2	0.11843862
6	0xbdd51d62	-0.10405995
7	0x3cf64508	0.030062214
8	0xbc56ed00	-0.013118029
9	0xbdab5f69	-0.083678074
10	0x3d91f7a7	0.07127314
11	0xbddab7c4	-0.10679582
12	0x3d2f3579	0.042775605
13	0xbdb9ba60	-0.09068751
14	0xbca90e43	-0.020636683
15	0xbdc63efa	-0.096799806
16	0xbc853214	-0.01625923
17	0xbd138ed6	-0.03602489
18	0x3df962cb	0.121770464
19	0xbd86e9a9	-0.06587536
20	0x3e01427e	0.12623021
21	0xbccfc6ea	-0.025363404
22	0xbd31fe0d	-0.043455172
23	0x3d9df44a	0.0771261
24	0x3d9a1982	0.075243965
25	0xbd13e08b	-0.036102813
26	0xbcb7d48a	-0.022440214
27	0x3d4b738d	0.049670745
28	0xbc41b43b	-0.011822755
29	0xbdcd8edd	-0.10037015
30	0xbc0e1df4	-0.008674134
31	0xbd2ec168	-0.042664915
32	0x3dfbc864	0.12294081
33	0x3c9c15f0	0.01905343
34	0x3d1c4840	0.03815484
35	0xbdf5ccc5	-0.12001947
36	0x3c44a9ef	0.012003406
37	0x3dd0d300	0.10196495
38	0xbdba85c0	-0.09107542
39	0x3c8ce9d0	0.017201334
40	0xbdbd72cc	-0.092504114
41	0xbce39b55	-0.027784029
42	0x3da841f7	0.08215707
43	0x3d0ec5a2	0.034856446
44	0xbd8f4b46	-0.06996779
45	0xbd77b86d	-0.060478617
46	0xbc946f87	-0.018119587
47	0xbda4f71a	-0.080549434
48	0x3dc7ebfe	0.09761809
49	0xbc3461e2	-0.011009665
50	0xbaab117c	-0.0013051475
51	0x3d5230dc	0.051316127
52	0xbd76c034	-0.060241893
53	0xbdd978cb	-0.106187426
54	0xbc9d2cde	-0.019186433
55	0xbde1e7ee	-0.11030565
56	0xbcf56051	-0.029953154
57	0xbcc0b1e4	-0.023522325
58	0x3d3721b2	0.04470987
59	0x3dfc562f	0.12321126
60	0xbd83a2c4	-0.064275295
61	0xbb775e40	-0.0037745386
62	0xbd9c6b52	-0.07637657
63	0x3ddde454	0.10834566
64	0x3d4531dd	0.048143256
65	0xbd9d865e	-0.07691644
66	0x3dd3cd2c	0.10341868
67	0x3dbda528	0.09260017
68	0x3cf69653	0.030100977
69	0x3daebbee	0.085319385
70	0xbd6c598f	-0.057702597
71	0x3d9e9eae	0.077451095
72	0x3cc3c4d0	0.023897558
73	0xbd92783f	-0.07151841
74	0xbdf95cbd	-0.121758915
75	0xbdf22198	-0.11822814
76	0x3da09b55	0.07842127
77	0xbddf5d00	-0.1090641
78	0x3d9d38d8	0.07676858
79	0xbd49c194	-0.049256876
80	0xbde04647	-0.10950904
81	0x3bf7816d	0.0075532706
82	0xbddcd5de	-0.107829794
83	0x3c80a5d6	0.015704077
84	0x3dec7b0c	0.11546907
85	0x3d4d3db8	0.050107688
86	0x3da3d966	0.0800045
87	0x3dc43628	0.09580642
88	0x3dbe0f0d	0.092802145
89	0x3dec6655	0.11542956
90	0x3d58ab9f	0.052898046
91	0x3cd6f571	0.026240082
92	0xbcb06ca9	-0.021536188
93	0xbcca1bac	-0.024671398
94	0xbc403082	-0.011730315
95	0xbda75fee	-0.08172594
96	0x3c0f3450	0.0087405
97	0x3d9878c7	0.074449115
98	0xbd83f36d	-0.06442914
99	0xbc1a558e	-0.009419812
100	0x3dd13810	0.10215771
101	0xbda222ca	-0.07916792
102	0x3ddb9151	0.10721076
103	0xbda9b59a	-0.08286591
104	0xbdaac705	-0.08338741
105	0x3d9b0b77	0.07570546
106	0xbd5766e9	-0.052588377
107	0xbd0165b1	-0.03159112
108	0x3d2e4112	0.042542525
109	0x3da28a23	0.07936504
110	0xbd1f338d	-0.038867522
111	0x3db6dc8e	0.08928786
112	0xbda3fba4	-0.08006981
113	0x3dd9e57f	0.10639476
114	0x3da8dd72	0.08245362
115	0xbca90c30	-0.020635694
116	0x3d861c70	0.06548393
117	0xbd3008ba	-0.042977072
118	0x3d096f47	0.033553388
119	0x3d169bf0	0.036769807
120	0xbd8d3224	-0.06894329
121	0x3dd5861e	0.104259714
122	0x3db52531	0.08844984
123	0x3c5a4ce9	0.013324001
124	0x3bb4d186	0.005518141
125	0xbdabcb00	-0.083883286
126	0x3dddae85	0.108243026
127	0xbddd4dee	-0.108058795
128	0xbdf6daf0	-0.12053478
129	0x3d9df864	0.077133924
130	0xba957279	-0.0011401913
131	0xbcfee978	-0.031117186
132	0x3d760042	0.06005884
133	0x3c33cfa7	0.010974801
134	0x3deac162	0.11462666
135	0xbdaa7b4c	-0.08324298
136	0xbd753ef4	-0.05987449
137	0x3dd42582	0.103587165
138	0xbdb76c1a	-0.089561656
139	0x3da6d586	0.08146195
140	0x3d0836c8	0.03325537
141	0xbde4b57a	-0.111674264
142	0x3dca846a	0.09888537
143	0xbdfac91a	-0.12245388
144	0x3deaa5f6	0.11457436
145	0xbd20b4ad	-0.039234806
146	0x3d737eac	0.059446976
147	0xbd8c313c	-0.06845328
148	0x3dd7d2ee	0.105382785
149	0x3ddd28e5	0.10798816
150	0x3acf2f42	0.0015806931
151	0x3da2d807	0.0795136
152	0xbcd09413	-0.025461232
153	0x3dbd677a	0.09248252
154	0xbcbb515a	-0.02286594
155	0xbcc0091c	-0.023441844
156	0x3da56a6d	0.0807694
157	0xbde78b34	-0.11305848
158	0xbcde35c1	-0.027125241
159	0x3ce05687	0.02738501
160	0xbdcee292	-0.101018086
161	0x3dfa8831	0.12233008
162	0xbd296219	-0.04135332
163	0xbd78f55d	-0.06078087
164	0x3da53a83	0.08067801
165	0x3d647ace	0.05578118
166	0x3d6a9c87	0.057278182
167	0x3d2fad04	0.04288961
168	0xbdfe01e4	-0.12402704
169	0xbd2cc1d3	-0.042177033
170	0x3dc2ac6f	0.09505545
171	0x3d7b0844	0.06128718
172	0xbc88c8ab	-0.016697248
173	0xbd05d1e9	-0.03267089
174	0x3ded4b73	0.115866564
175	0x3daa48b2	0.08314647
176	0xbcb385f4	-0.02191446
177	0x3d9a0980	0.07521343
178	0xbd432078	-0.047638386
179	0x3db02c70	0.08602226
180	0x3da5533a	0.08072515
181	0x3da9d9b9	0.082934804
182	0xbd9cdedf	-0.07659697
183	0x3dfa08d2	0.122087136
184	0xbdfa5bb5	-0.12224523
185	0xbdc10260	-0.09424281
186	0xbdf8c201	-0.12146378
187	0xbd0a0230	-0.033693492
188	0x3dbef804	0.09324649
189	0xbc814850	-0.015781552
190	0xbd38078a	-0.044929065
191	0xbddce3a3	-0.10785606
192	0x3b106480	0.002203256
193	0xbd5f6d54	-0.054547623
194	0xbd99ac6c	-0.0750359
195	0x3c22d290	0.009937897
196	0x3d012eb8	0.031538695
197	0xbde863d0	-0.11347163
198	0x3cd7af48	0.026328698
199	0xbdb381a0	-0.087649584
200	0xbdd0dbfa	-0.10198207
201	0x3dfc104a	0.123077944
202	0xbd68bca8	-0.05682054
203	0x3d271da4	0.040799752
204	0xbdef27e6	-0.11677532
205	0x3ddf3fc0	0.10900831
206	0xbd753204	-0.05986215
207	0xbd998850	-0.07496703
208	0xbde244ba	-0.11048265
209	0xbd8f1574	-0.06986514
210	0x3d8d8648	0.06910378
211	0x3d92d310	0.07169163
212	0xbdb82736	-0.08991854
213	0xbdc6c01a	-0.09704609
214	0xbda2d5d2	-0.07950939
215	0x3dcf53c6	0.101234004
216	0xbdf96f1e	-0.12179397
217	0xbd80dd9a	-0.06292267
218	0xbd99e3e8	-0.07514173
219	0x3dffea28	0.12495834
220	0x3d022958	0.03177771
221	0xbdab64d2	-0.08368839
222	0x3d3c87fc	0.046028122
223	0x3a843280	0.0010085851
224	0xbdf3485a	-0.11879034
225	0xbdca099a	-0.098651126
226	0xbdfbbd84	-0.122920066
227	0xbdcb986e	-0.09941183
228	0xbdefa148	-0.11700684
229	0xbdbab202	-0.091159835
230	0x3d893c58	0.06700963
231	0x38426000	4.634261e-05
232	0x3c994938	0.018711671
233	0xbd9993cc	-0.07498893
234	0xbddf2128	-0.10894996
235	0xbd331ba8	-0.043727547
236	0x3d855be4	0.06511667
237	0xbd695264	-0.05696334
238	0x3d2e1564	0.04250087
239	0xbd4f620c	-0.050630614
240	0xbde29d0a	-0.11065109
241	0x3d533510	0.051564276
242	0x3de9373e	0.1138749
243	0x3cec0fe0	0.028816164
244	0xbd7873c4	-0.060657278
245	0xbdddd040	-0.10830736
246	0xbda45012	-0.08023085
247	0x3daf7528	0.08567268
248	0xbda0dac0	-0.07854223
249	0xbdb610b4	-0.088899046
250	0xbd8edd54	-0.06975809
251	0xbd72a6dc	-0.05924116
252	0x3c353cf0	0.011061892
253	0xbdd30aa6	-0.103047654
254	0xbd5ac978	-0.05341479
255	0x3d4f7c70	0.050655782

actor.4.bias f4 [32]
0	0x3dfd9993	0.123828076
1	0xbc5f1ece	-0.013618184
2	0x3dae41be	0.08508633
3	0x3d67e4c4	0.056614652
4	0xbddd5c0e	-0.10808574
5	0xbdf5866a	-0.11988528
6	0x3dad2180	0.08453655
7	0x3ddf7283	0.10910513
8	0xbcbff4b0	-0.023432106
9	0xbdc3a768	-0.095534146
10	0x3d5f8669	0.054571543
11	0x3d99d1d2	0.07510723
12	0x3bb760b6	0.0055962456
13	0x3b8fa045	0.0043831193
14	0xbdd88849	-0.10572869
15	0x3ca9ad72	0.020712588
16	0xbd2ea25b	-0.042635303
17	0x3c144ed3	0.009051996
18	0xbda28aaa	-0.07936604
19	0x3dc01074	0.09378138
20	0x3dba1d2f	0.090875976
21	0x3dc96d22	0.098352686
22	0x3c66eb7f	0.014094233
23	0xbdfc8948	-0.12330872
24	0x3cb7ee10	0.022452384
25	0x3d849988	0.06474596
26	0x3d869d7d	0.06573007
27	0xbd21b40c	-0.039478347
28	0xbdffe448	-0.12494713
29	0x3d5da518	0.054112524
30	0xbc726925	-0.014795576
31	0x3dcdedec	0.100551456

actor.6.weight f4 [1, 32]
0	0xbd9c2bb1	-0.07625521
1	0xbe0c0aec	-0.13676041
2	0xbe3395d5	-0.17537625
3	0x3d672dbe	0.056440108
4	0x3d160616	0.036626898
5	0x3d1b6df5	0.03794666
6	0xbc937db8	-0.018004283
7	0xbe2cee27	-0.16887723
8	0x3e24df16	0.16100726
9	0xbe18158c	-0.1485197
10	0xbd7ca7f5	-0.061683614
11	0xbdb04489	-0.08606822
12	0xbdd012b8	-0.1015982
13	0xbd80d1f3	-0.06290045
14	0xbda69e6c	-0.08135685
15	0x3d0119a0	0.03151858
16	0xba8333ab	-0.0010009905
17	0xbc96a88d	-0.018390918
18	0xbd493fc1	-0.049133066
19	0x3e08bef9	0.133541
20	0x3e2ba0c0	0.1676054
21	0xbd836822	-0.06416346
22	0x3dc5e9f8	0.096637666
23	0xbe1c94c0	-0.15291119
24	0xbe102b6a	-0.14079061
25	0x3d9bcbf7	0.076072626
26	0xbdfbea74	-0.12300578
27	0x3cf3540a	0.029703159
28	0x3e2a159e	0.16609809
29	0x3e26437f	0.16236685
30	0xbdb1c3d6	-0.08679931
31	0xba6b49f9	-0.00089755614

critic.0.weight f4 [128, 4]
0	0x3e971363	0.29506978
1	0x3e9aa634	0.30204928
2	0xbba47274	-0.0050185267
3	0x3edd3d2e	0.4321074
4	0x3ea1d803	0.31610116
5	0xbd4d999e	-0.05019533
6	0x3ea78466	0.327182
7	0xbe3a22d5	-0.1817735
8	0x3e487f40	0.19579792
9	0x3eecd9be	0.46259874
10	0x3e1f1266	0.15534362
11	0x3ee58cb9	0.44833925
12	0xbe1b8edc	-0.15191215
13	0xbeab2516	-0.33426732
14	0xbec6af68	-0.388057
15	0x3ed38845	0.41314903
16	0x3e37fbf1	0.17967202
17	0xbe8d712c	-0.27625406
18	0xbe1d3d68	-0.15355456
19	0xbed860bd	-0.42261305
20	0x3e83676c	0.25664842
21	0x3ee9141e	0.4552316
22	0xbdad039d	-0.08447955
23	0x3e23df97	0.16003262
24	0x3e992411	0.2991033
25	0x3e75dfd6	0.24011168
26	0x3d899b80	0.067191124
27	0xbeb3f320	-0.35146427
28	0xbee4b95a	-0.44672662
29	0xbde198b0	-0.11015451
30	0xbe2c0398	-0.16798246
31	0xbee01482	-0.43765646
32	0xbebcac2a	-0.368501
33	0x3e00ddac	0.12584561
34	0xbe2e03fc	-0.16993707
35	0xbefb11f6	-0.4903714
36	0x3dc1428c	0.09436521
37	0xbede8b37	-0.43465587
38	0x3efefc16	0.498017
39	0x3ea696b8	0.32536864
40	0x3e0dc830	0.13845897
41	0xbe09e3cc	-0.13465804
42	0xbd694e10	-0.05695921
43	0xbe8ccc4c	-0.27499616
44	0xbe5124d3	-0.20424204
45	0xbeceb223	-0.40370283
46	0xbd0102c0	-0.031496763
47	0xbe73e279	-0.23816861
48	0x3dea3189	0.11435229
49	0xbeb0f223	-0.34559736
50	0xbe0d36e2	-0.13790467
51	0x3e0d48f4	0.1379736
52	0x3ef90054	0.48633063
53	0xbec72d70	-0.38901854
54	0x3d5b9f00	0.05361843
55	0xbef08aea	-0.46980983
56	0xbec83e34	-0.39109957
57	0xbe155268	-0.14582217
58	0xbcc4e760	-0.02403611
59	0xbe77183c	-0.24130338
60	0x3e2a3b5c	0.16624206
61	0xbe9f3416	-0.31094426
62	0xbe51ee08	-0.20500958
63	0xbeac7cdc	-0.3368901
64	0x3e40e4c7	0.18837272
65	0x3e4f63aa	0.20252863
66	0xbe9c62c3	-0.305441
67	0xbdc18732	-0.094496146
68	0x3dcc24cc	0.09967956
69	0x3bfb854a	0.0076758014
70	0x3e19c681	0.1501713
71	0x3e891056	0.26770276
72	0x3ef64d38	0.48105788
73	0x3e87afb4	0.26501238
74	0xbeb8a744	-0.36065114
75	0xbeb7f0ac	-0.35925806
76	0xbcdde332	-0.027085874
77	0x3ed4d44a	0.41568214
78	0xbe6da77b	-0.2320842
79	0xbebff914	-0.3749472
80	0xbde0085e	-0.10939096
81	0x3e466ae3	0.19376712
82	0xbe913d82	-0.2836724
83	0x3eba85d1	0.3643022
84	0x3dcb3980	0.09923077
85	0xbea765d3	-0.32694873
86	0x3e6760f7	0.22595583
87	0x3eea5f33	0.45775756
88	0x3c1b8540	0.0094922185
89	0xbea1053c	-0.31449306
90	0xbe8f678a	-0.28008682
91	0xbd061b70	-0.03274101
92	0xbe8e31ba	-0.27772313
93	0x3ea2f7ab	0.3182958
94	0x3e9096d9	0.28240088
95	0x3d88b8a3	0.06675842
96	0xbeb51f70	-0.35375547
97	0xbee7a326	-0.4524166
98	0xbe322bd0	-0.17399526
99	0x3cecf8aa	0.028927166
100	0xbd8b5e33	-0.068050765
101	0x3e60e61d	0.21962781
102	0x3dfdd541	0.123941906
103	0x3f013151	0.50465876
104	0x3e171da6	0.14757404
105	0xbe044a5e	-0.12918994
106	0x3d731586	0.0593467
107	0x3e6833d4	0.22676021
108	0xbe1a2228	-0.15052092
109	0xbe209930	-0.15683436
110	0xbef83a34	-0.48481905
111	0xbe9ea5d6	-0.30985898
112	0x3d796790	0.06088978
113	0xbe9af79c	-0.30267036
114	0xbdafcd90	-0.0858413
115	0x3e45ad78	0.19304454
116	0xbc55ef00	-0.01305747
117	0xbecf23fc	-0.4045714
118	0x3efedbee	0.49777168
119	0xbefd4114	-0.49463713
120	0xbd44d405	-0.04805376
121	0xbdf1eb20	-0.11812425
122	0x3ed8c591	0.4233823
123	0x3dc7d3eb	0.09757217
124	0xbc9d3b20	-0.019193232
125	0x3cdeb880	0.027187586
126	0xbeb3c8ba	-0.3511408
127	0xbe28ecb4	-0.16496545
128	0x3e9be646	0.30449122
129	0x3e7abbb9	0.24485673
130	0x3ee27480	0.44229507
131	0x3e9e33f6	0.30899018
132	0xbedd7648	-0.43254304
133	0x3e28591c	0.16440243
134	0xbe9016ec	-0.28142488
135	0xbe8e9690	-0.27849245
136	0x3e17602a	0.14782777
137	0x3d98f0d2	0.07467808
138	0x3e1d4641	0.15358831
139	0xbefd539c	-0.4947785
140	0xbed6126b	-0.41810927
141	0x3d893162	0.06698872
142	0x3ebb54b8	0.36588073
143	0x3db2a35a	0.08722563
144	0x3e7639ee	0.24045536
145	0xbe95d592	-0.29264504
146	0xbe46f53c	-0.19429487
147	0xbe219e03	-0.15782933
148	0xbee43c0a	-0.44577056
149	0xbe020fe0	-0.12701368
150	0xbed10258	-0.408221
151	0x3e71dc14	0.2361911
152	0x3d420910	0.047371924
153	0x3d7fa6d0	0.062414944
154	0xbc30cb00	-0.0107905865
155	0x3e43fd98	0.19139707
156	0x3bdd6230	0.0067560896
157	0x3dc305b1	0.0952257
158	0xbeffa007	-0.4992678
159	0x3b5b18bc	0.003343149
160	0xbef756bc	-0.4830836
161	0x3e79cd65	0.24394758
162	0x3ef86d0b	0.48520693
163	0xbe2b4562	-0.16725686
164	0xbe42b0c8	-0.19012749
165	0xbe5f6218	-0.21814764
166	0xbc7750c0	-0.015094936
167	0x3ee9404a	0.4555686
168	0xbe77ee24	-0.24211937
169	0xbda573f0	-0.08078754
170	0x3d8b6d68	0.06807977
171	0xbe050de4	-0.1299358
172	0xbe2e2769	-0.17007221
173	0x3e8081e9	0.25099114
174	0xbd414c38	-0.04719183
175	0xbd8185e6	-0.06324367
176	0x3dbda46b	0.09259876
177	0xbee48bc2	-0.44637877
178	0x3eb4fd4a	0.35349494
179	0x3e2db908	0.16965115
180	0x3e34e90c	0.17667025
181	0x3eae7b9b	0.34078678
182	0x3ec7307f	0.38904187
183	0x3e91519d	0.28382578
184	0x3d7c179b	0.06154595
185	0xbc3e308b	-0.011608253
186	0xbe82e607	-0.25566122
187	0x3ea3a4d4	0.3196169
188	0x3efbc277	0.49171802
189	0xbeca2102	-0.39478308
190	0x3cdfe587	0.027331127
191	0x3ed752ce	0.42055362
192	0xbe4ecc75	-0.20195182
193	0xbe37ab4d	-0.1793644
194	0xbeed28b7	-0.46320125
195	0x3ee2873b	0.44243798
196	0x3ed80637	0.42192242
197	0xbea64728	-0.32476163
198	0x3e959c57	0.2922084
199	0xbe21be30	-0.15795207
200	0x3e773324	0.24140602
201	0x3eb72c26	0.3577587
202	0xbd530745	-0.051520605
203	0x3ebcc4c1	0.3686886
204	0xbec4347c	-0.38321292
205	0x3edddc0e	0.4333195
206	0x3ef151fe	0.47132868
207	0xbe3bce2a	-0.18340364
208	0xbe0a8f5c	-0.1353125
209	0x3d5af8b0	0.053459823
210	0xbe03d130	-0.12872767
211	0xbe5cc610	-0.2155993
212	0xbd561e80	-0.05227518
213	0x3e7e3e48	0.24828446
214	0xbd799d90	-0.06094128
215	0xbe953830	-0.2914443
216	0xbdbccb5f	-0.092184775
217	0x3edce41b	0.4314278
218	0xbe8f1008	-0.27941918
219	0xbdabb905	-0.08384899
220	0x3e9e7236	0.3094651
221	0xbe8b7af2	-0.27242237
222	0x3e7a6b40	0.24454975
223	0x3d1183a0	0.035525918
224	0xbe4c29a9	-0.19937767
225	0x3eb8592c	0.36005533
226	0xbe18c7c4	-0.14919955
227	0xbe10c831	-0.14138867
228	0xbee793a4	-0.45229828
229	0x3d57f6a0	0.052725434
230	0x3d436ba0	0.04771006
231	0xbefee642	-0.49785048
232	0x3ec999b9	0.39375094
233	0xbe0ed930	-0.13950038
234	0xbea8f95e	-0.33002752
235	0xbd09b3f5	-0.033618886
236	0x3e87ed62	0.26548296
237	0xbe69af2c	-0.22820729
238	0xbef94292	-0.48683602
239	0xbdf0f51b	-0.117655
240	0x3e86c163	0.26319417
241	0x3d8338eb	0.064073406
242	0x3eeb42dd	0.4594945
243	0xbe928bcf	-0.2862229
244	0x3eac665f	0.33671853
245	0x3ea5a019	0.32348707
246	0xbe08b859	-0.13351573
247	0xbe0c1938	-0.13681495
248	0xbd82ff20	-0.063963175
249	0xbd945978	-0.07243627
250	0x3db09ec0	0.08624029
251	0x3da0e258	0.07855672
252	0x3ee347df	0.4439077
253	0xbe824abc	-0.25447643
254	0x3eadaef0	0.3392253
255	0x3ebefcee	0.37302345

critic.0.bias f4 [128]
0	0x3e066e3a	0.13127986
1	0x3eeadc14	0.4587103
2	0xbe32b1ce	-0.1745064
3	0xbdecb9aa	-0.1155885
4	0x3ee23c32	0.4418655
5	0x3eab308d	0.3343548
6	0xbdd28b4d	-0.10280476
7	0x3e9eabdc	0.30990493
8	0xbdad5398	-0.0846321
9	0xbd80e628	-0.06293899
10	0x3c0c5936	0.008566191
11	0x3e7a479b	0.24441378
12	0x3ef3bce0	0.47605038
13	0xbebcde22	-0.36888224
14	0x3e3d5fdd	0.184936
15	0x3c490231	0.012268589
16	0xbda3181a	-0.079635814
17	0xbe5f8eaf	-0.21831773
18	0xbeeefe3a	-0.46678334
19	0x3d2180da	0.039429523
20	0xbe2c9369	-0.16853108
21	0x3ef69b88	0.48165536
22	0xbee7acf4	-0.4524914
23	0x3e084344	0.1330691
24	0x3e7566ba	0.23964968
25	0x3db5a280	0.08868885
26	0x3e50a968	0.20377123
27	0xbdcc61d0	-0.09979594
28	0xbeca0574	-0.39457285
29	0x3e19f461	0.1503463
30	0x3cf327b8	0.029682025
31	0xbea3e486	-0.32010287
32	0xbec66c65	-0.38754573
33	0xbcc5dfa0	-0.024154484
34	0x3e97cfe3	0.29650792
35	0x3efd76f0	0.49504805
36	0x3dec8951	0.115496285
37	0xbe314ee8	-0.17315257
38	0xbefb76e8	-0.49114156
39	0x3ec232fe	0.3792953
40	0x3effe7d3	0.49981555
41	0xbec48a92	-0.3838697
42	0xbe1b2600	-0.15151215
43	0x3e82e52a	0.25565463
44	0x3ebb9c2f	0.36642596
45	0x3ed8f991	0.42377904
46	0xbdb8fcaa	-0.09032567
47	0x3c14e3e4	0.0090875365
48	0x3ecfd4c7	0.40592024
49	0x3eeb555b	0.4596356
50	0xbe0db975	-0.13840277
51	0xbe19226a	-0.14954534
52	0xbeb7f104	-0.35926068
53	0xbeba831e	-0.3642816
54	0xbe33b567	-0.17549668
55	0xbebfda24	-0.37471116
56	0x3cac0ee4	0.021003194
57	0xbee9238c	-0.45534933
58	0x3eb29791	0.3488126
59	0x3e1c9f61	0.15295173
60	0xbe8a74ac	-0.2704214
61	0xbe8f7849	-0.28021458
62	0xbe982bc4	-0.2972089
63	0x3ede60de	0.4343328
64	0xbe1b5192	-0.15167835
65	0x3e8cc76e	0.27495903
66	0xbef2ce58	-0.47423053
67	0xbe4b0228	-0.19825041
68	0xbe826e7c	-0.25474918
69	0x3e64cd78	0.22344005
70	0xbcb87734	-0.022517778
71	0x3f0036a6	0.50083387
72	0x3e20f4e0	0.15718412
73	0xbde56352	-0.112005845
74	0xbdb72c7b	-0.08944031
75	0x3dc625f7	0.0967521
76	0x3e3a6c1b	0.18205301
77	0x3ec77c74	0.38962138
78	0x3c4e1e19	0.012580418
79	0x3ec5ecd1	0.3865724
80	0xbebde7b0	-0.37090826
81	0x3e938b99	0.28817442
82	0x3eaa2d0e	0.332375
83	0x3e7a091a	0.24417534
84	0xbcd97e24	-0.026549406
85	0x3e82a4d3	0.25516376
86	0xbe4994b3	-0.1968563
87	0xbed60c35	-0.41806188
88	0xbef084ee	-0.46976417
89	0xbeb0a314	-0.3449942
90	0x3eb50b78	0.35360312
91	0x3e58e7e0	0.21182203
92	0xbeda8e62	-0.42686754
93	0xbea42640	-0.32060432
94	0xbe8432a4	-0.25819886
95	0x3e046e33	0.12932663
96	0xbe1b0b7f	-0.15141104
97	0x3e98c55c	0.29838073
98	0xbe056c25	-0.13029535
99	0xbe44f273	-0.19233112
100	0xbe8f63b8	-0.28005767
101	0x3eb1dd8e	0.34739345
102	0xbe83e4b4	-0.25760424
103	0x3eea521b	0.45765767
104	0xbe8d24c2	-0.27567106
105	0xbd9825af	-0.074290626
106	0xbef83bdf	-0.48483178
107	0x3eae8438	0.3408525
108	0xbe056682	-0.13027385
109	0x3ecb7f08	0.39745355
110	0x3bd74745	0.0065697753
111	0xbd81dc8f	-0.06340896
112	0x3d7ca14a	0.061677255
113	0xbdd4469a	-0.10365029
114	0xbef136a2	-0.47111994
115	0xbe7a2f13	-0.2443202
116	0xbe792834	-0.24331743
117	0xbeccad10	-0.39975786
118	0xbec189cc	-0.37800443
119	0xbd91789b	-0.07103082
120	0x3e76b88e	0.2409384
121	0x3ec926c2	0.39287382
122	0x3ccdb09f	0.025108634
123	0x3e88cd90	0.26719332
124	0xbd1feeca	-0.039046086
125	0x3ea03f25	0.31298175
126	0xbd2ed93b	-0.042687636
127	0x3e8807ea	0.26568538

critic.2.weight f4 [64, 128]
0	0x3bfc0952	0.0076915408
1	0xbd5356c9	-0.051596437
2	0x3d03140e	0.032001548
3	0xbd2228fb	-0.039589863
4	0xbc1c2565	-0.0095304
5	0xbd418ce9	-0.047253523
6	0x3b162626	0.0022910922
7	0xbd5c8eda	-0.05384717
8	0x3d83afae	0.064299926
9	0xbd7c33b7	-0.061572757
10	0xbc262566	-0.010140752
11	0xbbafd8ac	-0.0053664055
12	0xbd62a41d	-0.055332292
13	0xbd81213f	-0.06305169
14	0x3d95b037	0.07309001
15	0xbd829376	-0.06375782
16	0xbdb33417	-0.0875017
17	0xbbbf52ec	-0.0058387425
18	0x3be81fed	0.007083884
19	0xbd857742	-0.06516887
20	0xbd71da94	-0.059046343
21	0x3c865949	0.016399996
22	0x3cb8cf8b	0.022559902
23	0x3ad66455	0.0016356806
24	0xbcb67c91	-0.022276195
25	0x3c9a0cb7	0.018804891
26	0xba8e7be3	-0.0010870661
27	0x3d203f7f	0.039123055
28	0x3d9f4e9b	0.07778665
29	0xbcd90824	-0.02649314
30	0x3d055dba	0.032560088
31	0x3984064a	0.00025181688
32	0xbd99acfe	-0.07503699
33	0xbc2a8b56	-0.010409197
34	0xbd56e210	-0.052461684
35	0x3b2349f1	0.0024915899
36	0x3d0c5a8b	0.034266036
37	0xbd366722	-0.04453195
38	0x3d720e82	0.059095867
39	0xbc96ebe8	-0.018423036
40	0x3c2e1bb5	0.010626723
41	0xbd3bcbe7	-0.045848753
42	0xbc3882b0	-0.011261627
43	0x3cdd2937	0.026997192
44	0xbd07826a	-0.033083357
45	0x3d5d7eff	0.05407619
46	0xbcc163f5	-0.023607234
47	0x3da9ea69	0.08296663
48	0x3d5cba98	0.053888887
49	0xbcb649cf	-0.022251992
50	0x3d908a0b	0.070575796
51	0xbccb2452	-0.024797592
52	0x3da265c7	0.07929569
53	0x3cb1db01	0.021710875
54	0xbce68278	-0.028138384
55	0x3a9f3c5a	0.0012148723
56	0xbd3966ee	-0.045264177
57	0xbd7848b3	-0.060616206
58	0x3da1c3f4	0.07898703
59	0xbd97a015	-0.0740358
60	0xbd7ba425	-0.061435837
61	0xbc60f6cc	-0.013730716
62	0x3d5229f7	0.051309552
63	0x3d2769d6	0.040872417
64	0xbd9f0aa8	-0.077657044
65	0xbd39d99c	-0.045373544
66	0xbd5c4c2f	-0.05378359
67	0x3d2dc975	0.042428453
68	0x3d9d69c4	0.07686189
69	0xbd5cc958	-0.053902954
70	0xbd2ff6ee	-0.0429601
71	0xbd6b8c01	-0.057506565
72	0x3c94e4d1	0.018175514
73	0xbda6d356	-0.08145778
74	0x3dabf9e0	0.08397269
75	0xbda73b08	-0.08165556
76	0xbdb0f059	-0.08639593
77	0xbd11a9c0	-0.035562277
78	0x3d7b7e04	0.061399475
79	0x3da02f4a	0.0782152
80	0xbd4a2544	-0.049351946
81	0xbd557884	-0.052116886
82	0x3ab9cc9d	0.0014175359
83	0xbc84d5b1	-0.016215177
84	0xbd947628	-0.07249099
85	0x3c901d9f	0.01759225
86	0xbd5e9787	-0.054343726
87	0xbd21b25d	-0.03947674
88	0x3c69f0fb	0.014278646
89	0xbd704191	-0.05865628
90	0x3d4a78d3	0.049431633
91	0xbda0bb07	-0.07848173
92	0xbd7acfea	-0.06123344
93	0x3d3ad01b	0.04560862
94	0x3d249ecd	0.040190507
95	0xbb1be1c8	-0.00237857
96	0x3d88b62b	0.06675371
97	0xbd0a31f0	-0.03373903
98	0x3d85edea	0.06539519
99	0xbcde0eb1	-0.027106615
100	0x3d7e5ac1	0.06209827
101	0x3cd81b27	0.026380135
102	0xbd8b1c4a	-0.06792505
103	0x3c6dde78	0.014518373
104	0xbda45284	-0.08023551
105	0x3dac4d3d	0.084131695
106	0xbcde9cf0	-0.027174443
107	0x3d9b8989	0.07594592
108	0xbd9fcb88	-0.078024924
109	0xbd0cfca5	-0.034420628
110	0x3dae1376	0.08499806
111	0x3cd7501e	0.02628332
112	0xbd1b7842	-0.037956484
113	0x3d8fd0d1	0.070222504
114	0x3cc2877f	0.02374625
115	0xbd0cad64	-0.034345046
116	0xbd721549	-0.05910233
117	0x3d9f1436	0.07767527
118	0x3d9a8936	0.07545702
119	0xbcb1af28	-0.021689966
120	0xbd2fbd47	-0.04290512
121	0xbd7f43fa	-0.062320687
122	0x3d05b063	0.03263892
123	0x3d80d60b	0.062908255
124	0xbd029804	-0.031883255
125	0x3c08f42e	0.008358998
126	0xbd9d91d8	-0.07693833
127	0xbd5cb4e4	-0.05388345
128	0xbd3e74b7	-0.046498027
129	0x3d96f3a9	0.07370693
130	0xba96dc40	-0.0011509731
131	0xbdb38f99	-0.087676235
132	0xbdae033f	-0.08496713
133	0x3da48c4e	0.080345735
134	0xbd471408	-0.048603088
135	0xbdaa5f16	-0.083189175
136	0x3d3c3554	0.045949295
137	0x3d832954	0.06404367
138	0xbd1adb94	-0.037807062
139	0xbdacb834	-0.084335715
140	0x3ceec492	0.029146466
141	0xbd42181b	-0.04738627
142	0xbd411480	-0.04713869
143	0x3d873544	0.066019565
144	0x3c7fb99a	0.015608216
145	0x3da8f85e	0.08250497
146	0xbdb314bd	-0.0874419
147	0xbbf50307	-0.0074771675
148	0x3d6aa0e5	0.057282347
149	0x3d14a4a8	0.03628984
150	0x3cc7b73f	0.02437937
151	0x3d6c221a	0.05764971
152	0xbd6d1c06	-0.057888053
153	0xbd77494f	-0.060372647
154	0xbdace90d	-0.084428884
155	0x3d29cd36	0.04145547
156	0x3c1b18cc	0.009466361
157	0x3c227fee	0.009918196
158	0x3d96dcd1	0.07366336
159	0x3d581211	0.052751604
160	0xbdb2cf4e	-0.087309465
161	0x3db13a0c	0.0865365
162	0x3da1b979	0.07896704
163	0xbd83c840	-0.06434679
164	0x3af5c6ed	0.0018751301
165	0xbd940a2c	-0.07228503
166	0x3c967e07	0.018370641
167	0xbdb972be	-0.090550885
168	0xbbd998c8	-0.0066405274
169	0x3c844ccd	0.016149903
170	0xbda8a75b	-0.082350455
171	0x3c94ca14	0.018162765
172	0x3d88bce0	0.0667665
173	0x3d6ee1e2	0.058320887
174	0x3c506ce3	0.012721273
175	0xbc2d5703	-0.010579827
176	0xbbf1fd0e	-0.007384903
177	0x3ca64f24	0.020301409
178	0x3d8d2623	0.068920396
179	0xbd924fa4	-0.071440965
180	0x3db073f8	0.08615869
181	0xbc4e86c5	-0.012605374
182	0x3b929183	0.0044729128
183	0xbda32729	-0.079664536
184	0xbd3cf571	-0.04613251
185	0x3cb3a65b	0.02192991
186	0x3d885f13	0.06658759
187	0x3d863cfa	0.06554599
188	0xbdac05ff	-0.08399581
189	0xbd78eb4b	-0.060771268
190	0x3d8fdfdc	0.0702512
191	0x3d28a6ca	0.041174687
192	0x3d2978a1	0.041374806
193	0x3d9db333	0.07700195
194	0x3d886ca2	0.06661345
195	0xbcbcd9d6	-0.023053091
196	0xbd68526e	-0.056719236
197	0x3cb39537	0.021921737
198	0xbd2fe25d	-0.042940486
199	0x3d5b8fe0	0.053604007
200	0x3cff728f	0.031182555
201	0xbd96ca6b	-0.07362827
202	0x3d67e872	0.05661816
203	0xbd4ddff8	-0.05026242
204	0x3d987872	0.07444848
205	0xbdae76f1	-0.0851878
206	0x3ca839f9	0.020535456
207	0xbd45f582	-0.048329838
208	0x3d7d778e	0.061881594
209	0xbbfa3d89	-0.00763673
210	0xbb2c8a5c	-0.0026327586
211	0xbd6d1247	-0.05787876
212	0x3c217af6	0.009855976
213	0xbcec9887	-0.028881324
214	0xbd58e479	-0.052952264
215	0xbda20eff	-0.079130165
216	0x3b0c003d	0.0021362447
217	0xbca609bb	-0.020268312
218	0xbd662a25	-0.056192536
219	0x3d5621e2	0.052278407
220	0xbcba5a21	-0.022748055
221	0x3d55b370	0.052173078
222	0x3db48a81	0.0881548
223	0x3d961bea	0.07329543
224	0x3d603ecc	0.054747388
225	0x3da0f164	0.078585416
226	0xbcc5e237	-0.02415572
227	0x3b5847b1	0.0033001716
228	0x3d485cd1	0.04891664
229	0xbd940f3a	-0.07229467
230	0x3d071774	0.03298135
231	0xbdc05f29	-0.0939315
232	0x3d4b731c	0.049670324
233	0xbced4e1b	-0.028967908
234	0x3ceacfbc	0.028663509
235	0xbc4014f7	-0.011723748
236	0x3d888165	0.06665305
237	0xbd83b9f2	-0.06431951
238	0xbcca29d5	-0.02467815
239	0xbcd4e8d0	-0.02598992
240	0x3b38e761	0.0028214084
241	0xbd14f6a3	-0.036368024
242	0xbcc2c7a5	-0.023776839
243	0xbd0e86f2	-0.034796663
244	0xbdbb28d4	-0.09138647
245	0x3c77a06e	0.015113933
246	0xbdb05c3e	-0.08611344
247	0x3d412492	0.047154017
248	0xbd9ef157	-0.07760876
249	0x3d193bc3	0.03741051
250	0xbd725dec	-0.059171602
251	0x3beab362	0.0071624974
252	0xbce81216	-0.028328937
253	0x3cd903ec	0.026491128
254	0x3bf2b120	0.007406369
255	0x3bdcffbd	0.0067443536

critic.2.bias f4 [64]
0	0x3c0a69f8	0.0084481165
1	0xbd48795c	-0.048943862
2	0xbd2278cc	-0.039665982
3	0xbd4f2018	-0.050567716
4	0xbc14c80d	-0.009080899
5	0x3d526a0f	0.051370677
6	0xbc45432e	-0.012039943
7	0x3dbe1c07	0.092826895
8	0x3d9b93b3	0.07596531
9	0xbc0d2917	-0.008615754
10	0xbd90204c	-0.0703741
11	0xbd39ef28	-0.045394093
12	0x3d555fa3	0.05209316
13	0x3db3c3c2	0.08777572
14	0xbca8472d	-0.020541752
15	0xbd1c080b	-0.038093608
16	0xbd716e31	-0.058942977
17	0x3ccbba79	0.02486919
18	0x3db3240e	0.08747111
19	0xbcf6b56c	-0.030115806
20	0xbda47901	-0.08030892
21	0x3da29dc7	0.0794025
22	0xbd964816	-0.07337968
23	0x3bcfb6d8	0.0063389353
24	0xbd684652	-0.056707688
25	0x3d43ac69	0.047771845
26	0xbd35794c	-0.04430513
27	0xbcf2e3ad	-0.02964958
28	0x3b823fc1	0.003974885
29	0xbd8b337e	-0.06796931
30	0x3cc18c4b	0.023626467
31	0xbd2db1ef	-0.04240602
32	0x3d2db688	0.042410403
33	0xbca66bcf	-0.020315079
34	0xbd027be6	-0.03185644
35	0x3c731b7a	0.014838094
36	0xbdac4e77	-0.084134035
37	0xbce06ea9	-0.027396517
38	0xbd6c1e84	-0.05764629
39	0xbdace65b	-0.08442374
40	0xbd5ee438	-0.054416865
41	0x3b8f04f6	0.004364605
42	0x3cdedecf	0.027205853
43	0xbd3905ae	-0.045171432
44	0x3cf3dc00	0.02976799
45	0x3ba8b40c	0.0051484164
46	0x3d41b534	0.04729195
47	0x3db59cd4	0.08867803
48	0xbca1e97e	-0.019764658
49	0x3c2fa1fc	0.010719772
50	0xbd308cfe	-0.04310321
51	0x3d9840d0	0.07434237
52	0xbd9b6289	-0.075871535
53	0x3bcfee2d	0.0063455314
54	0xbda1b7fb	-0.078964196
55	0x3d46ba24	0.04851736
56	0xbd9de81e	-0.077102885
57	0xbd60a214	-0.05484207
58	0xbda470dd	-0.080293395
59	0x3c372063	0.011177155
60	0x3d8f8fb5	0.07009832
61	0x3d02e30f	0.03195482
62	0x3d5c0727	0.05371776
63	0xbcb4b82c	-0.022060476
